Demo_Arduino_Motion/models/Motion_Trainer_Up_Forward.tflite (tflite, 18480 bytes, 3 tensors)

sequential_1/dense_Dense1/MatMul/ReadVariableOp/transpose i1 [50, 300] scale=0.0018926171 zero_point=0
00000000: c226 e4fb dfd6 1de1 d30d 220a 22eb 1bc3
00000010: d8fb 19b1 2e08 e5f3 232c 25df 1612 2910
00000020: 34d4 e5de 0bcd d1d8 29ec 2df3 cd27 f2e3
00000030: e1c2 250e f3ed 170e e3b8 ee30 0d2f 1f03
00000040: f804 ff4c 3f2f 4622 1fe7 3908 e3e8 26e2
00000050: 15f6 1518 1af7 48f3 f40a 2809 1426 0df7
00000060: 21dd e51a d906 e416 2827 0f1a d9ee 1efb
00000070: 02ec b802 ca01 35cc 4308 3929 f4fc f709
00000080: d5e3 05c6 bd2b da11 f001 e703 efff 0be3
00000090: b609 ebbb dbc1 dcd8 f3fa 270e 0dc1 e333
000000a0: 1327 c9de 071d f6f2 f735 1eed 13ea 0efa
000000b0: 4230 53f8 effd 1b2b d317 2649 ea00 d127
000000c0: cd0f 0bff f7b7 26c3 f1e7 ff36 1634 0bfb
000000d0: 3a49 fee3 4ab4 05f7 16c3 4932 0ae9 270d
000000e0: 17f5 09fd 17f3 20e5 1729 4a0f 15ed 32f5
000000f0: 39c3 06ea c138 1c3d 2409 fcf3 c321 33fd
-0.117342256 0.07191945 -0.05299328 -0.009463086 -0.062456366 -0.07948992 0.054885894 -0.058671128
-0.085167766 0.024604023 0.06434898 0.018926172 0.06434898 -0.03974496 0.05110066 -0.115449645
-0.07570469 -0.009463086 0.047315426 -0.14951675 0.087060384 0.015140937 -0.05110066 -0.024604023
0.0662416 0.083275154 0.07002683 -0.062456366 0.041637577 0.03406711 0.0775973 0.030281873
0.09841609 -0.083275154 -0.05110066 -0.06434898 0.020818789 -0.09652347 -0.088953 -0.07570469
0.0775973 -0.037852343 0.085167766 -0.024604023 -0.09652347 0.07381207 -0.02649664 -0.054885894
-0.058671128 -0.117342256 0.07002683 0.02649664 -0.024604023 -0.035959724 0.043530192 0.02649664
-0.054885894 -0.13626844 -0.03406711 0.09084562 0.024604023 0.088953 0.058671128 0.0056778514
-0.015140937 0.0075704684 -0.0018926171 0.1438389 0.119234875 0.088953 0.1324832 0.06434898
0.058671128 -0.047315426 0.10787918 0.015140937 -0.054885894 -0.04542281 0.07191945 -0.056778513
0.03974496 -0.018926172 0.03974496 0.04542281 0.049208045 -0.017033555 0.13626844 -0.024604023
-0.022711406 0.018926172 0.07570469 0.017033555 0.037852343 0.07191945 0.024604023 -0.017033555
0.062456366 -0.0662416 -0.05110066 0.049208045 -0.07381207 0.011355703 -0.05299328 0.041637577
0.07570469 0.07381207 0.028389256 0.049208045 -0.07381207 -0.03406711 0.056778513 -0.009463086
0.0037852342 -0.037852343 -0.13626844 0.0037852342 -0.10220132 0.0018926171 0.10030871 -0.09841609
0.12680535 0.015140937 0.10787918 0.0775973 -0.022711406 -0.0075704684 -0.017033555 0.017033555
-0.081382535 -0.054885894 0.009463086 -0.10977179 -0.12680535 0.081382535 -0.07191945 0.03217449
-0.030281873 0.0018926171 -0.047315426 0.0056778514 -0.03217449 -0.0018926171 0.020818789 -0.054885894
-0.14005366 0.017033555 -0.03974496 -0.13059057 -0.07002683 -0.119234875 -0.06813422 -0.07570469
-0.024604023 -0.011355703 0.07381207 0.02649664 0.024604023 -0.119234875 -0.054885894 0.09652347
0.035959724 0.07381207 -0.10409394 -0.06434898 0.01324832 0.054885894 -0.018926172 -0.02649664
-0.017033555 0.10030871 0.056778513 -0.035959724 0.035959724 -0.041637577 0.02649664 -0.011355703
0.12491273 0.09084562 0.15708722 -0.015140937 -0.03217449 -0.0056778514 0.05110066 0.081382535
-0.085167766 0.043530192 0.07191945 0.13816105 -0.041637577 0.0 -0.088953 0.07381207
-0.09652347 0.028389256 0.020818789 -0.0018926171 -0.017033555 -0.13816105 0.07191945 -0.115449645
-0.028389256 -0.047315426 -0.0018926171 0.10220132 0.041637577 0.09841609 0.020818789 -0.009463086
0.10977179 0.13816105 -0.0037852342 -0.054885894 0.14005366 -0.1438389 0.009463086 -0.017033555
0.041637577 -0.115449645 0.13816105 0.09463085 0.018926172 -0.043530192 0.07381207 0.024604023
0.043530192 -0.020818789 0.017033555 -0.0056778514 0.043530192 -0.024604023 0.060563747 -0.05110066
0.043530192 0.0775973 0.14005366 0.028389256 0.03974496 -0.035959724 0.09463085 -0.020818789
0.10787918 -0.115449645 0.011355703 -0.041637577 -0.119234875 0.10598656 0.05299328 0.115449645
0.06813422 0.017033555 -0.0075704684 -0.024604023 -0.115449645 0.062456366 0.09652347 -0.0056778514

sequential_1/dense_Dense2/MatMul/ReadVariableOp/transpose i1 [15, 50] scale=0.004056717 zero_point=0
00000000: 2031 1733 1431 3609 443a e4ce c930 ebf2
00000010: 450b 34dc d535 11cb 1f4f f8fa 2249 4d0e
00000020: 194d c6e2 f02a 3acf d2f7 29bc d209 d8d1
00000030: 461d e5ee ff0a 390a 0849 faf3 03fe e103
00000040: 0bf1 0e13 f9cb 1cca f8fb 32dd d9f6 2548
00000050: b9f3 ae31 e0d0 45da f40c eb1d f40b 23e4
00000060: 0215 e2ba f5fe b22e 3201 34d7 fb1a d906
00000070: 4736 e7fc e51b e615 050a c3ff 26d7 2f08
00000080: bf15 38bd c5e3 d6e6 46e5 192c eb35 cc0b
00000090: 1ad8 b124 0cd0 f2fe 40c4 36ba 2608 cc3b
000000a0: 5e3a 0dc7 30c2 9e40 f1d4 0a46 0806 1103
000000b0: 25c5 0230 f829 dbff 032b fae3 2ff7 02fa
000000c0: 0117 b9cc df3c 0010 f7f0 f217 0d24 d319
000000d0: 03f5 e5e0 b2e7 e824 10d2 09d6 212e 15ce
000000e0: 17b9 c603 df11 4dda d4f6 02f4 3b49 28d8
000000f0: da2f 2d15 f22e f50a 4109 e3d3 4d0f 08da
0.12981494 0.19877912 0.093304485 0.20689255 0.081134334 0.19877912 0.2190627 0.036510453
0.27585673 0.23528957 -0.11358807 -0.20283584 -0.22311942 0.19472241 -0.085191056 -0.056794036
0.27991346 0.044623885 0.21094927 -0.14604181 -0.17443882 0.215006 0.06896418 -0.215006
0.12575822 0.3204806 -0.032453734 -0.024340302 0.13792837 0.2961403 0.3123672 0.056794036
0.10141792 0.3123672 -0.23528957 -0.1217015 -0.06490747 0.17038211 0.23528957 -0.19877912
-0.18660897 -0.036510453 0.16632539 -0.27585673 -0.18660897 0.036510453 -0.16226867 -0.19066569
0.28397018 0.11764479 -0.10953135 -0.073020905 -0.004056717 0.040567167 0.23123285 0.040567167
0.032453734 0.2961403 -0.024340302 -0.052737318 0.012170151 -0.008113434 -0.12575822 0.012170151
0.044623885 -0.06085075 0.056794036 0.07707762 -0.028397018 -0.215006 0.11358807 -0.2190627
-0.032453734 -0.020283584 0.20283584 -0.14198509 -0.15821196 -0.040567167 0.15009852 0.29208362
-0.2880269 -0.052737318 -0.33265078 0.19877912 -0.12981494 -0.19472241 0.27991346 -0.15415524
-0.048680604 0.048680604 -0.085191056 0.11764479 -0.048680604 0.044623885 0.14198509 -0.11358807
0.008113434 0.085191056 -0.1217015 -0.28397018 -0.044623885 -0.008113434 -0.31642392 0.18660897
0.20283584 0.004056717 0.21094927 -0.16632539 -0.020283584 0.105474636 -0.15821196 0.024340302
0.2880269 0.2190627 -0.10141792 -0.016226867 -0.10953135 0.10953135 -0.105474636 0.085191056
0.020283584 0.040567167 -0.24745972 -0.004056717 0.15415524 -0.16632539 0.19066569 0.032453734
-0.2636866 0.085191056 0.22717614 -0.2718 -0.2393463 -0.11764479 -0.17038211 -0.105474636
0.28397018 -0.10953135 0.10141792 0.17849554 -0.085191056 0.215006 -0.21094927 0.044623885
0.105474636 -0.16226867 -0.3204806 0.14604181 0.048680604 -0.19472241 -0.056794036 -0.008113434
0.25962988 -0.243403 0.2190627 -0.28397018 0.15415524 0.032453734 -0.21094927 0.2393463
0.38133138 0.23528957 0.052737318 -0.23123285 0.19472241 -0.25151643 -0.39755824 0.25962988
-0.06085075 -0.17849554 0.040567167 0.28397018 0.032453734 0.024340302 0.06896418 0.012170151
0.15009852 -0.2393463 0.008113434 0.19472241 -0.032453734 0.16632539 -0.15009852 -0.004056717
0.012170151 0.17443882 -0.024340302 -0.11764479 0.19066569 -0.036510453 0.008113434 -0.024340302
0.004056717 0.093304485 -0.2880269 -0.21094927 -0.13387166 0.243403 0.0 0.06490747
-0.036510453 -0.06490747 -0.056794036 0.093304485 0.052737318 0.14604181 -0.18255226 0.10141792
0.012170151 -0.044623885 -0.10953135 -0.12981494 -0.31642392 -0.10141792 -0.09736121 0.14604181
0.06490747 -0.18660897 0.036510453 -0.17038211 0.13387166 0.18660897 0.085191056 -0.20283584
0.093304485 -0.2880269 -0.23528957 0.012170151 -0.13387166 0.06896418 0.3123672 -0.15415524
-0.17849554 -0.040567167 0.008113434 -0.048680604 0.2393463 0.2961403 0.16226867 -0.16226867
-0.15415524 0.19066569 0.18255226 0.085191056 -0.056794036 0.18660897 -0.044623885 0.040567167
0.2636866 0.036510453 -0.11764479 -0.18255226 0.3123672 0.06085075 0.032453734 -0.15415524

sequential_1/dense_Dense3/MatMul/ReadVariableOp/transpose i1 [2, 15] scale=0.006528531 zero_point=0
00000000: 18f8 2219 1de0 0a9e 79ba ef3a c036 fcad
00000010: bcf1 7ffb 4e7d 3924 0ddf 820d ecdb
0.15668476 -0.05222825 0.22197007 0.16321328 0.1893274 -0.208913 0.06528531 -0.6397961
0.7899523 -0.4569972 -0.11098503 0.3786548 -0.417826 0.35254067 -0.026114125 -0.5418681
-0.44394013 -0.097927965 0.82912344 -0.032642655 0.5092254 0.8160664 0.37212628 0.23502712
0.084870905 -0.21544152 -0.82259494 0.084870905 -0.13057062 -0.24155566
