model_repo/01f6ad1c-b24a-4159-9f38-7a30ea8914ca.tflite (tflite, 8864 bytes, 3 tensors)

final_fc_weights/read/transpose i1 [4, 96] scale=0.0010286189 zero_point=0
0.020572377 0.0051430943 -0.0010286189 -0.0010286189 0.010286189 0.0061717136 -0.0010286189 0.0051430943
0.016457902 0.0010286189 -0.0030858568 0.0030858568 0.010286189 0.0041144756 -0.0030858568 -0.0010286189
0.01851514 0.0 -0.0020572378 -0.0030858568 -0.0061717136 0.014400665 0.012343427 0.013372046
0.031887185 -0.0380589 -0.11314808 0.0020572378 -0.05554542 -0.03703028 -0.11623394 -0.061717134
0.021600997 -0.016457902 -0.0709747 -0.0072003324 -0.024686854 -0.016457902 -0.05760266 -0.01851514
0.012343427 -0.01954376 -0.02777271 -0.023658235 -0.0030858568 -0.01954376 -0.023658235 -0.0041144756
0.044230614 -0.10080465 -0.11623394 -0.0051430943 -0.08537537 -0.08023227 -0.1306346 -0.07817504
0.033944424 -0.01954376 -0.0761178 -0.03600166 -0.0545168 -0.040116135 -0.0709747 -0.060688514
0.025715472 -0.040116135 -0.059659895 -0.031887185 -0.030858567 -0.04628785 -0.044230614 -0.011314807
0.08331813 -0.023658235 -0.013372046 0.10286189 0.010286189 0.026744092 0.0010286189 0.10491913
0.06480299 -0.0154292835 -0.00925757 0.06480299 0.017486522 -0.0030858568 -0.0041144756 0.05554542
0.029829947 -0.026744092 0.0010286189 0.026744092 0.0030858568 -0.02880133 0.00925757 0.011314807
-0.0030858568 0.0010286189 0.013372046 -0.008228951 0.0030858568 0.0 -0.0061717136 0.0020572378
0.0010286189 -0.0072003324 -0.0010286189 -0.0020572378 0.0030858568 -0.0020572378 0.0041144756 -0.010286189
-0.0041144756 -0.008228951 0.0041144756 -0.0030858568 -0.0154292835 0.0020572378 -0.00925757 0.0041144756
-0.0010286189 0.010286189 0.012343427 -0.0010286189 0.01954376 0.017486522 0.0154292835 0.017486522
-0.014400665 0.053488184 0.012343427 0.052459564 0.017486522 0.04628785 0.01851514 0.020572377
-0.016457902 -0.00925757 0.026744092 -0.032915805 -0.013372046 -0.013372046 0.0154292835 -0.008228951
0.011314807 0.03703028 0.03908752 0.0030858568 0.04525923 0.033944424 0.040116135 0.02880133
0.0051430943 0.07714642 0.022629615 0.060688514 0.033944424 0.06583161 0.026744092 0.014400665
-0.0154292835 -0.0061717136 0.0030858568 -0.032915805 -0.013372046 -0.020572377 0.0 0.0061717136
-0.00925757 0.0020572378 0.0 -0.017486522 -0.0154292835 0.013372046 0.0020572378 0.0010286189
-0.013372046 0.026744092 0.01851514 -0.012343427 0.0154292835 0.03908752 -0.00925757 -0.01954376
-0.032915805 -0.023658235 -0.016457902 -0.03703028 -0.02777271 -0.029829947 -0.022629615 -0.029829947
-0.008228951 0.0 -0.0030858568 -0.00925757 -0.0020572378 -0.0030858568 -0.0051430943 0.0
0.0 -0.0010286189 -0.0072003324 0.0030858568 0.0030858568 -0.0020572378 -0.0041144756 -0.0051430943
0.0041144756 0.00925757 0.0030858568 0.008228951 -0.011314807 0.01954376 0.0030858568 0.00925757
-0.011314807 0.0 0.031887185 -0.013372046 -0.0020572378 0.0030858568 0.032915805 0.0010286189
0.0061717136 0.011314807 0.0020572378 -0.0041144756 0.0 0.0030858568 0.013372046 0.0061717136
0.0072003324 0.07406056 -0.01954376 0.053488184 0.014400665 0.060688514 -0.01851514 0.021600997
-0.03908752 0.012343427 0.040116135 -0.017486522 0.00925757 0.0061717136 0.033944424 0.012343427
0.011314807 0.0072003324 0.011314807 -0.01954376 0.013372046 0.014400665 0.017486522 0.014400665
00000000: 1405 ffff 0a06 ff05 1001 fd03 0a04 fdff
00000010: 1200 fefd fa0e 0c0d 1fdb 9202 cadc 8fc4
00000020: 15f0 bbf9 e8f0 c8ee 0ced e5e9 fded e9fc
00000030: 2b9e 8ffb adb2 81b4 21ed b6dd cbd9 bbc5
00000040: 19d9 c6e1 e2d3 d5f5 51e9 f364 0a1a 0166
00000050: 3ff1 f73f 11fd fc36 1de6 011a 03e4 090b
00000060: fd01 0df8 0300 fa02 01f9 fffe 03fe 04f6
00000070: fcf8 04fd f102 f704 ff0a 0cff 1311 0f11
00000080: f234 0c33 112d 1214 f0f7 1ae0 f3f3 0ff8
00000090: 0b24 2603 2c21 271c 054b 163b 2140 1a0e
000000a0: f1fa 03e0 f3ec 0006 f702 00ef f10d 0201
000000b0: f31a 12f4 0f26 f7ed e0e9 f0dc e5e3 eae3
000000c0: f800 fdf7 fefd fb00 00ff f903 03fe fcfb
000000d0: 0409 0308 f513 0309 f500 1ff3 fe03 2001
000000e0: 060b 02fc 0003 0d06 0748 ed34 0e3b ee15
000000f0: da0c 27ef 0906 210c 0b07 0bed 0d0e 110e

first_weights/read i1 [1, 10, 8, 8]
-11 1 40 26 33 48 -79 18
66 114 8 -35 127 37 127 -86
-29 -16 108 41 52 63 112 60
43 0 25 -3 92 18 59 23
-27 -53 104 48 -20 17 10 44
22 45 5 -20 51 16 42 -55
-91 -97 79 20 -65 -87 -4 6
-6 -15 12 -8 16 -12 50 32
23 -14 73 15 76 40 73 -38
38 91 0 -27 82 64 58 -24
10 -43 65 51 28 68 -88 30
12 53 24 -39 79 28 -8 -59
-85 0 82 76 -19 -20 -71 29
35 0 3 -27 26 14 81 -54
-64 -47 95 5 -100 -54 -44 -20
-15 -16 -24 -14 -7 0 8 20
6 4 34 51 50 61 -91 7
23 127 -18 -30 70 8 -2 20
-40 -43 86 47 55 30 48 -6
43 54 8 -14 39 -23 81 -66
-16 -24 81 50 -14 -5 10 37
-4 17 -39 -34 -25 -31 31 -5
-58 -67 60 4 -104 -36 12 -21
19 60 -49 -31 -1 -36 -42 23
33 -9 21 35 66 71 -7 85
63 61 -40 2 111 17 8 40
-1 5 121 77 46 38 -69 -42
19 24 -6 -11 77 -5 35 -45
-41 -37 84 71 -51 4 0 9
-9 4 -18 -46 40 25 1 -23
-75 -82 27 26 -108 -56 -7 -19
27 42 -34 -30 -40 -46 -15 -44
00000000: f501 281a 2130 b112 4272 08dd 7f25 7faa
00000010: e3f0 6c29 343f 703c 2b00 19fd 5c12 3b17
00000020: e5cb 6830 ec11 0a2c 162d 05ec 3310 2ac9
00000030: a59f 4f14 bfa9 fc06 faf1 0cf8 10f4 3220
00000040: 17f2 490f 4c28 49da 265b 00e5 5240 3ae8
00000050: 0ad5 4133 1c44 a81e 0c35 18d9 4f1c f8c5
00000060: ab00 524c edec b91d 2300 03e5 1a0e 51ca
00000070: c0d1 5f05 9cca d4ec f1f0 e8f2 f900 0814
00000080: 0604 2233 323d a507 177f eee2 4608 fe14
00000090: d8d5 562f 371e 30fa 2b36 08f2 27e9 51be
000000a0: f0e8 5132 f2fb 0a25 fc11 d9de e7e1 1ffb
000000b0: c6bd 3c04 98dc 0ceb 133c cfe1 ffdc d617
000000c0: 21f7 1523 4247 f955 3f3d d802 6f11 0828
000000d0: ff05 794d 2e26 bbd6 1318 faf5 4dfb 23d3
000000e0: d7db 5447 cd04 0009 f704 eed2 2819 01e9
000000f0: b5ae 1b1a 94c8 f9ed 1b2a dee2 d8d2 f1d4

second_weights/read i1 [8, 10, 8, 8]
7 30 -55 -42 1 -45 19 -59
-34 -55 -39 -1 -14 2 22 -54
22 6 -13 -41 33 32 45 -28
75 7 -20 21 53 41 30 37
45 34 -17 -9 25 28 -3 30
13 68 -11 -51 17 -3 23 -7
-8 16 -59 -35 45 13 -31 -35
-17 -13 -5 -43 -15 0 12 -27
63 -1 -66 -61 -26 -21 -13 -5
0 29 -57 -13 18 -10 -29 22
22 35 8 25 53 52 -8 11
53 61 0 22 80 28 -47 -48
78 69 -47 6 56 48 24 -15
-3 -6 -69 -27 8 14 1 -45
25 50 -32 -50 49 24 66 -30
7 46 -34 -75 16 4 13 22
29 33 -45 -91 -25 -28 -38 -29
-15 60 -36 -69 0 -28 -29 -10
56 64 -27 10 49 44 48 -63
3 1 -17 29 54 66 43 25
44 65 -21 -7 58 70 14 18
71 -17 -62 10 63 16 -14 14
2 15 -69 -62 48 -6 35 -12
54 -13 -11 -23 -10 -14 -42 -16
29 22 -47 -67 -5 -35 -18 -31
-33 5 -23 -29 11 6 66 -31
57 54 -18 3 21 64 4 1
55 32 -35 20 69 66 31 -12
3 13 -20 -9 39 35 -29 16
63 78 -1 -28 15 46 18 -17
-3 -30 -80 -57 22 26 25 2
24 47 -1 -77 9 -5 24 19
00000000: 071e c9d6 01d3 13c5 dec9 d9ff f202 16ca
00000010: 1606 f3d7 2120 2de4 4b07 ec15 3529 1e25
00000020: 2d22 eff7 191c fd1e 0d44 f5cd 11fd 17f9
00000030: f810 c5dd 2d0d e1dd eff3 fbd5 f100 0ce5
00000040: 3fff bec3 e6eb f3fb 001d c7f3 12f6 e316
00000050: 1623 0819 3534 f80b 353d 0016 501c d1d0
00000060: 4e45 d106 3830 18f1 fdfa bbe5 080e 01d3
00000070: 1932 e0ce 3118 42e2 072e deb5 1004 0d16
00000080: 1d21 d3a5 e7e4 dae3 f13c dcbb 00e4 e3f6
00000090: 3840 e50a 312c 30c1 0301 ef1d 3642 2b19
000000a0: 2c41 ebf9 3a46 0e12 47ef c20a 3f10 f20e
000000b0: 020f bbc2 30fa 23f4 36f3 f5e9 f6f2 d6f0
000000c0: 1d16 d1bd fbdd eee1 df05 e9e3 0b06 42e1
000000d0: 3936 ee03 1540 0401 3720 dd14 4542 1ff4
000000e0: 030d ecf7 2723 e310 3f4e ffe4 0f2e 12ef
000000f0: fde2 b0c7 161a 1902 182f ffb3 09fb 1813
