model_repo/022aa512-a8d8-43b0-8ebc-91d179215eeb.tflite (tflite, 147828 bytes, 6 tensors)

sequential/dense/MatMul/ReadVariableOp/transpose f4 [50, 714]
0	0xbb20f040	-0.0024557263
1	0xbca25580	-0.01981616
2	0x3cbec14c	0.02328553
3	0xbda37e6c	-0.079830974
4	0x3d01158a	0.031514682
5	0x3da39652	0.07987656
6	0xbd0bf806	-0.03417208
7	0xbd1b3cb2	-0.03789968
8	0x3c9c2a64	0.019063182
9	0x3d9c370c	0.07627687
10	0xbc589830	-0.013219878
11	0x3cd94660	0.026522815
12	0xbda24f75	-0.079253115
13	0x3c6fe558	0.014642082
14	0x3d53b7dc	0.051689014
15	0xbd5f6c49	-0.05454663
16	0x3d4ff7cc	0.050773427
17	0xbd99d76a	-0.0751179
18	0x3dae142c	0.08499941
19	0xbd1c799f	-0.038201924
20	0xbda1c1a7	-0.078982644
21	0xbda279b2	-0.07933368
22	0xbc311c00	-0.010809898
23	0xbd197382	-0.037463672
24	0x3d4d5d5c	0.050137863
25	0xbd4c9576	-0.049947225
26	0xbc043258	-0.0080686435
27	0x3bb5a540	0.005543381
28	0x3d84c1fc	0.06482312
29	0xbd2efdc3	-0.042722475
30	0x3c927288	0.017876878
31	0x3d790280	0.0607934
32	0x3b029d20	0.001993008
33	0xbda2148e	-0.07914077
34	0xbdafa568	-0.085764706
35	0xbccd575c	-0.02506607
36	0x3b25d0c0	0.0025301427
37	0x3c930a34	0.017949201
38	0xbd574b25	-0.052561898
39	0x3d96c9a8	0.073626816
40	0xbd8fdab6	-0.07024138
41	0xbd78bcf0	-0.06072706
42	0xbd7700ff	-0.060303684
43	0x3c1209b0	0.0089134425
44	0xbaa044c0	-0.001222752
45	0xbd65b0eb	-0.056076925
46	0x3d83e6ca	0.06440504
47	0x3cff886c	0.03119298
48	0xbd281b80	-0.04104185
49	0xbda9630f	-0.08270847
50	0xbd4c7f3d	-0.04992603
51	0xbb79cc80	-0.0038116276
52	0x3bbd1a80	0.0057709813
53	0xbd623e22	-0.055235036
54	0xbda6698a	-0.08125599
55	0xbcd2ba48	-0.025723591
56	0x3cf779f0	0.030209512
57	0xbd53f4be	-0.051747076
58	0xbd7a9150	-0.061173737
59	0x3c471868	0.012151815
60	0xbcfe0efe	-0.031013008
61	0xbcef9d20	-0.029249728
62	0xbd988108	-0.07446486
63	0xbc5159f0	-0.01277779
64	0x3da3a264	0.07989958
65	0xbd4201ea	-0.047365107
66	0xbbd30170	-0.0064393803
67	0x3d526f04	0.051375404
68	0x3b8153e0	0.0039467663
69	0xbd6f8f42	-0.05848623
70	0xbdb0eab2	-0.086385146
71	0x3d34d818	0.044151396
72	0x3da1ba84	0.07896903
73	0x3d25813c	0.04040645
74	0x3da685de	0.08131002
75	0x3d7e2638	0.062048167
76	0xbc903454	-0.017603077
77	0xbdab684c	-0.083695024
78	0xbd37005f	-0.04467809
79	0x3db22f96	0.087004825
80	0xbd4577c1	-0.04820991
81	0xbd8d2709	-0.06892211
82	0x3c624358	0.013810001
83	0xbd6131f9	-0.0549793
84	0x3c056458	0.0081416
85	0xbd21f46c	-0.03953974
86	0x3d8f6f40	0.07003641
87	0xbd0f49ff	-0.034982678
88	0xbd9b845b	-0.07593604
89	0x3aa491c0	0.0012555644
90	0xbae029c0	-0.0017102286
91	0xbd8058ba	-0.06266923
92	0x3c186628	0.0093017
93	0x3c8c27f8	0.017108902
94	0xbd7615b6	-0.0600793
95	0x3d0ddaaa	0.034632362
96	0xbc1c2d30	-0.009532258
97	0x3cacbfa8	0.021087483
98	0x3bdef550	0.006804146
99	0xbbdf4a00	-0.0068142414
100	0xbc6c00d0	-0.014404491
101	0xbc9611fc	-0.018319122
102	0x3d3a40cc	0.04547195
103	0x3c992bd8	0.018697664
104	0xbb472820	-0.0030388907
105	0x3d94fafc	0.07274434
106	0x3d840360	0.06445956
107	0x3ce2f7b8	0.027706012
108	0x3d181334	0.03712769
109	0xbd34af0b	-0.044112246
110	0x3c4ca2a8	0.012489952
111	0x3d59fa54	0.053217247
112	0xbd6c2c8f	-0.057659682
113	0x3cdc063c	0.026858442
114	0x3d835f92	0.06414713
115	0xbc0fa1a0	-0.008766562
116	0xbda372cb	-0.079808794
117	0xbd97b8b6	-0.07408278
118	0x3d9e04fe	0.07715796
119	0x3d9f9842	0.07792713
120	0xbda44819	-0.08021564
121	0x3d90f250	0.070774674
122	0xbd74ba8c	-0.059748217
123	0x3d62d128	0.05537525
124	0xbc63da18	-0.013906978
125	0x3d02f538	0.03197214
126	0xbc20e048	-0.009819098
127	0xbdadd7b9	-0.084884115
128	0xbd66906a	-0.056290068
129	0x3d2cd450	0.042194664
130	0x3db2127a	0.086949304
131	0x3db13052	0.086517945
132	0xbcfad096	-0.03061704
133	0x3d813f28	0.06310874
134	0xbb175a80	-0.0023094714
135	0xbd966bb6	-0.07344763
136	0xbcab8e1c	-0.020941786
137	0xbc54d860	-0.012991041
138	0xbcc83518	-0.02443938
139	0xbd05afea	-0.032638468
140	0x3c5fea40	0.013666689
141	0x3dafad98	0.08578032
142	0xbd94eede	-0.07272123
143	0x3ccd7304	0.025079258
144	0xbd1316cb	-0.03591041
145	0xbd75bf88	-0.05999711
146	0xbc4c5d30	-0.0124733895
147	0xbd61ddd4	-0.055143192
148	0xbbdae2a0	-0.006679848
149	0xbc75cad0	-0.015001968
150	0xbcdb2360	-0.026750267
151	0xbda96ffc	-0.082733124
152	0xbdb08521	-0.08619142
153	0x3db297e4	0.08720377
154	0x3d9a0144	0.07519773
155	0xbad709c0	-0.0016406104
156	0x3d964c4e	0.07338773
157	0xbd0aed9d	-0.033918012
158	0xbc5925a0	-0.013253599
159	0xbd4f2bea	-0.05057899
160	0x3d956268	0.0729416
161	0xbd40b218	-0.047044843
162	0xbcf5da7e	-0.030011412
163	0xbd2c066d	-0.041998316
164	0x3d2bf260	0.041979194
165	0xbdab6c98	-0.08370322
166	0x3d914fbe	0.07095288
167	0x3b609a00	0.0034271479
168	0x3d0e3344	0.03471686
169	0xbd217b80	-0.03942442
170	0x3d9faec4	0.07797006
171	0x3d1b13f0	0.03786081
172	0x3d2aec54	0.041729286
173	0xbc1bb328	-0.009503163
174	0xba07d500	-0.0005181581
175	0x3d604490	0.054752886
176	0x3db07ee4	0.086179525
177	0xbd420a45	-0.047373075
178	0x3c92f9d0	0.017941386
179	0xbd5e46b0	-0.05426663
180	0xbd06aee5	-0.032881636
181	0xbd3190ab	-0.043350857
182	0x3c90a988	0.017658964
183	0x3c9c6b7c	0.019094221
184	0x3cc9cfb4	0.024635173
185	0x3c6be0f0	0.014396891
186	0x3d1bda7c	0.03805016
187	0xbc08ecf8	-0.008357279
188	0x3d3f376c	0.046683714
189	0xbd6bfbd2	-0.0576132
190	0xbd9540d2	-0.07287754
191	0x3b6da860	0.003626369
192	0xbd9119d4	-0.070850044
193	0x3d831596	0.064006016
194	0x3d4560b8	0.04818794
195	0x3d208428	0.039188534
196	0x3d9ab370	0.07553756
197	0xbcc36c8c	-0.02385547
198	0xbd842c76	-0.06453793
199	0x3d0ef144	0.034898058
200	0xbd597317	-0.053088274
201	0xbc5fe9a0	-0.01366654
202	0xbdaebead	-0.08532462
203	0xbd92d82f	-0.0717014
204	0xbcd163ac	-0.025560223
205	0x3d03a0b8	0.032135695
206	0x3c578e88	0.013156541
207	0xbd49b18e	-0.049241595
208	0xbd36d2d2	-0.044634648
209	0x3ca14d78	0.01969026
210	0x3be68870	0.0070353076
211	0x3d981eaa	0.07427724
212	0x3d4bbc70	0.049740255
213	0xbcc3b0f4	-0.023888089
214	0xbd4bac26	-0.04972472
215	0xbd062e21	-0.032758836
216	0x3daa2972	0.08308686
217	0x3d2a2500	0.041539192
218	0x3cbff010	0.0234299
219	0x3c6627c8	0.0140475705
220	0x3d8cb0c8	0.06869656
221	0x3d59d43c	0.053180918
222	0x3d84c03e	0.0648198
223	0x3d55e7c4	0.052222982
224	0x3d0ff3ae	0.0351445
225	0xbd881a09	-0.06645591
226	0x3da61584	0.081095725
227	0xbd473693	-0.04863603
228	0xba103780	-0.0005501434
229	0xbcc19e00	-0.02363491
230	0xbd89c120	-0.06726289
231	0xbca681d0	-0.020325571
232	0xbd4ce6ca	-0.050024785
233	0xbd132934	-0.035927966
234	0xbd601a7d	-0.05471276
235	0x3b6a2b80	0.0035731494
236	0x3d84d072	0.0648507
237	0x3d974854	0.07386842
238	0x3d50dff8	0.050994843
239	0x3d17376c	0.03691809
240	0x3c0c3958	0.008558594
241	0x3db466cc	0.088086694
242	0xbd8e9dc0	-0.06963682
243	0xbd86c3ad	-0.06580291
244	0x3be14f90	0.0068759397
245	0x3d68aab8	0.056803435
246	0xbc4e98e0	-0.01260969
247	0x3c3bc930	0.011461541
248	0x3d41ce90	0.047316134
249	0x3da4c94e	0.08046208
250	0x3ced58ac	0.028972946
251	0xbd5c9db1	-0.053861324
252	0x3d7669ac	0.06015937
253	0x3db372ec	0.08762154
254	0xba337b80	-0.0006846711
255	0x3d2488fc	0.0401697

sequential/dense/MatMul_bias f4 [50]
0	0x00000000	0.0
1	0xbb333ced	-0.0027349547
2	0xbb607a9e	-0.0034252773
3	0xbae0ebcd	-0.0017160118
4	0xbb4f3cfa	-0.0031622038
5	0xbb4f3dbe	-0.0031622495
6	0x00000000	0.0
7	0xbb4f35a2	-0.003161766
8	0x00000000	0.0
9	0xbb4f3dac	-0.0031622453
10	0x00000000	0.0
11	0xbad53942	-0.0016267675
12	0xbbab4ecd	-0.0052278996
13	0xbb4f3d7b	-0.0031622339
14	0x00000000	0.0
15	0xbb4f24a4	-0.0031607533
16	0xbb4f3dd7	-0.0031622553
17	0x00000000	0.0
18	0x3a6d4bc0	0.000905212
19	0xbb4f3dfc	-0.003162264
20	0xbb4f3c70	-0.0031621717
21	0xba687784	-0.0008867907
22	0x00000000	0.0
23	0xbb0e4690	-0.002170954
24	0x00000000	0.0
25	0xbb465480	-0.0030262768
26	0x00000000	0.0
27	0x00000000	0.0
28	0x00000000	0.0
29	0x00000000	0.0
30	0xbb4f3b92	-0.00316212
31	0xbcbeeffe	-0.023307797
32	0x00000000	0.0
33	0x00000000	0.0
34	0x00000000	0.0
35	0x00000000	0.0
36	0x3aa62817	0.0012676743
37	0x00000000	0.0
38	0xbb4f3c05	-0.0031621468
39	0xbb81193e	-0.0039397767
40	0xbb4f3da0	-0.0031622425
41	0x00000000	0.0
42	0xbb3ddfa0	-0.0028972402
43	0x00000000	0.0
44	0xbb4f3dbb	-0.0031622488
45	0x00000000	0.0
46	0xbb4f393b	-0.0031619805
47	0x00000000	0.0
48	0x00000000	0.0
49	0xbbbe2bf2	-0.0058035785

sequential/dense_1/MatMul/ReadVariableOp/transpose f4 [15, 50]
0	0x3df8e974	0.12153903
1	0xbe7fde25	-0.24987085
2	0xbdae8c41	-0.08522845
3	0xbe52c672	-0.20583513
4	0x3c97e170	0.018540114
5	0xbe062265	-0.13099058
6	0xbc922bf0	-0.017843217
7	0xbdc0f518	-0.09421748
8	0xbe4b2d22	-0.19841436
9	0x3e1e883c	0.15481657
10	0xbdb3cbca	-0.08779104
11	0x3e53e54d	0.2069294
12	0x3c85688d	0.016285205
13	0xbc3e65e0	-0.011620969
14	0xbe948e3d	-0.2901477
15	0xbbbab540	-0.005697876
16	0x3d7339a0	0.059381127
17	0x3d9f23e4	0.077705175
18	0x3daf80a2	0.08569457
19	0xbe949034	-0.29016268
20	0x3e833cd6	0.25632352
21	0x3e8754bc	0.26431835
22	0x3e402ffe	0.18768308
23	0x3e94d00c	0.29064977
24	0x3e66afe8	0.2252804
25	0xbdec4aa0	-0.11537671
26	0xbe0a743b	-0.13520901
27	0x3e575274	0.21027547
28	0x3e54c2cc	0.20777434
29	0xbe8276af	-0.25481173
30	0x3e1eb652	0.15499237
31	0x3bcfcb0d	0.006341344
32	0xbe980805	-0.29693618
33	0x3e98e3f0	0.29861403
34	0x3e8a280c	0.26983678
35	0x3e8d20ba	0.2756403
36	0xbe45d883	-0.19320874
37	0x3e0425ee	0.12905094
38	0xbe62a638	-0.2213372
39	0xbdebfb2a	-0.11522515
40	0x3e219c36	0.15782246
41	0x3e2a237e	0.16615102
42	0x3d869d4f	0.06572973
43	0x3d4d7ff8	0.05017087
44	0x3e907c96	0.28220052
45	0xbe49d2f8	-0.19709384
46	0x3da522b8	0.08063263
47	0x3e6dad28	0.23210585
48	0x3e0b5e28	0.13610137
49	0xbe70775f	-0.23483036
50	0x3e172932	0.14761809
51	0x3c54fa2a	0.012999097
52	0x3dce14d6	0.10062568
53	0xbe594f34	-0.2122162
54	0xbb4b8c4e	-0.003105897
55	0x3d4de594	0.05026777
56	0xbe8fa4ca	-0.28055412
57	0xbdc0a999	-0.09407348
58	0xbdbf6ff0	-0.09347522
59	0x3e76118b	0.2403013
60	0x3c21c460	0.00987348
61	0x3d8bc3b3	0.06824436
62	0x3e9e9549	0.3097327
63	0xbde8ab28	-0.113607705
64	0x3d13d360	0.036090255
65	0x3e608b1d	0.21928068
66	0xbcead82f	-0.028667537
67	0x3e79d010	0.24395776
68	0x3d962041	0.07330371
69	0x3e5484b9	0.20753755
70	0x3e2cd236	0.16877064
71	0xbe4a9eeb	-0.19787185
72	0xbe0840b8	-0.13305938
73	0x3e200864	0.15628201
74	0x3e6c8920	0.23099184
75	0x3d83dedb	0.06438991
76	0xbe29d424	-0.16584831
77	0xbb7a9000	-0.0038232803
78	0x3e1c6538	0.15272987
79	0x3c790c60	0.015200704
80	0x3d8683e1	0.06568123
81	0xbed47e09	-0.41502407
82	0xbcf76920	-0.030201495
83	0x3e85feb8	0.26170897
84	0x3c097580	0.008389831
85	0x3d830cb8	0.0639891
86	0x3cd27d07	0.025694383
87	0xbe45cf0b	-0.19317262
88	0xbe41c416	-0.18922457
89	0x3e5dc3cc	0.21656722
90	0x3e8b604e	0.27221912
91	0xbe1fb9cd	-0.15598221
92	0xbe40567f	-0.18782996
93	0x3d6c9190	0.057756007
94	0x3e8e3976	0.27778214
95	0x3e9695ce	0.29411167
96	0x3dbc9c70	0.092095256
97	0xbd321a88	-0.043482333
98	0x3cb93c80	0.022611856
99	0xbc054e2c	-0.008136313
100	0x3e807c9c	0.2509507
101	0x3bcaecc0	0.0061927736
102	0xbe75e068	-0.24011385
103	0xbd896407	-0.06708532
104	0x3e357cca	0.17723384
105	0x3dba9500	0.09110451
106	0x3e1cab32	0.15299681
107	0x3e20d9b0	0.15708041
108	0xbe170a09	-0.14749922
109	0xbe3ab6c8	-0.18233788
110	0x3bdecc80	0.0067992806
111	0x3cdd41e5	0.02700896
112	0xbdcdee78	-0.1005525
113	0xbe172777	-0.14761148
114	0xbe1f7c0c	-0.15574664
115	0x3e0217e6	0.12704429
116	0xbe996f32	-0.29967648
117	0xbe12e22a	-0.14344087
118	0x3e78089d	0.24222036
119	0xbd5ce9d8	-0.05393395
120	0xbe2d58ea	-0.1692845
121	0xbd2bdb8b	-0.04195742
122	0x3e1dbbea	0.15403715
123	0x3de12848	0.10994011
124	0xbe870054	-0.26367438
125	0xbe7e5486	-0.2483693
126	0x3d3dd1c8	0.04634264
127	0xbe5d54d0	-0.21614385
128	0x3e7ed1e4	0.24884754
129	0xbd98d29a	-0.07462044
130	0x3e3cacfc	0.18425363
131	0x3ccbe813	0.024890935
132	0x3df9fb94	0.12206188
133	0x3e540540	0.20705128
134	0x3e856a84	0.26057827
135	0xbe7b3162	-0.24530557
136	0xbe7566fa	-0.23965064
137	0x3de38b4c	0.11110553
138	0x3e675608	0.22591412
139	0xbe5e0d1e	-0.21684691
140	0x3d86d6ac	0.06583914
141	0x3d73f468	0.059559256
142	0xbd0a6a12	-0.033792563
143	0xbd108748	-0.035285264
144	0x3e1e76ee	0.15475056
145	0x3dc889d4	0.09791914
146	0x3e836990	0.25666475
147	0x3e8f4482	0.27981955
148	0x3e162f7e	0.14666554
149	0x3e86b298	0.2630813
150	0xbc28fe20	-0.010314494
151	0xbddf65fd	-0.109081246
152	0xbe0d2a95	-0.13785775
153	0xbbcac254	-0.0061877165
154	0x3e93d137	0.28870556
155	0xbc32c3b8	-0.010910921
156	0xbe559c82	-0.20860484
157	0x3e2e6d31	0.1703384
158	0xbe6c3317	-0.23066364
159	0x3e70049a	0.23439255
160	0x3db90b8c	0.090354055
161	0xbe46b1dc	-0.19403785
162	0x3e35c37d	0.17750354
163	0xbd01785b	-0.03160892
164	0xbbf71900	-0.007540822
165	0xbcf73ec2	-0.030181292
166	0xbdd87a7d	-0.10570238
167	0xbceff5e0	-0.029292047
168	0xbe1d8e5a	-0.15386334
169	0x3e1701d8	0.14746797
170	0xbe7d9284	-0.24762923
171	0x3daf27bc	0.085525006
172	0x3dd80bf4	0.10549155
173	0xbe5e59cf	-0.21713947
174	0xbe799b62	-0.2437568
175	0x3e8281db	0.25489697
176	0xbe434dcf	-0.1907265
177	0x3e4162de	0.18885371
178	0xbdaaac80	-0.08333683
179	0xbe58e458	-0.21180856
180	0xbc28e398	-0.010308169
181	0xbee675f3	-0.45011863
182	0x3e863b78	0.26217246
183	0xbe608722	-0.21926549
184	0xbda60e2e	-0.08108173
185	0x3de28590	0.11060631
186	0x3de93119	0.11386318
187	0xbc1125c0	-0.008859098
188	0x3d947ade	0.072499976
189	0xbd37ec9f	-0.044903394
190	0xbe3973bc	-0.18110555
191	0x3d7db530	0.061940372
192	0x3e04d728	0.129727
193	0xbe625cd8	-0.2210573
194	0x3db7ae14	0.0896875
195	0xbce291b0	-0.02765736
196	0x3b21fdaa	0.0024717846
197	0x3e3e3f6e	0.18578884
198	0xbcbc3c40	-0.022977948
199	0x3d2c6261	0.04208601
200	0x3e8e94b6	0.27847832
201	0x3e82d59b	0.25553593
202	0x3e1d694a	0.15372196
203	0x3da9b848	0.08287102
204	0xbe35253f	-0.1768999
205	0xbdf713d1	-0.120643266
206	0xbe2fc4c5	-0.17164905
207	0xbcc4b038	-0.024009809
208	0xbe7e0b12	-0.2480891
209	0xbe6a0dea	-0.2285687
210	0x3dc33a9c	0.09532663
211	0xbd1dff66	-0.038573645
212	0x3e394360	0.18092108
213	0xbe045ea0	-0.12926722
214	0x3cfaa950	0.030598313
215	0x3e1d5dc5	0.15367801
216	0xbe83abab	-0.2571691
217	0xbe8ac214	-0.27101195
218	0xbdc91d26	-0.09820013
219	0xbe835b25	-0.25655475
220	0x3dc815ad	0.09769759
221	0x3d349c15	0.044094164
222	0x3e810982	0.25202566
223	0x3e8b9314	0.2726065
224	0x3dc6f728	0.0971511
225	0x3ce7cbdf	0.028295456
226	0xbce11380	-0.027475119
227	0xbdcb9506	-0.09940533
228	0x3e3312d2	0.17487648
229	0x3e31c670	0.17360854
230	0xbe8da873	-0.2766758
231	0xbd75f9e6	-0.060052775
232	0xbe610918	-0.21976125
233	0xbe6d762a	-0.23189607
234	0x3e827828	0.25482297
235	0xbe5e8b25	-0.21732767
236	0x3c969f44	0.01838649
237	0xbe04225c	-0.12903732
238	0xbe28b23b	-0.1647424
239	0xbd85f237	-0.065403394
240	0x3dc06e26	0.09396009
241	0x3e8f1d9e	0.27952284
242	0x3d003e72	0.031309552
243	0xbd65248c	-0.055943057
244	0xbbd0a270	-0.0063670203
245	0xbe8d5205	-0.27601638
246	0x3dd996b3	0.10624447
247	0x3e6fb6a8	0.23409522
248	0xbdc1f0c6	-0.09469752
249	0x3e5a74a8	0.21333563
250	0x3e0dc27e	0.13843724
251	0x3da361b2	0.07977618
252	0x3d9011af	0.07034623
253	0xbe4d2e28	-0.20037138
254	0x3aa11800	0.0012290478
255	0x3d7dec20	0.061992764

sequential/dense_1/MatMul_bias f4 [15]
0	0xbcdf0cd4	-0.027227797
1	0x3f8fedb2	1.1244414
2	0xbdc00f20	-0.09377885
3	0x3f9c79d8	1.2224684
4	0xbca8ab4e	-0.020589497
5	0xb9e974f8	-0.00044528372
6	0x3fa39152	1.2778723
7	0xbca71aba	-0.020398486
8	0xbdd2ea10	-0.1029855
9	0x373bc0e2	1.1190978e-05
10	0x3f8f9537	1.1217412
11	0xb9e793e0	-0.0004416993
12	0xbc562dbd	-0.013072428
13	0xbb8b3448	-0.004248176
14	0xbde69690	-0.11259186

sequential/dense_2/MatMul/ReadVariableOp/transpose f4 [3, 15]
0	0x3e4bf367	0.1991707
1	0x4002dafa	2.0446153
2	0xbeda0677	-0.42583057
3	0x400d8297	2.2110956
4	0xbdf97fd8	-0.121825874
5	0xc00908a5	-2.1411526
6	0x3ffda105	1.9814764
7	0x3d8d9bc7	0.06914478
8	0xc0463cf8	-3.0974712
9	0xc0132931	-2.2993891
10	0x40063e60	2.097557
11	0xc01149df	-2.2701337
12	0xbdd2868c	-0.10279569
13	0x3e778c04	0.24174505
14	0xc024866c	-2.5707045
15	0x3e438460	0.19093466
16	0xc07fbb78	-3.9958172
17	0xbd9da5f1	-0.076976664
18	0xc033ae52	-2.8075147
19	0x3e982e29	0.29722717
20	0x3f40b871	0.75281435
21	0xc0361982	-2.8453069
22	0xbf043e62	-0.5165769
23	0x3f450615	0.76962405
24	0x3f5836c9	0.84458596
25	0xc0480d0a	-3.1257958
26	0x3f61bc76	0.88178194
27	0x3e4b271f	0.19839142
28	0x3f0219f1	0.50820833
29	0x3f70dfd3	0.9409153
30	0x3e73ed07	0.23820888
31	0x3df7b0b0	0.12094247
32	0x3e932cbf	0.28745076
33	0x3f62c9cf	0.88589185
34	0x3dc8b2cf	0.0979973
35	0x3edf657f	0.43632123
36	0x3f547ed4	0.83006024
37	0x3b6730a4	0.0035276795
38	0xbecee8ad	-0.40411893
39	0x3f515d0e	0.81782615
40	0x3f2308f2	0.63685524
41	0x3f01319d	0.5046633
42	0xbe698d99	-0.22807921
43	0x3e924d38	0.28574538
44	0xbd1d73c9	-0.0384405

sequential/dense_2/MatMul_bias f4 [3]
0	0x3f99a368	1.2002993
1	0xbfa4ecb2	-1.2884734
2	0x3eef27cb	0.46710047
