model_repo/50d41e3f-128c-4a43-b9ad-75d3d95a16ea.tflite (tflite, 17048 bytes, 6 tensors)

sequential_1/dense_Dense1/MatMul/ReadVariableOp/transpose f4 [50, 60]
0	0xbc399e9e	-0.011329321
1	0x3e3afc3b	0.18260281
2	0x3d926889	0.07148845
3	0x3d9b6dea	0.07589324
4	0x3e311001	0.17291261
5	0xbcb6e402	-0.02232552
6	0x3dc3895e	0.09547685
7	0x3c2e383a	0.010633523
8	0x3c0cf2a2	0.00860277
9	0xbe337263	-0.17524104
10	0x3dac68ae	0.084184036
11	0xbc910448	-0.017702237
12	0xbce6da7c	-0.028180353
13	0xbda658ca	-0.08122404
14	0xbe066324	-0.13123757
15	0x3e2b607b	0.16736023
16	0xbd34c6df	-0.04413497
17	0xbe8613e3	-0.26187047
18	0xbd03288f	-0.0320211
19	0x3dde27ee	0.1084746
20	0xbe253fba	-0.16137591
21	0x3d49f6bd	0.049307574
22	0x3c781e6d	0.015143973
23	0x3e4e4f66	0.20147476
24	0xbcfab734	-0.030604936
25	0xbda60f1f	-0.08108353
26	0xbe013285	-0.12616928
27	0x3d0a024d	0.0336936
28	0xbe272c16	-0.16325411
29	0xbb12f2f6	-0.0022422648
30	0x3d4adddf	0.049528
31	0xbe2c2f1a	-0.16814843
32	0xba95d524	-0.0011431319
33	0x3c494ac4	0.012285892
34	0x3db8d02e	0.09024082
35	0x3de909a1	0.1137879
36	0x3c972a77	0.018452866
37	0x3d18cfa3	0.037307393
38	0x3b15f089	0.0022878966
39	0xbc257095	-0.010097642
40	0x3e04c998	0.12967527
41	0x3d97e9b8	0.07417625
42	0xbc0f4fa1	-0.008747012
43	0x3e1bf446	0.15229902
44	0x3d23d062	0.03999365
45	0xbe0a763f	-0.1352167
46	0x3dc75cd8	0.097345054
47	0xbdf4e45b	-0.11957618
48	0x3cb887f6	0.022525769
49	0x3c852430	0.016252607
50	0xbe521d71	-0.20519044
51	0xbe0c99a0	-0.13730478
52	0x3e2e9bef	0.17051671
53	0xbce35afd	-0.027753348
54	0xbdcf2bff	-0.101158135
55	0x3c4012e1	0.011723251
56	0x3d06fa83	0.03295375
57	0x3e2f526a	0.17121282
58	0x399afb7d	0.00029560542
59	0xbe04ca18	-0.12967718
60	0x3e5a4d14	0.21318465
61	0x3d83b1cf	0.06430399
62	0xbd0d8ce8	-0.034558207
63	0x3aeb38c4	0.0017945995
64	0xbe13f9b2	-0.1445072
65	0xbe10053f	-0.14064501
66	0xbd4d2536	-0.050084315
67	0x3dd8ba0a	0.10582359
68	0xbda87118	-0.08224696
69	0xbda2e9f4	-0.07954779
70	0x3ca3319b	0.019921115
71	0x3dc8f7c1	0.0981288
72	0xbd927882	-0.07151891
73	0x3dea5f66	0.11443977
74	0xbe117c00	-0.14207458
75	0x3dac5ff7	0.08416741
76	0xbe2cfc5f	-0.16893147
77	0xbe10f02a	-0.14154115
78	0xbdb7ff3a	-0.089842275
79	0xbcac3faa	-0.021026451
80	0x3c07a9f1	0.008280263
81	0x3e0679c5	0.13132389
82	0xbe6413b6	-0.22273144
83	0xbe862651	-0.26201108
84	0x3d12c03f	0.03582787
85	0xbd4e34b2	-0.050343223
86	0xbcab51a2	-0.020912949
87	0xbdd3b311	-0.103368886
88	0x3da12f8e	0.078703985
89	0x3db1df09	0.08685119
90	0xbe2ce1e5	-0.16883047
91	0x3e1a4168	0.15064013
92	0xbe0c4ce8	-0.13701212
93	0x3ca303d0	0.019899279
94	0xbdf11fa7	-0.11773615
95	0x3e254c2a	0.16142336
96	0xbb0530ee	-0.0020323354
97	0xbddf2d86	-0.10897355
98	0x3a37f89d	0.0007017942
99	0x3d9dd987	0.07707506
100	0xbda0aa8b	-0.078450285
101	0xbc18941d	-0.009312657
102	0x3de98311	0.11401952
103	0xbd374ca2	-0.044750817
104	0x3dd94edd	0.10610745
105	0xbe37fe32	-0.17968062
106	0x3dea6306	0.114446685
107	0x3e0ab625	0.13546045
108	0xbd6eddec	-0.05831711
109	0xbd4b44bd	-0.0496261
110	0x3dae1fa2	0.08502127
111	0xbc92c7cd	-0.017917538
112	0xbd518023	-0.05114759
113	0x3e3dfa95	0.1855262
114	0x3c2e3a85	0.010634069
115	0xbdefdfcc	-0.11712608
116	0x3cafd081	0.021461727
117	0xbe174d3a	-0.14775553
118	0x3e190671	0.14943863
119	0x3d4144e9	0.04718486
120	0xbe44acd0	-0.19206548
121	0x3e05f824	0.1308294
122	0xbc7d182d	-0.0154476585
123	0xbd49bd2c	-0.049252674
124	0x3e0e9f41	0.13927938
125	0x3e17d0bc	0.1482572
126	0x3e3dff76	0.18554482
127	0x3dc7bbe6	0.09752636
128	0xbc8f73cb	-0.01751127
129	0x3e730b9e	0.237349
130	0xbda22012	-0.07916273
131	0x3d450e6a	0.04810945
132	0xbe0e4139	-0.13892068
133	0x3e38ae76	0.18035302
134	0x3e40d490	0.18831086
135	0xbd3d67b0	-0.046241462
136	0x3e653861	0.22384788
137	0x3e1b63ba	0.15174761
138	0xbe04da20	-0.12973833
139	0x3e88a70f	0.26689956
140	0xbe045e49	-0.12926592
141	0x3e51015d	0.20410676
142	0xbde4a618	-0.11164492
143	0x3e79bdfd	0.24388881
144	0xbe32efe8	-0.1747433
145	0x3d3dd3af	0.046344455
146	0xbd6645a7	-0.05621877
147	0xbccaf6e6	-0.024775933
148	0x3d61e1e9	0.055147085
149	0xbda1a8fe	-0.07893561
150	0xbc14484a	-0.009050438
151	0xbcdaf1be	-0.0267266
152	0x3b2cca56	0.0026365719
153	0xbd0f62ce	-0.035006337
154	0x3dbc3db9	0.0919146
155	0xbdcb7973	-0.09935274
156	0x3aed9952	0.0018127358
157	0x3c37547a	0.011189574
158	0xba93d5bd	-0.0011278909
159	0x3d7d8727	0.06189647
160	0xbd478520	-0.048710942
161	0x3e114905	0.14188011
162	0xbe573944	-0.21017939
163	0xbc11f7c9	-0.008909174
164	0x3c3b9ea0	0.011451393
165	0x3d3553a7	0.04426923
166	0xbd57b491	-0.052662436
167	0x3d82cbd2	0.06386532
168	0x3e74d939	0.23910989
169	0x3dee6223	0.11639812
170	0x3e0060cd	0.12536927
171	0xbc91c2b0	-0.01779303
172	0x3ccdd69c	0.025126748
173	0xbdcb285d	-0.09919808
174	0x3e05de8b	0.13073175
175	0x3e6d922d	0.23200293
176	0xbcac529b	-0.021035483
177	0x3d88a37e	0.06671809
178	0x3c74a67f	0.014932274
179	0x3cdbfd4f	0.026854185
180	0x3d73ac3d	0.05949043
181	0xbe39a0c2	-0.1812773
182	0xbdbe08a8	-0.09278995
183	0x3d8010d3	0.06253209
184	0x3e2419a8	0.16025412
185	0xbd503fdf	-0.050842162
186	0x3ce2d1be	0.027687903
187	0xbd7d7d4a	-0.061887063
188	0x3d53a7d1	0.051673714
189	0xbd3bbfa5	-0.045837063
190	0xbd4df2c1	-0.050280336
191	0xbe265b9d	-0.16245885
192	0x3e01eadd	0.1268725
193	0xbe239acc	-0.15977019
194	0xbe047de6	-0.12938651
195	0xbdcb1fdd	-0.09918187
196	0x3bd0f823	0.0063772365
197	0xbd02f32f	-0.0319702
198	0x3e46a114	0.19397384
199	0x3c57a2f5	0.013161411
200	0x3defc18f	0.1170684
201	0xbe230e54	-0.15923434
202	0xb9e2db1a	-0.00043269322
203	0x3e59489f	0.21219109
204	0x3dbed921	0.09318758
205	0x3e04a3d4	0.1295312
206	0x3e30caf2	0.17264917
207	0x3c90950b	0.017649194
208	0x3d9f3caa	0.077752426
209	0x3da40caa	0.08010228
210	0xbdc26726	-0.0949233
211	0xbe5b36a1	-0.21407558
212	0x3cfb75d9	0.030695843
213	0x3d661bf6	0.05617901
214	0x3df2b4ff	0.118509285
215	0xbdd3348e	-0.103127584
216	0x3dfcdd9b	0.123469554
217	0xbe071f58	-0.1319555
218	0xbb116a64	-0.0022188658
219	0xbc693ada	-0.014235223
220	0x3d858387	0.065192275
221	0x3e2bdfa5	0.16784532
222	0xbe306ec5	-0.17229755
223	0xbe1ebd28	-0.15501845
224	0x3d1f7a10	0.038934767
225	0x3da10eb4	0.078641325
226	0xbe1f640e	-0.15565512
227	0xbdd9292c	-0.10603556
228	0x3d910f3e	0.07082985
229	0xbe06db11	-0.13169505
230	0x3d182b92	0.037150927
231	0xbe4069cb	-0.18790357
232	0x3ce5d385	0.028054962
233	0x3dfe5239	0.124180265
234	0x3c38d167	0.011280394
235	0xbdfb2211	-0.12262357
236	0xbe28daeb	-0.1648976
237	0xbc4e1b6e	-0.012579782
238	0x3df14738	0.11781162
239	0x3d153878	0.036430806
240	0x3dcf6c2d	0.10128055
241	0x3df04460	0.117317915
242	0x3e473103	0.1945229
243	0x3d2e565b	0.042562824
244	0xbdb0c8ac	-0.08632025
245	0x3d2af5f0	0.04173845
246	0xbd1845bc	-0.03717588
247	0xbda3881f	-0.079849474
248	0xbe5b4dce	-0.21416399
249	0xbde0e9c5	-0.10982088
250	0x3e10b5c1	0.14131834
251	0xbbdd6b52	-0.0067571783
252	0xbe7c17a5	-0.24618395
253	0x3e295ab7	0.16538511
254	0x3d934ac0	0.07191992
255	0xbdddd1a2	-0.10831

sequential_1/dense_Dense1/MatMul_bias f4 [50]
0	0xbc2ac695	-0.010423322
1	0xbcfd36a8	-0.030909851
2	0x3d8705e3	0.0659292
3	0x3d9365d3	0.07197156
4	0xbc3e9aed	-0.011633617
5	0x3e0912d4	0.13386089
6	0x3ddcc473	0.10779657
7	0x3b4cdc1c	0.0031259125
8	0x3df03e4a	0.11730631
9	0x3c2f8e8c	0.010715138
10	0x3d3035e6	0.04302015
11	0x00000000	0.0
12	0x3d1342bc	0.035952315
13	0xbc21c36a	-0.0098732505
14	0xb937d5f7	-0.00017531948
15	0x00000000	0.0
16	0xbd341025	-0.04396071
17	0x3df3c479	0.119027086
18	0x00000000	0.0
19	0x3d9cbb44	0.076529056
20	0x3d9d5f66	0.076842114
21	0x3db1ad12	0.08675589
22	0x3d3863da	0.0450171
23	0x3d57cebc	0.05268739
24	0x3d3f2242	0.04666353
25	0x00000000	0.0
26	0x3d4a9835	0.049461562
27	0xbdac29de	-0.08406423
28	0x3df65d1b	0.12029477
29	0x3df63788	0.120223105
30	0x3db1e2e0	0.08685851
31	0x00000000	0.0
32	0xbbeaeb5a	-0.0071691694
33	0x3e19826d	0.1499116
34	0x3e1eebe2	0.1551967
35	0xbc8a4dae	-0.016882744
36	0x3d14a11e	0.036286466
37	0x3ddb9724	0.10722187
38	0x3d4a9c62	0.049465545
39	0xbbe73c89	-0.007056777
40	0x00000000	0.0
41	0x3d87828e	0.06616698
42	0xbd292cb0	-0.041302383
43	0x3e366340	0.17811298
44	0x3dbb87b3	0.09156742
45	0x3dc8d511	0.09806264
46	0xbce45514	-0.0278726
47	0x3e28e7bb	0.16494648
48	0x3dcd2d35	0.10018388
49	0x3a12522b	0.0005581702

sequential_1/dense_Dense2/MatMul/ReadVariableOp/transpose f4 [15, 50]
0	0x3e2865a1	0.16445018
1	0x3e62ff5f	0.22167729
2	0xbe50d922	-0.2039533
3	0x3e993652	0.29924256
4	0xbe0dcfa0	-0.13848734
5	0x3e89ecfe	0.26938623
6	0x3dae3d32	0.08507766
7	0x3e26fd27	0.16307507
8	0xbc4cc488	-0.012498029
9	0x3d52094c	0.051278397
10	0xbe57f571	-0.21089722
11	0xbea2c4a0	-0.31790638
12	0xbe3bdc66	-0.18345794
13	0xbc33c658	-0.010972582
14	0xbd47c4c4	-0.048771635
15	0xbe9ed045	-0.31018272
16	0xbc405d96	-0.011741063
17	0x3eacf694	0.33781874
18	0x3e18186a	0.14853063
19	0xbdeb71bb	-0.11496302
20	0xbec1f29c	-0.3788041
21	0x3e480fcc	0.19537276
22	0x3d7c88a7	0.06165376
23	0x3e68042b	0.2265784
24	0xbd0dd210	-0.03462416
25	0x3c9153f3	0.017740225
26	0x3cf4fffe	0.029907223
27	0x3ea34324	0.31887162
28	0x3cb658b1	0.022259088
29	0x3eb7d17c	0.3590201
30	0x3ea1366f	0.31486842
31	0xbea82977	-0.32844135
32	0xbbaf56b7	-0.0053509134
33	0x3e71bbea	0.2360684
34	0xbe22efba	-0.15911761
35	0xbce4128a	-0.027840871
36	0x3ccb6c08	0.024831787
37	0xbd925ecd	-0.07146988
38	0xbd695d41	-0.0569737
39	0xbc60ad53	-0.013713199
40	0x3e41e109	0.189335
41	0xbe6a82a5	-0.229014
42	0xbeac30cd	-0.33630982
43	0x3b4030f4	0.0029326053
44	0xbd35a52a	-0.044346966
45	0x3e74960d	0.23885365
46	0x3e463e92	0.19359806
47	0xbd498cc8	-0.049206525
48	0x3e7cca70	0.24686599
49	0xbde9be55	-0.11413256
50	0x3e266c1c	0.16252178
51	0xbd3054cc	-0.04304962
52	0xbe802c80	-0.2503395
53	0xbd4cee86	-0.05003216
54	0xbe87e154	-0.265391
55	0x3ef2e380	0.47439194
56	0xbe81a71f	-0.25322816
57	0xba2f81c6	-0.0006695058
58	0xbd5bdff7	-0.053680386
59	0x3e0cd83a	0.13754359
60	0xbd9bff42	-0.07617046
61	0x3e35c44b	0.17750661
62	0xbd304abb	-0.04304002
63	0xbd6356d3	-0.055502724
64	0xbe616b81	-0.22013666
65	0x3d0dc397	0.034610357
66	0xbe2edcb2	-0.17076376
67	0x3ebef8fe	0.3729934
68	0x3e312b12	0.17301586
69	0xbe2cb68b	-0.1686651
70	0xbe34cbe5	-0.17655905
71	0x3e4e63cd	0.20155258
72	0x3e6b6795	0.22988732
73	0x3e2b4839	0.1672677
74	0xbe2fda0c	-0.17173022
75	0xbcc8dfd4	-0.024520792
76	0x3e0035e4	0.12520558
77	0xbe7001e8	-0.23438227
78	0x3e6fa54d	0.23402901
79	0x3ebf895d	0.37409487
80	0x3dadb64e	0.084820375
81	0xbe22280f	-0.15835594
82	0xbe4ab489	-0.19795431
83	0x3f0c3e93	0.5478298
84	0x3e92bd4b	0.28660044
85	0xbd0fcb72	-0.03510613
86	0x3e0b8313	0.1362422
87	0x3eaf6030	0.34253073
88	0xbe84f09f	-0.2596483
89	0x3e34a7d9	0.17642154
90	0xbe4de442	-0.20106605
91	0xbec7ca54	-0.39021552
92	0x3d5f0d4f	0.05445605
93	0x3e38f8e6	0.18063697
94	0xbedbfc6f	-0.4296603
95	0x3e81f68e	0.2538342
96	0xbc22c3f2	-0.009934412
97	0x3ea6d842	0.32586867
98	0x3ec2311f	0.379281
99	0x3d9381fb	0.07202526
100	0x3e3fc0db	0.18725912
101	0x3de081cd	0.109622575
102	0x3d5bfdba	0.05370877
103	0x3e19be26	0.15013942
104	0x3dd3f0da	0.10348673
105	0xbe511e5b	-0.20421736
106	0x3e4aad4e	0.19792673
107	0x3e29564f	0.1653683
108	0x3e1362c4	0.14393145
109	0xbde8d7c6	-0.113692805
110	0x3e0b8b50	0.13627362
111	0x3e95e3c5	0.29275337
112	0x3e8d45e1	0.27592376
113	0xbe38af34	-0.18035585
114	0x3d902864	0.07038954
115	0xbd7e8aea	-0.062144198
116	0x3d09f4d5	0.033680756
117	0xbe39836f	-0.18116544
118	0x3e851c2f	0.25998065
119	0x3c749afa	0.014929527
120	0x3e4fd28f	0.20295165
121	0xbdbbaf0a	-0.091642454
122	0x3d8d8ec9	0.06912
123	0xbd25ad7a	-0.040448643
124	0x3e849d43	0.2590123
125	0xbc43ed65	-0.011958455
126	0x3d30d3e0	0.04317081
127	0x3e08fb6b	0.13377158
128	0x3e059627	0.1304556
129	0x3c9e452b	0.019320091
130	0x3e2816d1	0.16414954
131	0xbe20e32f	-0.15711664
132	0x3dbce556	0.0922343
133	0xbe4dcb43	-0.2009707
134	0x3e8c9ee0	0.27464962
135	0xbdf7c221	-0.12097574
136	0x3e725f4f	0.2366917
137	0xbcb0397b	-0.021511784
138	0x3e5af07c	0.213808
139	0x3dff399f	0.12462162
140	0xbd586ceb	-0.052838247
141	0x3ebd2316	0.3694083
142	0x3eaa7063	0.3328887
143	0x3e8e8732	0.2783752
144	0x3ec957e5	0.3932487
145	0xbd6d4c43	-0.057934057
146	0xbe819bfb	-0.25314316
147	0xbe6c8ce1	-0.23100616
148	0x3e5e198e	0.21689436
149	0x3ea009f3	0.3125759
150	0xbe6ee5bf	-0.23329829
151	0x3e46ad1c	0.19401973
152	0x3bf505ab	0.0074774823
153	0xbe5b3d12	-0.21410015
154	0xbdafe487	-0.0858851
155	0xbe2453cc	-0.16047591
156	0x3d77c62e	0.060491733
157	0xbdb2fa68	-0.087391675
158	0xbdf223d7	-0.11823242
159	0xbebaaee1	-0.36461547
160	0xbb18b720	-0.002330251
161	0x3da63a35	0.08116571
162	0x3e7f1a61	0.24912407
163	0x3d4b0952	0.049569435
164	0x3ebc31a8	0.36756635
165	0xbd88f190	-0.066866994
166	0x3d4a4961	0.049386386
167	0x3e8ffb35	0.28121343
168	0x3e9821a6	0.29713172
169	0x3d86e7e2	0.06587197
170	0x3ebbde2d	0.36692944
171	0xbe6f8977	-0.23392282
172	0x3dc3eadb	0.095662795
173	0x3da5c2be	0.08093785
174	0x3d7555df	0.059896346
175	0x3ded01cf	0.115726106
176	0x3d9be07d	0.07611177
177	0x3e8807dd	0.265685
178	0x3e0da1c6	0.13831243
179	0xbe4845a5	-0.19557817
180	0x3d81beb1	0.063351996
181	0xbeb1d92a	-0.34735996
182	0x3e0b0bec	0.13578767
183	0xbe391a05	-0.18076332
184	0x3ecf708c	0.40515554
185	0xbd9a81c0	-0.07544279
186	0x38a881fb	8.035075e-05
187	0xbdc54931	-0.09633101
188	0xbd72b904	-0.059258476
189	0x3e26dcc2	0.1629515
190	0x3de0f46d	0.109841205
191	0x3d721651	0.059103314
192	0x3cf4e877	0.029896004
193	0xbd1fb2e0	-0.038988948
194	0x3e36b173	0.17841129
195	0x3d32d99e	0.043664567
196	0x3e941d33	0.28928527
197	0x3e8851de	0.2662496
198	0xbe03300c	-0.12811297
199	0x3cfe42de	0.031037744
200	0x3dcf9f6c	0.10137829
201	0xbe81ca1e	-0.25349516
202	0xbde33ffd	-0.11096189
203	0x3e35765a	0.17720929
204	0xbdda0f25	-0.1064742
205	0xbe68e585	-0.22743805
206	0x3e493861	0.19650413
207	0x3e8e1501	0.277504
208	0xbd7e7e2f	-0.062132057
209	0xbcbe8a0b	-0.023259183
210	0xbe66d46b	-0.22541969
211	0x3e2b28da	0.16714802
212	0xbe66cc95	-0.2253898
213	0x3e38a9b1	0.18033482
214	0x3e80b8b9	0.25140932
215	0xbe712c8d	-0.23552151
216	0xbe1e6975	-0.15469916
217	0x3e9a7e3d	0.30174437
218	0x3e2d1c45	0.16905315
219	0xbd5a4bfa	-0.053295113
220	0x3d9b267a	0.07575698
221	0xbc2c9d09	-0.010535487
222	0x3d0148da	0.031563617
223	0xbb3dee55	-0.0028981168
224	0x3d829fbb	0.063781224
225	0xbe52a566	-0.20570907
226	0x3cc1912d	0.023628796
227	0xbc6f3382	-0.014599683
228	0xbd9af490	-0.07566178
229	0x3b59b0c3	0.003321693
230	0x3e4256af	0.1897838
231	0x3d12b33e	0.03581547
232	0xbdb12076	-0.086487696
233	0xbdbf33e6	-0.09336071
234	0xbd306e40	-0.043073893
235	0xbe508157	-0.20361839
236	0x3e4fd16e	0.20294735
237	0x3eaa20a2	0.33228022
238	0xbd932a24	-0.07185772
239	0xbe40d3fe	-0.18830869
240	0x3e79b372	0.24384859
241	0x3d93793f	0.0720086
242	0x3c10f2de	0.008846967
243	0x3ea9bc10	0.33151293
244	0x3e0f8ad7	0.14017807
245	0x3e1d1d0f	0.15343116
246	0x3dde790f	0.10862934
247	0x3dfcbe98	0.123410404
248	0xbbb8da61	-0.005641267
249	0x3d7b7e77	0.061399903
250	0xbe304a9d	-0.17215963
251	0xbda7ca79	-0.081929155
252	0x3cb5e84e	0.022205498
253	0x3dc46e40	0.09591341
254	0x3ed37420	0.41299534
255	0xbde1ca3f	-0.110249035

sequential_1/dense_Dense2/MatMul_bias f4 [15]
0	0x3dc095a4	0.09403542
1	0x3df4d2a8	0.11954242
2	0x3c74b472	0.0149356
3	0x3d322639	0.043493483
4	0xbc9970f0	-0.01873061
5	0x3e04ce97	0.12969433
6	0x00000000	0.0
7	0x00000000	0.0
8	0x3c679f27	0.014137066
9	0x3dc146e3	0.09437349
10	0x3e07f2e3	0.13276248
11	0x3dd957e4	0.10612467
12	0x3d983340	0.0743165
13	0xbab5797a	-0.0013845407
14	0xbb37dd9b	-0.002805567

sequential_1/dense_Dense3/MatMul/ReadVariableOp/transpose f4 [2, 15]
0	0xbf5de72c	-0.86680865
1	0xbf72c8c8	-0.9483762
2	0xbd4a705e	-0.049423568
3	0x3ebd5ccb	0.36984858
4	0x3db229a0	0.086993456
5	0x3e6beaf6	0.23038849
6	0xbe38b911	-0.18039347
7	0x3c98a0c8	0.018631354
8	0xbedc4f77	-0.43029377
9	0xbca3efbd	-0.020011777
10	0xbf464193	-0.7744381
11	0x3f3034cb	0.68830556
12	0x3ee14220	0.43995762
13	0x3d5bf51e	0.05370056
14	0xbdeced63	-0.115687154
15	0x3d62ad18	0.055340856
16	0x3f38562e	0.720065
17	0xbf24b1c9	-0.6433378
18	0xbee8eeea	-0.45494777
19	0x3e0887b1	0.13333012
20	0xbf16bf3c	-0.5888555
21	0x3f204a74	0.62613606
22	0xbec85390	-0.39126253
23	0xbe8c7f51	-0.27440885
24	0xbf3ee9e2	-0.74575627
25	0x3e814f81	0.2525597
26	0xbf371f35	-0.71531993
27	0xbf075fe1	-0.52880675
28	0x3e0047da	0.12527409
29	0xbebddeb8	-0.37083983

sequential_1/dense_Dense3/MatMul_bias f4 [2]
0	0xbca1e3a4	-0.019761868
1	0x3ca1e39b	0.019761851
