model_repo/64a5598b-f9f5-4224-88ed-723bd955ee2d.tflite (tflite, 18856 bytes, 2 tensors)

Conv2D i1 [8, 10, 8, 1]
00000000: c919 b9d8 f51e 393f c826 c2c6 001f 2526
00000010: d416 f2c7 0b01 2808 ee06 e8d5 1b0e 3710
00000020: f708 dbdb 4619 570b f1ce d8c9 41fa 7f10
00000030: efd6 e6a3 42f2 7908 f1ee e8c8 2fd3 57ed
00000040: fce8 f8c6 1db6 2dc4 dcd8 f4c0 22b1 1392
00000050: 42e2 4ec6 5ec6 71dd 22fc 3bf0 5de0 72ea
00000060: 0afe 15f9 37e3 4ded e00f 0bf7 2cec 2ede
00000070: db17 f600 1af4 1de8 d70f f3fe 0df9 f8e1
00000080: b80f dff9 e7ff def9 c8eb cee7 d3fb ee0f
00000090: c6a6 ceb4 d5e1 f329 d981 e7a7 0501 0a2b
000000a0: 18f5 6c14 6cf1 49df f0ae 41fb 7ffb 6afd
000000b0: eaa0 11c8 54f7 5fff e7a6 e6c6 14f7 4d0d
000000c0: d8ac cab9 e1e8 0819 e5c9 90c6 8dfd d40e
000000d0: 3d0e d7d1 9edc bff8 2d49 3302 dfdb b0ca
000000e0: 0649 3843 2605 b6c7 df32 2e5a 5d42 edd0
000000f0: b904 cc10 cd38 1252 a7fa c606 d935 fa3a
-55 25 -71 -40 -11 30 57 63
-56 38 -62 -58 0 31 37 38
-44 22 -14 -57 11 1 40 8
-18 6 -24 -43 27 14 55 16
-9 8 -37 -37 70 25 87 11
-15 -50 -40 -55 65 -6 127 16
-17 -42 -26 -93 66 -14 121 8
-15 -18 -24 -56 47 -45 87 -19
-4 -24 -8 -58 29 -74 45 -60
-36 -40 -12 -64 34 -79 19 -110
66 -30 78 -58 94 -58 113 -35
34 -4 59 -16 93 -32 114 -22
10 -2 21 -7 55 -29 77 -19
-32 15 11 -9 44 -20 46 -34
-37 23 -10 0 26 -12 29 -24
-41 15 -13 -2 13 -7 -8 -31
-72 15 -33 -7 -25 -1 -34 -7
-56 -21 -50 -25 -45 -5 -18 15
-58 -90 -50 -76 -43 -31 -13 41
-39 -127 -25 -89 5 1 10 43
24 -11 108 20 108 -15 73 -33
-16 -82 65 -5 127 -5 106 -3
-22 -96 17 -56 84 -9 95 -1
-25 -90 -26 -58 20 -9 77 13
-40 -84 -54 -71 -31 -24 8 25
-27 -55 -112 -58 -115 -3 -44 14
61 14 -41 -47 -98 -36 -65 -8
45 73 51 2 -33 -37 -80 -54
6 73 56 67 38 5 -74 -57
-33 50 46 90 93 66 -19 -48
-71 4 -52 16 -51 56 18 82
-89 -6 -58 6 -39 53 -6 58

MatMul i1 [4, 4000] scale=0.00045669032 zero_point=0
00000000: 21fa fb1e 130a 2202 f111 10f4 061a 44e2
00000010: 15f0 1b05 d2fe 10ea 26e6 02f8 fdcb fa16
00000020: dfed e70c d0b2 161f 1119 e8fb e1c1 0005
00000030: 1814 ebfe f2d3 070c fb08 ef03 e5cc 0dee
00000040: 02fb 0e1d f5f0 10ea e914 dbe2 f5d0 1217
00000050: f7fd 0a00 fbc2 fb38 0916 fa17 ecf4 0516
00000060: 0100 032a 08dd 0b29 17f1 0d2b ecbf fe0f
00000070: f1f1 fb06 05bf 1931 0f0c dc0d 0ecb 06ea
00000080: 0915 010d ffef 1e15 ddff f0fe 08fa 1bf5
00000090: 13ff 01e3 0d07 0df9 f9dc e2fa fc16 ff12
000000a0: fee2 1c01 e801 fefa 071f 0c03 f40c 00f0
000000b0: 0bfc f70b fdef e205 0106 09ec f4fc b317
000000c0: faea fe04 ffe5 a319 fc27 f91b 06e5 a9fc
000000d0: e41f 0324 0ddb b030 f611 1b0d fd07 dd10
000000e0: f609 0bea f7e4 dc12 e2f6 e804 f406 cef4
000000f0: ec01 18ef e715 e1f9 000d 0302 ebfb e1fe
0.015070781 -0.002740142 -0.0022834516 0.01370071 0.008677116 0.004566903 0.015527471 0.00091338065
-0.006850355 0.0077637355 0.007307045 -0.005480284 0.002740142 0.011873948 0.031054942 -0.01370071
0.009590497 -0.007307045 0.012330638 0.0022834516 -0.021007754 -0.00091338065 0.007307045 -0.010047187
0.017354231 -0.011873948 0.00091338065 -0.0036535226 -0.001370071 -0.024204588 -0.002740142 0.010047187
-0.015070781 -0.008677116 -0.0114172585 0.005480284 -0.021921135 -0.035621844 0.010047187 0.0141574
0.0077637355 0.0114172585 -0.010960568 -0.0022834516 -0.0141574 -0.02877149 0.0 0.0022834516
0.010960568 0.009133806 -0.009590497 -0.00091338065 -0.0063936645 -0.020551065 0.0031968323 0.005480284
-0.0022834516 0.0036535226 -0.0077637355 0.001370071 -0.012330638 -0.023747897 0.005936974 -0.008220426
0.00091338065 -0.0022834516 0.0063936645 0.01324402 -0.0050235935 -0.007307045 0.007307045 -0.010047187
-0.010503877 0.009133806 -0.016897542 -0.01370071 -0.0050235935 -0.021921135 0.008220426 0.010503877
-0.004110213 -0.001370071 0.004566903 0.0 -0.0022834516 -0.0283148 -0.0022834516 0.025574658
0.004110213 0.010047187 -0.002740142 0.010503877 -0.009133806 -0.005480284 0.0022834516 0.010047187
0.00045669032 0.0 0.001370071 0.019180994 0.0036535226 -0.01598416 0.0050235935 0.018724304
0.010503877 -0.006850355 0.005936974 0.019637683 -0.009133806 -0.029684871 -0.00091338065 0.006850355
-0.006850355 -0.006850355 -0.0022834516 0.002740142 0.0022834516 -0.029684871 0.0114172585 0.022377826
0.006850355 0.005480284 -0.016440852 0.005936974 0.0063936645 -0.024204588 0.002740142 -0.010047187
0.004110213 0.009590497 0.00045669032 0.005936974 -0.00045669032 -0.0077637355 0.01370071 0.009590497
-0.01598416 -0.00045669032 -0.007307045 -0.00091338065 0.0036535226 -0.002740142 0.012330638 -0.0050235935
0.008677116 -0.00045669032 0.00045669032 -0.01324402 0.005936974 0.0031968323 0.005936974 -0.0031968323
-0.0031968323 -0.016440852 -0.01370071 -0.002740142 -0.0018267613 0.010047187 -0.00045669032 0.008220426
-0.00091338065 -0.01370071 0.012787329 0.00045669032 -0.010960568 0.00045669032 -0.00091338065 -0.002740142
0.0031968323 0.0141574 0.005480284 0.001370071 -0.005480284 0.005480284 0.0 -0.007307045
0.0050235935 -0.0018267613 -0.004110213 0.0050235935 -0.001370071 -0.0077637355 -0.01370071 0.0022834516
0.00045669032 0.002740142 0.004110213 -0.009133806 -0.005480284 -0.0018267613 -0.035165153 0.010503877
-0.002740142 -0.010047187 -0.00091338065 0.0018267613 -0.00045669032 -0.012330638 -0.0424722 0.0114172585
-0.0018267613 0.017810922 -0.0031968323 0.012330638 0.002740142 -0.012330638 -0.039732058 -0.0018267613
-0.012787329 0.0141574 0.001370071 0.016440852 0.005936974 -0.016897542 -0.036535226 0.021921135
-0.004566903 0.0077637355 0.012330638 0.005936974 -0.001370071 0.0031968323 -0.01598416 0.007307045
-0.004566903 0.004110213 0.0050235935 -0.010047187 -0.004110213 -0.012787329 -0.016440852 0.008220426
-0.01370071 -0.004566903 -0.010960568 0.0018267613 -0.005480284 0.002740142 -0.022834517 -0.005480284
-0.009133806 0.00045669032 0.010960568 -0.0077637355 -0.0114172585 0.009590497 -0.0141574 -0.0031968323
0.0 0.005936974 0.001370071 0.00091338065 -0.009590497 -0.0022834516 -0.0141574 -0.00091338065
