model_repo/7eb01d5c-e9c3-4055-8ba2-cc19dd5ec417.tflite (tflite, 2472 bytes, 3 tensors)

std.constant i1 [16, 1] scale=0.004644549 zero_point=0
0	0x9b	-0.46909946
1	0x2d	0.2090047
2	0x8e	-0.5294786
3	0x61	0.45052126
4	0x41	0.30189568
5	0x4f	0.36691937
6	0xd1	-0.2182938
7	0xd0	-0.22293836
8	0x9c	-0.4644549
9	0x3c	0.27867293
10	0x81	-0.5898577
11	0x16	0.10218008
12	0xb4	-0.3529857
13	0x51	0.37620845
14	0x1f	0.14398102
15	0xec	-0.09289098

std.constant1 i1 [16, 16] scale=0.010357301 zero_point=0
0	0x0c	0.124287605
1	0xfa	-0.062143803
2	0xd7	-0.42464933
3	0x09	0.093215704
4	0xe8	-0.24857521
5	0x24	0.37286282
6	0x10	0.16571681
7	0x0c	0.124287605
8	0x13	0.19678871
9	0xf1	-0.1553595
10	0xe2	-0.310719
11	0x04	0.041429203
12	0x05	0.051786505
13	0xf6	-0.10357301
14	0xdc	-0.37286282
15	0xf6	-0.10357301
16	0xff	-0.010357301
17	0x03	0.031071901
18	0xf5	-0.11393031
19	0x9c	-1.0357301
20	0x07	0.07250111
21	0xdf	-0.3417909
22	0x17	0.23821792
23	0x06	0.062143803
24	0x0b	0.11393031
25	0x11	0.17607412
26	0x02	0.020714602
27	0x35	0.54893696
28	0xfe	-0.020714602
29	0x8f	-1.170375
30	0x0b	0.11393031
31	0xed	-0.19678871
32	0x06	0.062143803
33	0xcd	-0.5282223
34	0xe1	-0.32107633
35	0xf7	-0.093215704
36	0x20	0.33143362
37	0xd8	-0.41429204
38	0x1e	0.310719
39	0x2a	0.43500662
40	0x14	0.20714602
41	0xd4	-0.45572123
42	0x15	0.21750331
43	0x25	0.38322014
44	0xdb	-0.38322014
45	0x1d	0.30036172
46	0xef	-0.17607412
47	0x06	0.062143803
48	0xfd	-0.031071901
49	0xf0	-0.16571681
50	0xfa	-0.062143803
51	0x0c	0.124287605
52	0x1c	0.29000443
53	0x10	0.16571681
54	0xf6	-0.10357301
55	0x13	0.19678871
56	0xf9	-0.07250111
57	0x2b	0.44536394
58	0xdd	-0.36250553
59	0xdf	-0.3417909
60	0x0b	0.11393031
61	0xee	-0.18643141
62	0xd5	-0.44536394
63	0x1c	0.29000443
64	0x20	0.33143362
65	0x4a	0.7664403
66	0x14	0.20714602
67	0x12	0.18643141
68	0xee	-0.18643141
69	0x26	0.39357743
70	0xf5	-0.11393031
71	0x1b	0.2796471
72	0x1b	0.2796471
73	0x35	0.54893696
74	0xeb	-0.21750331
75	0xe6	-0.26928982
76	0xf6	-0.10357301
77	0xec	-0.20714602
78	0xf9	-0.07250111
79	0x04	0.041429203
80	0xf6	-0.10357301
81	0xf3	-0.13464491
82	0xd6	-0.43500662
83	0xe7	-0.25893253
84	0xe4	-0.29000443
85	0x11	0.17607412
86	0x03	0.031071901
87	0x2a	0.43500662
88	0xe7	-0.25893253
89	0x1f	0.32107633
90	0xfd	-0.031071901
91	0xff	-0.010357301
92	0x18	0.24857521
93	0xe5	-0.2796471
94	0xd9	-0.40393472
95	0xe7	-0.25893253
96	0xf9	-0.07250111
97	0x81	-1.3153772
98	0xd9	-0.40393472
99	0x18	0.24857521
100	0xe5	-0.2796471
101	0x13	0.19678871
102	0xf6	-0.10357301
103	0x17	0.23821792
104	0xd9	-0.40393472
105	0x8d	-1.1910896
106	0xe4	-0.29000443
107	0xf6	-0.10357301
108	0xf9	-0.07250111
109	0xff	-0.010357301
110	0x2c	0.45572123
111	0x23	0.36250553
112	0xf9	-0.07250111
113	0x0b	0.11393031
114	0xfb	-0.051786505
115	0x09	0.093215704
116	0xea	-0.22786061
117	0xf1	-0.1553595
118	0xda	-0.39357743
119	0x0f	0.1553595
120	0xd7	-0.42464933
121	0x1d	0.30036172
122	0xdb	-0.38322014
123	0xdb	-0.38322014
124	0x14	0.20714602
125	0xf8	-0.082858406
126	0x13	0.19678871
127	0xdd	-0.36250553
128	0x0e	0.14500222
129	0x21	0.3417909
130	0xef	-0.17607412
131	0xe9	-0.23821792
132	0xf0	-0.16571681
133	0xf3	-0.13464491
134	0x1a	0.26928982
135	0x01	0.010357301
136	0x12	0.18643141
137	0xeb	-0.21750331
138	0x1e	0.310719
139	0xf5	-0.11393031
140	0x29	0.42464933
141	0xdb	-0.38322014
142	0xfc	-0.041429203
143	0x14	0.20714602
144	0x01	0.010357301
145	0x10	0.16571681
146	0xf4	-0.124287605
147	0x1d	0.30036172
148	0x10	0.16571681
149	0xe4	-0.29000443
150	0xf4	-0.124287605
151	0x04	0.041429203
152	0x11	0.17607412
153	0xe3	-0.30036172
154	0x1a	0.26928982
155	0x1c	0.29000443
156	0xe9	-0.23821792
157	0x15	0.21750331
158	0x16	0.22786061
159	0x04	0.041429203
160	0x24	0.37286282
161	0xc3	-0.63179535
162	0x18	0.24857521
163	0xe9	-0.23821792
164	0x25	0.38322014
165	0x04	0.041429203
166	0xf8	-0.082858406
167	0xf1	-0.1553595
168	0xea	-0.22786061
169	0xed	-0.19678871
170	0x0d	0.13464491
171	0x1a	0.26928982
172	0xe8	-0.24857521
173	0xdf	-0.3417909
174	0x1c	0.29000443
175	0x0b	0.11393031
176	0xe1	-0.32107633
177	0x1f	0.32107633
178	0x0e	0.14500222
179	0xfb	-0.051786505
180	0x1b	0.2796471
181	0xf5	-0.11393031
182	0xfc	-0.041429203
183	0xf9	-0.07250111
184	0xf8	-0.082858406
185	0xe7	-0.25893253
186	0xd7	-0.42464933
187	0xe3	-0.30036172
188	0x16	0.22786061
189	0xf2	-0.14500222
190	0xd7	-0.42464933
191	0xe0	-0.33143362
192	0x17	0.23821792
193	0x06	0.062143803
194	0xf9	-0.07250111
195	0xdb	-0.38322014
196	0x1f	0.32107633
197	0x22	0.35214823
198	0xe5	-0.2796471
199	0xfb	-0.051786505
200	0xd8	-0.41429204
201	0x1a	0.26928982
202	0x18	0.24857521
203	0x12	0.18643141
204	0xf1	-0.1553595
205	0xfd	-0.031071901
206	0x11	0.17607412
207	0xdc	-0.37286282
208	0xf7	-0.093215704
209	0x0e	0.14500222
210	0x07	0.07250111
211	0xfe	-0.020714602
212	0x17	0.23821792
213	0x12	0.18643141
214	0xec	-0.20714602
215	0x16	0.22786061
216	0x01	0.010357301
217	0x1f	0.32107633
218	0x06	0.062143803
219	0xff	-0.010357301
220	0x27	0.40393472
221	0x13	0.19678871
222	0xf1	-0.1553595
223	0xf3	-0.13464491
224	0x0d	0.13464491
225	0xf7	-0.093215704
226	0x27	0.40393472
227	0xdb	-0.38322014
228	0x14	0.20714602
229	0xf6	-0.10357301
230	0x09	0.093215704
231	0x15	0.21750331
232	0xde	-0.35214823
233	0x0d	0.13464491
234	0xeb	-0.21750331
235	0xd8	-0.41429204
236	0xf2	-0.14500222
237	0xf9	-0.07250111
238	0xe1	-0.32107633
239	0xfe	-0.020714602
240	0xfb	-0.051786505
241	0xfe	-0.020714602
242	0x19	0.25893253
243	0x1f	0.32107633
244	0xf6	-0.10357301
245	0x22	0.35214823
246	0x28	0.41429204
247	0x28	0.41429204
248	0xf5	-0.11393031
249	0xfc	-0.041429203
250	0x14	0.20714602
251	0x18	0.24857521
252	0x0d	0.13464491
253	0xda	-0.39357743
254	0xfc	-0.041429203
255	0x1e	0.310719

std.constant2 i1 [1, 16] scale=0.017418845 zero_point=0
0	0xf6	-0.17418845
1	0xc1	-1.0973872
2	0x13	0.33095804
3	0x1c	0.48772764
4	0x7f	2.2121933
5	0xf7	-0.1567696
6	0x42	1.1496438
7	0x12	0.3135392
8	0x16	0.3832146
9	0xe2	-0.52256536
10	0x25	0.6444973
11	0xfc	-0.06967538
12	0x15	0.36579573
13	0xe3	-0.5051465
14	0x19	0.43547112
15	0xef	-0.29612035
