model_repo/b035ae0f-4965-4e2a-85f0-9eaba2d0f33c.tflite (tflite, 18480 bytes, 3 tensors)

sequential_2/dense_Dense4/MatMul/ReadVariableOp/transpose i1 [50, 300] scale=0.0018975567 zero_point=0
0	0xe2	-0.0569267
1	0xf7	-0.01707801
2	0x16	0.041746248
3	0x15	0.039848693
4	0xe7	-0.04743892
5	0x1d	0.055029146
6	0xfc	-0.007590227
7	0x44	0.12903386
8	0x07	0.013282897
9	0xec	-0.037951134
10	0x2f	0.08918516
11	0x0c	0.02277068
12	0xec	-0.037951134
13	0x4d	0.14611186
14	0x00	0.0
15	0xfe	-0.0037951134
16	0x1c	0.053131588
17	0x18	0.04554136
18	0xe4	-0.053131588
19	0xea	-0.041746248
20	0x14	0.037951134
21	0xce	-0.09487784
22	0xbb	-0.1309314
23	0x22	0.06451693
24	0xcc	-0.09867295
25	0x5d	0.17647277
26	0xfb	-0.009487784
27	0x1a	0.049336474
28	0x2c	0.083492495
29	0x10	0.030360907
30	0xed	-0.036053576
31	0x4f	0.14990698
32	0x25	0.0702096
33	0x09	0.01707801
34	0xda	-0.07210715
35	0x3d	0.11575096
36	0xf8	-0.015180454
37	0x24	0.06831204
38	0x2b	0.08159494
39	0x0f	0.02846335
40	0x12	0.03415602
41	0xf8	-0.015180454
42	0x34	0.09867295
43	0xe7	-0.04743892
44	0x20	0.060721815
45	0x30	0.09108272
46	0x02	0.0037951134
47	0x43	0.1271363
48	0xc8	-0.106263176
49	0x34	0.09867295
50	0xee	-0.03415602
51	0xe8	-0.04554136
52	0xf6	-0.018975567
53	0xd3	-0.08539005
54	0x3e	0.11764851
55	0x60	0.18216544
56	0xef	-0.032258466
57	0xe1	-0.058824256
58	0xf2	-0.026565794
59	0xf5	-0.020873124
60	0x09	0.01707801
61	0x16	0.041746248
62	0xe8	-0.04554136
63	0x4c	0.1442143
64	0x2a	0.079697385
65	0x2b	0.08159494
66	0x25	0.0702096
67	0x54	0.15939477
68	0xcb	-0.10057051
69	0xee	-0.03415602
70	0x0e	0.026565794
71	0xd9	-0.07400471
72	0xe9	-0.043643802
73	0x20	0.060721815
74	0x40	0.12144363
75	0xfb	-0.009487784
76	0x06	0.01138534
77	0x1a	0.049336474
78	0xf3	-0.024668237
79	0xd7	-0.07779983
80	0x11	0.032258466
81	0x06	0.01138534
82	0xe1	-0.058824256
83	0x10	0.030360907
84	0x1e	0.0569267
85	0x17	0.043643802
86	0x2e	0.087287605
87	0xf5	-0.020873124
88	0x33	0.09677539
89	0xf9	-0.013282897
90	0xda	-0.07210715
91	0xf5	-0.020873124
92	0xe3	-0.055029146
93	0xf6	-0.018975567
94	0xf5	-0.020873124
95	0xfd	-0.00569267
96	0x0b	0.020873124
97	0x1c	0.053131588
98	0x20	0.060721815
99	0xfa	-0.01138534
100	0xc1	-0.11954607
101	0x02	0.0037951134
102	0xf3	-0.024668237
103	0xc0	-0.12144363
104	0xd8	-0.07590227
105	0x22	0.06451693
106	0x31	0.09298028
107	0x22	0.06451693
108	0xcf	-0.09298028
109	0x22	0.06451693
110	0xf9	-0.013282897
111	0xc3	-0.11575096
112	0x1d	0.055029146
113	0x03	0.00569267
114	0xd8	-0.07590227
115	0x12	0.03415602
116	0xdb	-0.0702096
117	0x24	0.06831204
118	0xdb	-0.0702096
119	0xe3	-0.055029146
120	0x0a	0.018975567
121	0x05	0.009487784
122	0xf9	-0.013282897
123	0x4d	0.14611186
124	0x16	0.041746248
125	0x05	0.009487784
126	0xd8	-0.07590227
127	0xf8	-0.015180454
128	0x0f	0.02846335
129	0xd7	-0.07779983
130	0x2f	0.08918516
131	0x28	0.07590227
132	0x2e	0.087287605
133	0xf3	-0.024668237
134	0x15	0.039848693
135	0x13	0.036053576
136	0x00	0.0
137	0xe5	-0.05123403
138	0x0e	0.026565794
139	0x2d	0.08539005
140	0x29	0.07779983
141	0x07	0.013282897
142	0xd6	-0.079697385
143	0xfb	-0.009487784
144	0x16	0.041746248
145	0x00	0.0
146	0x15	0.039848693
147	0xfc	-0.007590227
148	0x0b	0.020873124
149	0xd6	-0.079697385
150	0x22	0.06451693
151	0x33	0.09677539
152	0x01	0.0018975567
153	0xec	-0.037951134
154	0xe0	-0.060721815
155	0x28	0.07590227
156	0xdc	-0.06831204
157	0x0c	0.02277068
158	0xff	-0.0018975567
159	0x27	0.07400471
160	0x26	0.07210715
161	0x0b	0.020873124
162	0x00	0.0
163	0xb3	-0.14611186
164	0x17	0.043643802
165	0xce	-0.09487784
166	0xe8	-0.04554136
167	0xd9	-0.07400471
168	0xda	-0.07210715
169	0x14	0.037951134
170	0xdd	-0.06641448
171	0x0c	0.02277068
172	0x00	0.0
173	0xeb	-0.039848693
174	0xe9	-0.043643802
175	0xdd	-0.06641448
176	0x2c	0.083492495
177	0x1c	0.053131588
178	0x45	0.1309314
179	0x38	0.106263176
180	0xdc	-0.06831204
181	0xe3	-0.055029146
182	0xec	-0.037951134
183	0x38	0.106263176
184	0xe1	-0.058824256
185	0xb7	-0.13852164
186	0x07	0.013282897
187	0xfa	-0.01138534
188	0xdf	-0.06261937
189	0x41	0.12334119
190	0x4d	0.14611186
191	0x09	0.01707801
192	0xdb	-0.0702096
193	0xe4	-0.053131588
194	0x02	0.0037951134
195	0xf4	-0.02277068
196	0x30	0.09108272
197	0x14	0.037951134
198	0xe9	-0.043643802
199	0xd0	-0.09108272
200	0x03	0.00569267
201	0x04	0.007590227
202	0x19	0.04743892
203	0x13	0.036053576
204	0xf3	-0.024668237
205	0x0b	0.020873124
206	0xfd	-0.00569267
207	0x11	0.032258466
208	0xd9	-0.07400471
209	0x0a	0.018975567
210	0xf2	-0.026565794
211	0xfb	-0.009487784
212	0xe7	-0.04743892
213	0xf6	-0.018975567
214	0xe7	-0.04743892
215	0xe6	-0.049336474
216	0xf7	-0.01707801
217	0xf5	-0.020873124
218	0xdf	-0.06261937
219	0xdc	-0.06831204
220	0x00	0.0
221	0x23	0.06641448
222	0xe3	-0.055029146
223	0xbf	-0.12334119
224	0x0d	0.024668237
225	0xbf	-0.12334119
226	0xdd	-0.06641448
227	0x02	0.0037951134
228	0xfd	-0.00569267
229	0x35	0.10057051
230	0x26	0.07210715
231	0x29	0.07779983
232	0xdb	-0.0702096
233	0xd2	-0.087287605
234	0xfc	-0.007590227
235	0xe0	-0.060721815
236	0xff	-0.0018975567
237	0x12	0.03415602
238	0x2d	0.08539005
239	0xb4	-0.1442143
240	0x20	0.060721815
241	0xd1	-0.08918516
242	0x27	0.07400471
243	0x28	0.07590227
244	0x28	0.07590227
245	0xfe	-0.0037951134
246	0x02	0.0037951134
247	0xc9	-0.10436562
248	0xf3	-0.024668237
249	0xe0	-0.060721815
250	0x18	0.04554136
251	0x0d	0.024668237
252	0x0b	0.020873124
253	0x17	0.043643802
254	0x34	0.09867295
255	0x0f	0.02846335

sequential_2/dense_Dense5/MatMul/ReadVariableOp/transpose i1 [15, 50] scale=0.0035014981 zero_point=0
0	0xcf	-0.17157342
1	0xf7	-0.031513482
2	0xc1	-0.22059438
3	0xb0	-0.28011984
4	0x10	0.05602397
5	0xbc	-0.23810187
6	0xd9	-0.13655843
7	0x5d	0.32563934
8	0x19	0.08753745
9	0x0a	0.03501498
10	0xe8	-0.084035955
11	0xd1	-0.1645704
12	0xc0	-0.22409588
13	0x38	0.1960839
14	0xf9	-0.024510488
15	0xc5	-0.20658839
16	0xeb	-0.073531464
17	0xee	-0.063026965
18	0xf7	-0.031513482
19	0x04	0.014005993
20	0x15	0.073531464
21	0xe5	-0.09454045
22	0x02	0.0070029963
23	0xca	-0.1890809
24	0x03	0.010504494
25	0xca	-0.1890809
26	0xe4	-0.09804195
27	0x2d	0.15756741
28	0x5e	0.3291408
29	0xe5	-0.09454045
30	0x4c	0.26611385
31	0x03	0.010504494
32	0xc8	-0.1960839
33	0x42	0.23109888
34	0x69	0.3676573
35	0xe5	-0.09454045
36	0xd3	-0.15756741
37	0xee	-0.063026965
38	0x1e	0.105044946
39	0xf8	-0.028011985
40	0x37	0.1925824
41	0x06	0.021008989
42	0xcc	-0.1820779
43	0x0f	0.052522473
44	0x3d	0.21359138
45	0x17	0.08053446
46	0xd3	-0.15756741
47	0x1b	0.09454045
48	0xb5	-0.26261237
49	0xe8	-0.084035955
50	0xe3	-0.10154345
51	0xc8	-0.1960839
52	0xc4	-0.21008989
53	0xc6	-0.2030869
54	0x24	0.12605393
55	0x5a	0.31513482
56	0xf0	-0.05602397
57	0x04	0.014005993
58	0x41	0.22759739
59	0x16	0.07703296
60	0xef	-0.059525467
61	0xc0	-0.22409588
62	0xd0	-0.16807191
63	0xed	-0.06652846
64	0x12	0.063026965
65	0xdd	-0.12255243
66	0x45	0.24160337
67	0x21	0.11554944
68	0x4a	0.25911087
69	0xda	-0.13305692
70	0xd5	-0.15056442
71	0x18	0.084035955
72	0x24	0.12605393
73	0x59	0.31163335
74	0xb2	-0.27311686
75	0xf7	-0.031513482
76	0xca	-0.1890809
77	0xf9	-0.024510488
78	0x2b	0.15056442
79	0x04	0.014005993
80	0x55	0.29762733
81	0x3a	0.2030869
82	0x68	0.3641558
83	0xe8	-0.084035955
84	0xfe	-0.0070029963
85	0xd0	-0.16807191
86	0x2d	0.15756741
87	0x41	0.22759739
88	0xb3	-0.26961535
89	0x00	0.0
90	0xdf	-0.11554944
91	0xd1	-0.1645704
92	0x6c	0.3781618
93	0x54	0.29412585
94	0x14	0.07002996
95	0xf9	-0.024510488
96	0x0d	0.045519475
97	0xf2	-0.049020976
98	0xef	-0.059525467
99	0xb8	-0.25210786
100	0xb4	-0.26611385
101	0x25	0.12955543
102	0xdd	-0.12255243
103	0x43	0.23460038
104	0x0a	0.03501498
105	0xed	-0.06652846
106	0x05	0.01750749
107	0xc9	-0.1925824
108	0xf6	-0.03501498
109	0xe1	-0.10854644
110	0xd1	-0.1645704
111	0x28	0.14005992
112	0xd4	-0.15406592
113	0x39	0.1995854
114	0x22	0.119050935
115	0xec	-0.07002996
116	0xe2	-0.105044946
117	0xff	-0.0035014981
118	0xe9	-0.08053446
119	0xea	-0.07703296
120	0x06	0.021008989
121	0x0f	0.052522473
122	0xdb	-0.12955543
123	0x37	0.1925824
124	0x0b	0.03851648
125	0x3f	0.22059438
126	0x0d	0.045519475
127	0x30	0.16807191
128	0xbb	-0.24160337
129	0x06	0.021008989
130	0x4c	0.26611385
131	0x14	0.07002996
132	0x31	0.17157342
133	0x5e	0.3291408
134	0x2d	0.15756741
135	0x45	0.24160337
136	0x56	0.30112883
137	0xcf	-0.17157342
138	0x4c	0.26611385
139	0x31	0.17157342
140	0xf6	-0.03501498
141	0xec	-0.07002996
142	0xd8	-0.14005992
143	0x14	0.07002996
144	0xb8	-0.25210786
145	0xc5	-0.20658839
146	0x15	0.073531464
147	0x02	0.0070029963
148	0xd5	-0.15056442
149	0x07	0.024510488
150	0x0d	0.045519475
151	0x1f	0.10854644
152	0x08	0.028011985
153	0xfe	-0.0070029963
154	0xcb	-0.1855794
155	0xfe	-0.0070029963
156	0x0b	0.03851648
157	0x1c	0.09804195
158	0xeb	-0.073531464
159	0xec	-0.07002996
160	0xdd	-0.12255243
161	0x03	0.010504494
162	0xfe	-0.0070029963
163	0x37	0.1925824
164	0x4d	0.26961535
165	0x0d	0.045519475
166	0xf8	-0.028011985
167	0x33	0.17857641
168	0xf5	-0.03851648
169	0x17	0.08053446
170	0x1f	0.10854644
171	0x05	0.01750749
172	0xea	-0.07703296
173	0x3b	0.20658839
174	0xed	-0.06652846
175	0xf0	-0.05602397
176	0xfb	-0.01750749
177	0x12	0.063026965
178	0xdd	-0.12255243
179	0xfb	-0.01750749
180	0x15	0.073531464
181	0xb1	-0.27661836
182	0x26	0.13305692
183	0xc4	-0.21008989
184	0xec	-0.07002996
185	0xd6	-0.14706293
186	0x04	0.014005993
187	0x26	0.13305692
188	0xcf	-0.17157342
189	0xe4	-0.09804195
190	0xc8	-0.1960839
191	0xf3	-0.045519475
192	0x31	0.17157342
193	0xc8	-0.1960839
194	0xc7	-0.1995854
195	0x25	0.12955543
196	0x12	0.063026965
197	0x0c	0.042017978
198	0x58	0.30813184
199	0x12	0.063026965
200	0xca	-0.1890809
201	0x12	0.063026965
202	0xc7	-0.1995854
203	0xf7	-0.031513482
204	0x34	0.1820779
205	0x0e	0.049020976
206	0x21	0.11554944
207	0xd0	-0.16807191
208	0x1a	0.09103895
209	0xf8	-0.028011985
210	0xe3	-0.10154345
211	0xd2	-0.16106892
212	0xbd	-0.23460038
213	0xef	-0.059525467
214	0xf6	-0.03501498
215	0xdf	-0.11554944
216	0xf0	-0.05602397
217	0x13	0.06652846
218	0xb2	-0.27311686
219	0xff	-0.0035014981
220	0x28	0.14005992
221	0x48	0.25210786
222	0xe5	-0.09454045
223	0x1e	0.105044946
224	0x00	0.0
225	0x0f	0.052522473
226	0xd0	-0.16807191
227	0x05	0.01750749
228	0x34	0.1820779
229	0x15	0.073531464
230	0xb4	-0.26611385
231	0x16	0.07703296
232	0xfe	-0.0070029963
233	0x06	0.021008989
234	0xd8	-0.14005992
235	0x03	0.010504494
236	0xed	-0.06652846
237	0xdf	-0.11554944
238	0xfd	-0.010504494
239	0x0c	0.042017978
240	0xec	-0.07002996
241	0x13	0.06652846
242	0xca	-0.1890809
243	0xa1	-0.33264232
244	0x12	0.063026965
245	0x50	0.28011984
246	0xb3	-0.26961535
247	0x17	0.08053446
248	0xb8	-0.25210786
249	0x16	0.07703296
250	0x2c	0.15406592
251	0xd0	-0.16807191
252	0x1f	0.10854644
253	0x2c	0.15406592
254	0x35	0.1855794
255	0x0b	0.03851648

sequential_2/dense_Dense6/MatMul/ReadVariableOp/transpose i1 [2, 15] scale=0.0060280403 zero_point=0
0	0x2e	0.27728987
1	0x9c	-0.602804
2	0x0c	0.07233648
3	0xc9	-0.33154222
4	0xf5	-0.066308446
5	0xb0	-0.48224324
6	0x58	0.53046757
7	0xb1	-0.47621518
8	0xac	-0.5063554
9	0xfd	-0.01808412
10	0x7f	0.7655611
11	0x37	0.33154222
12	0x0e	0.08439256
13	0xed	-0.11453277
14	0x62	0.59074795
15	0xbe	-0.39785066
16	0x28	0.24112162
17	0xe5	-0.16275708
18	0xd0	-0.28934592
19	0x3f	0.37976655
20	0xd1	-0.2833179
21	0x08	0.048224322
22	0x38	0.33757025
23	0x23	0.21098141
24	0x02	0.012056081
25	0xb3	-0.4641591
26	0xd1	-0.2833179
27	0xfa	-0.03616824
28	0x4c	0.45813107
29	0xa1	-0.57266384
