model_repo/d14ddd52-dfa2-4d33-b7ab-e1a67f48b0bd.tflite (tflite, 219896 bytes, 5 tensors)

sequential/dense/MatMul;StatefulPartitionedCall/sequential/dense/MatMul i1 [64, 3200] scale=0.0037002186 zero_point=0
00000000: d6e2 da0f ec01 0ef8 2a06 ee01 f3e3 dbf7
00000010: f9f4 e7fd ca04 edf2 05f8 f2ff d40c ea06
00000020: 17e4 df10 f0ed f901 0000 f700 ed0d 1b0d
00000030: 09e7 dd04 d8ea 0aff fbe5 e3f8 efff e8e9
00000040: ecef e6ec f6ee ea0a 0b0b f208 f301 f204
00000050: eff7 cd14 ddea 0e14 04c9 e4df da00 f916
00000060: ef13 f5f6 e9fa dd02 f5f0 fef2 d7ef fbe2
00000070: 0a0a 0004 ffd2 09f8 07fa ebea feff f910
00000080: 1101 01f5 05f7 f5f1 fdff ede8 e3fb 09fc
00000090: f600 02f6 06f1 e9e9 e90c e8ed 14e9 07fc
000000a0: 13f0 f4eb fcf8 faf5 0aff 00fe eb01 0ff0
000000b0: f1fc fffa f110 e4f4 f0ff eef4 f3f7 e6f1
000000c0: eff5 f7fa 07f8 0203 02ff f3e6 f5fa 15f2
000000d0: e4f3 0506 f6f6 e1f6 0506 ebf4 f7f4 faf8
000000e0: 09e9 0ae7 fcef 03f3 05e8 f8f7 e8f8 f4e8
000000f0: f9f9 f9e6 0210 e2ec f1f8 f0f6 f7ee ecfb
-0.15540919 -0.11100656 -0.14060831 0.05550328 -0.074004374 0.0037002186 0.05180306 -0.029601749
0.15540919 0.02220131 -0.066603936 0.0037002186 -0.04810284 -0.10730634 -0.13690808 -0.033301968
-0.02590153 -0.04440262 -0.09250546 -0.011100655 -0.1998118 0.0148008745 -0.070304155 -0.05180306
0.018501094 -0.029601749 -0.05180306 -0.0037002186 -0.16280963 0.04440262 -0.08140481 0.02220131
0.08510503 -0.10360612 -0.122107215 0.059203498 -0.059203498 -0.070304155 -0.02590153 0.0037002186
0.0 0.0 -0.033301968 0.0 -0.070304155 0.04810284 0.0999059 0.04810284
0.033301968 -0.09250546 -0.12950765 0.0148008745 -0.14800875 -0.08140481 0.037002187 -0.0037002186
-0.018501094 -0.0999059 -0.10730634 -0.029601749 -0.06290372 -0.0037002186 -0.08880524 -0.08510503
-0.074004374 -0.06290372 -0.09620568 -0.074004374 -0.037002187 -0.066603936 -0.08140481 0.037002187
0.040702406 0.040702406 -0.05180306 0.029601749 -0.04810284 0.0037002186 -0.05180306 0.0148008745
-0.06290372 -0.033301968 -0.18871115 0.074004374 -0.12950765 -0.08140481 0.05180306 0.074004374
0.0148008745 -0.20351203 -0.10360612 -0.122107215 -0.14060831 0.0 -0.02590153 0.08140481
-0.06290372 0.070304155 -0.040702406 -0.037002187 -0.08510503 -0.02220131 -0.12950765 0.0074004373
-0.040702406 -0.059203498 -0.0074004373 -0.05180306 -0.15170896 -0.06290372 -0.018501094 -0.11100656
0.037002187 0.037002187 0.0 0.0148008745 -0.0037002186 -0.17021006 0.033301968 -0.029601749
0.02590153 -0.02220131 -0.07770459 -0.08140481 -0.0074004373 -0.0037002186 -0.02590153 0.059203498
0.06290372 0.0037002186 0.0037002186 -0.040702406 0.018501094 -0.033301968 -0.040702406 -0.05550328
-0.011100655 -0.0037002186 -0.070304155 -0.08880524 -0.10730634 -0.018501094 0.033301968 -0.0148008745
-0.037002187 0.0 0.0074004373 -0.037002187 0.02220131 -0.05550328 -0.08510503 -0.08510503
-0.08510503 0.04440262 -0.08880524 -0.070304155 0.074004374 -0.08510503 0.02590153 -0.0148008745
0.070304155 -0.059203498 -0.04440262 -0.07770459 -0.0148008745 -0.029601749 -0.02220131 -0.040702406
0.037002187 -0.0037002186 0.0 -0.0074004373 -0.07770459 0.0037002186 0.05550328 -0.059203498
-0.05550328 -0.0148008745 -0.0037002186 -0.02220131 -0.05550328 0.059203498 -0.10360612 -0.04440262
-0.059203498 -0.0037002186 -0.066603936 -0.04440262 -0.04810284 -0.033301968 -0.09620568 -0.05550328
-0.06290372 -0.040702406 -0.033301968 -0.02220131 0.02590153 -0.029601749 0.0074004373 0.011100655
0.0074004373 -0.0037002186 -0.04810284 -0.09620568 -0.040702406 -0.02220131 0.07770459 -0.05180306
-0.10360612 -0.04810284 0.018501094 0.02220131 -0.037002187 -0.037002187 -0.11470678 -0.037002187
0.018501094 0.02220131 -0.07770459 -0.04440262 -0.033301968 -0.04440262 -0.02220131 -0.029601749
0.033301968 -0.08510503 0.037002187 -0.09250546 -0.0148008745 -0.06290372 0.011100655 -0.04810284
0.018501094 -0.08880524 -0.029601749 -0.033301968 -0.08880524 -0.029601749 -0.04440262 -0.08880524
-0.02590153 -0.02590153 -0.02590153 -0.09620568 0.0074004373 0.059203498 -0.11100656 -0.074004374
-0.05550328 -0.029601749 -0.059203498 -0.037002187 -0.033301968 -0.066603936 -0.074004374 -0.018501094

sequential/dense_1/MatMul;StatefulPartitionedCall/sequential/dense_1/MatMul i1 [32, 64] scale=0.005110438 zero_point=0
00000000: 0816 0c55 d6dc ded6 180b e7d9 e518 eee9
00000010: d43b f519 0cfa 00c2 abf4 06ef 266a 3c21
00000020: f51d d251 f904 d1d0 c44f d7c5 094c 082a
00000030: eccb 4451 45de ff18 fd05 fb24 09ff 04cc
00000040: e522 3fcd f221 e5b7 bb40 421e d928 f2f1
00000050: 0833 1b03 eb0e d90c 0f35 3aec d139 fb1f
00000060: 0aca ceee 0ee9 29d0 f4d4 e210 00e4 2c0e
00000070: daf2 fdbd 36dc 0be0 03f3 f9f8 acc9 fa02
00000080: ee17 263a 08cb ecee f00a 1bd7 fefd 3af6
00000090: 281b 32d7 ed27 254a 05c4 2d00 1726 19cd
000000a0: 02f5 2c43 e7ce 180b 0b21 de0b f4ea 2a28
000000b0: cdd7 0e00 7ccb fe19 121c 1c2d 181f 2afc
000000c0: 35c1 ecf0 3e1e d307 0bc4 f3bf e4fe d822
000000d0: 33bd 3324 3034 2229 f32a 2342 0cde ba19
000000e0: f0d6 29ec d9d8 fce4 2bff 27d7 fd3a e606
000000f0: 35c0 cb10 9510 2016 4ad3 48de 3e01 f413
0.040883504 0.112429634 0.061325256 0.43438724 -0.2146384 -0.18397577 -0.17375489 -0.2146384
0.12265051 0.056214817 -0.12776095 -0.19930708 -0.13798183 0.12265051 -0.091987886 -0.11754008
-0.22485927 0.30151585 -0.056214817 0.12776095 0.061325256 -0.030662628 0.0 -0.31684715
-0.43438724 -0.061325256 0.030662628 -0.08687744 0.19419664 0.54170644 0.3066263 0.16864446
-0.056214817 0.1482027 -0.23508015 0.41394547 -0.035773065 0.020441752 -0.24019058 -0.24530102
-0.3066263 0.4037246 -0.20952795 -0.30151585 0.045993943 0.38839328 0.040883504 0.2146384
-0.10220876 -0.27085322 0.34750977 0.41394547 0.3526202 -0.17375489 -0.005110438 0.12265051
-0.015331314 0.02555219 -0.02555219 0.18397577 0.045993943 -0.005110438 0.020441752 -0.26574278
-0.13798183 0.17375489 0.3219576 -0.26063234 -0.07154613 0.16864446 -0.13798183 -0.37306198
-0.3526202 0.32706803 0.33728892 0.15331315 -0.19930708 0.20441753 -0.07154613 -0.07665657
0.040883504 0.26063234 0.13798183 0.015331314 -0.1073192 0.07154613 -0.19930708 0.061325256
0.07665657 0.27085322 0.2964054 -0.10220876 -0.24019058 0.29129496 -0.02555219 0.15842357
0.05110438 -0.27596366 -0.2555219 -0.091987886 0.07154613 -0.11754008 0.20952795 -0.24530102
-0.061325256 -0.22485927 -0.15331315 0.08176701 0.0 -0.14309226 0.22485927 0.07154613
-0.19419664 -0.07154613 -0.015331314 -0.34239936 0.27596366 -0.18397577 0.056214817 -0.16353402
0.015331314 -0.066435695 -0.035773065 -0.040883504 -0.4292768 -0.28107408 -0.030662628 0.010220876
-0.091987886 0.11754008 0.19419664 0.2964054 0.040883504 -0.27085322 -0.10220876 -0.091987886
-0.08176701 0.05110438 0.13798183 -0.20952795 -0.010220876 -0.015331314 0.2964054 -0.05110438
0.20441753 0.13798183 0.2555219 -0.20952795 -0.09709832 0.19930708 0.1890862 0.3781724
0.02555219 -0.3066263 0.22996971 0.0 0.11754008 0.19419664 0.12776095 -0.26063234
0.010220876 -0.056214817 0.22485927 0.34239936 -0.12776095 -0.2555219 0.12265051 0.056214817
0.056214817 0.16864446 -0.17375489 0.056214817 -0.061325256 -0.112429634 0.2146384 0.20441753
-0.26063234 -0.20952795 0.07154613 0.0 0.6336943 -0.27085322 -0.010220876 0.12776095
0.091987886 0.14309226 0.14309226 0.22996971 0.12265051 0.15842357 0.2146384 -0.020441752
0.27085322 -0.3219576 -0.10220876 -0.08176701 0.31684715 0.15331315 -0.22996971 0.035773065
0.056214817 -0.3066263 -0.066435695 -0.33217847 -0.14309226 -0.010220876 -0.20441753 0.17375489
0.26063234 -0.34239936 0.26063234 0.18397577 0.24530102 0.26574278 0.17375489 0.20952795
-0.066435695 0.2146384 0.17886533 0.33728892 0.061325256 -0.17375489 -0.35773066 0.12776095
-0.08176701 -0.2146384 0.20952795 -0.10220876 -0.19930708 -0.20441753 -0.020441752 -0.14309226
0.21974884 -0.005110438 0.19930708 -0.20952795 -0.015331314 0.2964054 -0.13287139 0.030662628
0.27085322 -0.32706803 -0.27085322 0.08176701 -0.5468169 0.08176701 0.16353402 0.112429634
0.3781724 -0.22996971 0.36795154 -0.17375489 0.31684715 0.005110438 -0.061325256 0.09709832

sequential/y_pred/MatMul;StatefulPartitionedCall/sequential/y_pred/MatMul i1 [2, 32] scale=0.006864855 zero_point=0
00000000: 1a50 44a5 573b c729 f1a1 05cf fb4c a334
00000010: 24ea d7f9 f9b7 c3eb bcf0 55b2 bc3c 6328
00000020: 87b4 cf4f fee2 2dd0 5602 aa5c 57da 32e6
00000030: 815c fb61 bf48 283f 163f f133 2daa 119b
0.17848623 0.5491884 0.46681014 -0.6247018 0.5972424 0.40502644 -0.39129674 0.28145906
-0.10297283 -0.65216124 0.034324273 -0.3363779 -0.034324273 0.521729 -0.63843155 0.35697246
0.24713477 -0.15102682 -0.28145906 -0.048053987 -0.048053987 -0.5011344 -0.41875616 -0.14416195
-0.46681014 -0.10983768 0.58351266 -0.5354587 -0.46681014 0.4118913 0.6796206 0.2745942
-0.83064747 -0.521729 -0.3363779 0.5423235 -0.01372971 -0.20594566 0.30891848 -0.32951304
0.5903775 0.01372971 -0.5903775 0.63156664 0.5972424 -0.2608645 0.34324276 -0.17848623
-0.8718366 0.63156664 -0.034324273 0.66589093 -0.44621557 0.49426955 0.2745942 0.43248588
0.15102682 0.43248588 -0.10297283 0.3501076 0.30891848 -0.5903775 0.116702534 -0.6933504

sequential/conv2d_1/Conv2D;StatefulPartitionedCall/sequential/conv2d_1/Conv2D i1 [32, 3, 3, 16]
00000000: d2b4 b42e 0adc c805 e542 4d0b efe1 0dec
00000010: cf62 f781 b2da 1802 29a6 f11d 2be1 da9e
00000020: eaaf abf7 e633 c3e3 02ec fdc2 0724 acf2
00000030: 19d3 1a11 bed3 e823 b80e 78ea f10b 2913
00000040: dd38 0a01 dd0a d614 3be6 be12 ed9e f0f7
00000050: 1bd8 f507 e12b aff7 9f49 e2f6 0f05 ae07
00000060: f7f0 bc0f 9c44 bee2 c659 22dd 95da 5bbb
00000070: da14 11c5 934a 2009 2b12 3419 44ba efe0
00000080: dcfe cfdc 3231 26d8 d8f1 2afe f237 b303
00000090: baae d13a c3d7 81d2 23de 50c4 0413 1916
000000a0: cb4b fcb0 d633 de26 3406 f7c3 bde2 ffe2
000000b0: f9f7 0e05 c933 f935 29c2 3c24 eb24 c2fe
000000c0: 99f8 fa26 1bfc ccf4 0aff 0d05 e12f c9dc
000000d0: c213 e908 d714 f410 048c e9e4 e513 fb11
000000e0: b90d dae9 df1c 1315 2212 25e8 d132 f12b
000000f0: b70e 0b42 1ccd 8c82 48af 4e02 e711 a053
-46 -76 -76 46 10 -36 -56 5
-27 66 77 11 -17 -31 13 -20
-49 98 -9 -127 -78 -38 24 2
41 -90 -15 29 43 -31 -38 -98
-22 -81 -85 -9 -26 51 -61 -29
2 -20 -3 -62 7 36 -84 -14
25 -45 26 17 -66 -45 -24 35
-72 14 120 -22 -15 11 41 19
-35 56 10 1 -35 10 -42 20
59 -26 -66 18 -19 -98 -16 -9
27 -40 -11 7 -31 43 -81 -9
-97 73 -30 -10 15 5 -82 7
-9 -16 -68 15 -100 68 -66 -30
-58 89 34 -35 -107 -38 91 -69
-38 20 17 -59 -109 74 32 9
43 18 52 25 68 -70 -17 -32
-36 -2 -49 -36 50 49 38 -40
-40 -15 42 -2 -14 55 -77 3
-70 -82 -47 58 -61 -41 -127 -46
35 -34 80 -60 4 19 25 22
-53 75 -4 -80 -42 51 -34 38
52 6 -9 -61 -67 -30 -1 -30
-7 -9 14 5 -55 51 -7 53
41 -62 60 36 -21 36 -62 -2
-103 -8 -6 38 27 -4 -52 -12
10 -1 13 5 -31 47 -55 -36
-62 19 -23 8 -41 20 -12 16
4 -116 -23 -28 -27 19 -5 17
-71 13 -38 -23 -33 28 19 21
34 18 37 -24 -47 50 -15 43
-73 14 11 66 28 -51 -116 -126
72 -81 78 2 -25 17 -96 83

sequential/re_lu/Relu6;StatefulPartitionedCall/sequential/re_lu/Relu6;sequential/conv2d/BiasAdd;StatefulPartitionedCall/sequential/conv2d/BiasAdd;sequential/conv2d/Conv2D;StatefulPartitionedCall/sequential/conv2d/Conv2D;unknown_21 i1 [16, 3, 3, 1]
00000000: aaba 7f02 4a11 c6cd f82d b715 09d6 067f
00000010: ded6 22c1 a4b5 e4fd 7ff2 3c81 dc7a bfeb
00000020: 27dc 4c30 f1c2 7ff7 bf2a eced 2a43 0b14
00000030: ef29 e87f db44 a481 da55 b107 4523 4bb5
00000040: a834 d7ef 812b d99a 4727 9e45 bcf1 7fbf
00000050: bdde c1f7 896a a82f 7f0d b47f cd35 c145
00000060: 279f 097f 3c9e 3e08 e355 c6d7 7f33 c921
00000070: d951 3a89 9b04 2cd0 f5a9 1cd8 137f afea
00000080: f0ff 7f40 b74b fcc2 1eb9 2816 ca7f 11df
-86 -70 127 2 74 17 -58 -51
-8 45 -73 21 9 -42 6 127
-34 -42 34 -63 -92 -75 -28 -3
127 -14 60 -127 -36 122 -65 -21
39 -36 76 48 -15 -62 127 -9
-65 42 -20 -19 42 67 11 20
-17 41 -24 127 -37 68 -92 -127
-38 85 -79 7 69 35 75 -75
-88 52 -41 -17 -127 43 -39 -102
71 39 -98 69 -68 -15 127 -65
-67 -34 -63 -9 -119 106 -88 47
127 13 -76 127 -51 53 -63 69
39 -97 9 127 60 -98 62 8
-29 85 -58 -41 127 51 -55 33
-39 81 58 -119 -101 4 44 -48
-11 -87 28 -40 19 127 -81 -22
-16 -1 127 64 -73 75 -4 -62
30 -71 40 22 -54 127 17 -33
