model_repo/dc1215f2-a28f-4376-80ad-47bd21f6a2bd.tflite (tflite, 4736 bytes, 4 tensors)

sequential_15/dense_60/MatMul;StatefulPartitionedCall/sequential_15/dense_60/MatMul i1 [8, 59] scale=0.0055352645 zero_point=0
00000000: e37e 3658 053b 1d15 dff5 f70b c5c2 bbf7
00000010: ddfe 1c1f 6109 0f1f 3300 e8e2 c1d7 d5d1
00000020: 360d 0b27 33f5 46dd 3ee1 19c9 e9ed 0fc1
00000030: d4d2 3626 1356 3a30 4ef5 ce11 63b4 56f6
00000040: 3bd1 1da5 f7ec d13d dc5d 2317 1620 015d
00000050: 951e 981e c625 e413 9d29 d039 1c60 0916
00000060: e732 c51f b7bf c3b9 eaf8 53ea 4ecf 3fb6
00000070: f4b3 f0e5 e5a1 d40f d4d6 0af8 ab66 cc14
00000080: 5648 3df9 3bfb d8b5 beb8 c8f3 cae4 46fb
00000090: 4434 3011 48e0 16ab e49d cbb0 cbe4 5cd6
000000a0: 0714 1f0d 35fd 2bd0 f609 c4c9 c407 d9fd
000000b0: ebe3 e6c2 2dc8 24ed 30b6 69ea 67e0 2295
000000c0: 55d4 53dc 25d9 55cb 5cf4 39f9 179f 35ad
000000d0: 1bbb e00a f60b d234 b2fb f72c a218 e1fa
000000e0: 9d47 c73b d517 e22a ef41 b720 59e2 2c0b
000000f0: 72e8 65b1 5098 1999 28ef 53ed 3d0a 281c
-0.16052267 0.6974433 0.29890427 0.48710328 0.027676322 0.3265806 0.16052267 0.11624055
-0.18266372 -0.06088791 -0.04981738 0.06088791 -0.3265806 -0.3431864 -0.38193324 -0.04981738
-0.19373426 -0.011070529 0.15498741 0.1715932 0.53692067 0.04981738 0.083028965 0.1715932
0.28229848 0.0 -0.13284636 -0.16605793 -0.34872165 -0.22694585 -0.23801637 -0.26015744
0.29890427 0.07195844 0.06088791 0.21587531 0.28229848 -0.06088791 0.38746852 -0.19373426
0.3431864 -0.1715932 0.13838162 -0.30443954 -0.12731108 -0.10517003 0.083028965 -0.34872165
-0.24355164 -0.25462216 0.29890427 0.21034005 0.10517003 0.47603273 0.32104534 0.2656927
0.43175063 -0.06088791 -0.27676323 0.0940995 0.54799116 -0.4206801 0.47603273 -0.055352643
0.3265806 -0.26015744 0.16052267 -0.5037091 -0.04981738 -0.110705286 -0.26015744 0.33765113
-0.19926952 0.5147796 0.19373426 0.12731108 0.12177582 0.17712846 0.0055352645 0.5147796
-0.5922733 0.16605793 -0.5756675 0.16605793 -0.32104534 0.2048048 -0.15498741 0.10517003
-0.54799116 0.22694585 -0.2656927 0.31551006 0.15498741 0.5313854 0.04981738 0.12177582
-0.13838162 0.27676323 -0.3265806 0.1715932 -0.4040743 -0.3597922 -0.33765113 -0.3930038
-0.12177582 -0.044282116 0.45942694 -0.12177582 0.43175063 -0.27122796 0.34872165 -0.4096096
-0.06642318 -0.42621538 -0.08856423 -0.14945213 -0.14945213 -0.5258501 -0.24355164 0.083028965
-0.24355164 -0.2324811 0.055352643 -0.044282116 -0.4704975 0.56459695 -0.28783375 0.110705286
0.47603273 0.39853904 0.33765113 -0.038746852 0.3265806 -0.027676322 -0.22141057 -0.41514483
-0.36532745 -0.39853904 -0.30997482 -0.07195844 -0.29890427 -0.15498741 0.38746852 -0.027676322
0.376398 0.28783375 0.2656927 0.0940995 0.39853904 -0.17712846 0.12177582 -0.4704975
-0.15498741 -0.54799116 -0.29336902 -0.44282115 -0.29336902 -0.15498741 0.5092443 -0.2324811
0.038746852 0.110705286 0.1715932 0.07195844 0.29336902 -0.016605794 0.23801637 -0.2656927
-0.055352643 0.04981738 -0.33211586 -0.30443954 -0.33211586 0.038746852 -0.21587531 -0.016605794
-0.11624055 -0.16052267 -0.14391688 -0.3431864 0.2490869 -0.30997482 0.19926952 -0.10517003
0.2656927 -0.4096096 0.58120275 -0.12177582 0.57013226 -0.17712846 0.188199 -0.5922733
0.4704975 -0.24355164 0.45942694 -0.19926952 0.2048048 -0.21587531 0.4704975 -0.29336902
0.5092443 -0.06642318 0.31551006 -0.038746852 0.12731108 -0.53692067 0.29336902 -0.45942694
0.14945213 -0.38193324 -0.17712846 0.055352643 -0.055352643 0.06088791 -0.25462216 0.28783375
-0.43175063 -0.027676322 -0.04981738 0.24355164 -0.5203149 0.13284636 -0.1715932 -0.03321159
-0.54799116 0.3930038 -0.31551006 0.3265806 -0.23801637 0.12731108 -0.16605793 0.2324811
-0.0940995 0.3597922 -0.4040743 0.17712846 0.49263853 -0.16605793 0.24355164 0.06088791
0.6310201 -0.13284636 0.5590617 -0.4372859 0.44282115 -0.5756675 0.13838162 -0.57013226
0.22141057 -0.0940995 0.45942694 -0.10517003 0.33765113 0.055352643 0.22141057 0.15498741

sequential_15/dense_61/MatMul;StatefulPartitionedCall/sequential_15/dense_61/MatMul i1 [4, 8] scale=0.008807326 zero_point=0
00000000: ff77 4254 de1a 281b ecf5 2c7f 1f48 19e0
00000010: 471e d638 1be7 1407 c92e 2116 6355 4041
-0.008807326 1.0480717 0.5812835 0.73981535 -0.2994491 0.22899047 0.352293 0.2377978
-0.1761465 -0.096880585 0.38752234 1.1185304 0.2730271 0.63412744 0.22018315 -0.28183442
0.62532014 0.26421976 -0.36990768 0.49321026 0.2377978 -0.22018315 0.1761465 0.061651282
-0.48440292 0.40513697 0.29064175 0.19376117 0.87192523 0.7486227 0.56366885 0.57247615

sequential_15/dense_62/MatMul;StatefulPartitionedCall/sequential_15/dense_62/MatMul i1 [8, 4] scale=0.007888029 zero_point=0
00000000: cb8a 3468 0d4d f950 7031 a9e6 4e6c 7fa9
00000010: 6dea 42df 45aa 0450 29ae 5e37 2d49 9b19
-0.41806555 -0.93078744 0.41017753 0.82035506 0.10254438 0.60737824 -0.055216204 0.63104236
0.88345927 0.38651344 -0.68625855 -0.20508876 0.61526626 0.8519072 1.0017797 -0.68625855
0.8597952 -0.17353664 0.5206099 -0.26030496 0.54427403 -0.67837054 0.031552117 0.63104236
0.3234092 -0.6468184 0.74147475 0.43384162 0.3549613 0.57582617 -0.79669094 0.19720073

sequential_15/dense_63/MatMul;StatefulPartitionedCall/sequential_15/dense_63/MatMul i1 [59, 8] scale=0.0058204276 zero_point=0
00000000: e83d c4df d2ec efef a8e9 d2e5 4c28 08f1
00000010: 2e06 a1b8 ea26 f4d8 eea4 0311 21fa 3dea
00000020: 3c06 e0d6 e2fc 17ac e7cf e006 4ee4 0fef
00000030: 23e6 d3f2 c4fc 37e2 f5ce ff12 20ce fa0d
00000040: 0ffc d6d5 ec09 0000 d8cd 4e15 e7fe d4f2
00000050: 1fe6 26b2 f107 de30 b502 2bf5 fcea de0c
00000060: a72f 02ab f234 e001 be08 23fc e2d5 b41d
00000070: 9923 f0a5 0302 400e e1f7 0b11 e0da b30f
00000080: a713 c6d8 0147 13ef f6d5 f80f 3b9f eed8
00000090: 02a5 ffda ff47 36f8 b8fe f01b 3cd1 b99c
000000a0: f9c3 c302 0342 34c9 5e14 ee1d 0ea6 d7ac
000000b0: fdc9 c8df 2de8 5ce8 f2e9 ce39 00d9 81fb
000000c0: fce1 22c4 1e01 0cec 4bce c7cd f7e9 e6d4
000000d0: 04e8 dbc7 1bd0 cdde 0735 2000 b5fb 95e8
000000e0: b5c9 fff9 d713 cdd4 f235 0cd7 adb0 e833
000000f0: e8b5 30e4 1b06 fb23 ea2e c1fe b8ef d624
-0.13969027 0.3550461 -0.34922564 -0.1920741 -0.26773965 -0.11640855 -0.09894727 -0.09894727
-0.5121976 -0.13386983 -0.26773965 -0.15715155 0.4423525 0.2328171 0.04656342 -0.08730641
0.26773965 0.034922566 -0.5529406 -0.41907078 -0.1280494 0.22117625 -0.06984513 -0.2328171
-0.104767695 -0.5354793 0.017461283 0.09894727 0.1920741 -0.034922566 0.3550461 -0.1280494
0.34922564 0.034922566 -0.18625368 -0.24445796 -0.17461282 -0.02328171 0.13386983 -0.48891592
-0.14551069 -0.28520095 -0.18625368 0.034922566 0.45399335 -0.16297197 0.08730641 -0.09894727
0.20371497 -0.15133111 -0.26191923 -0.08148599 -0.34922564 -0.02328171 0.32012352 -0.17461282
-0.0640247 -0.29102138 -0.0058204276 0.104767695 0.18625368 -0.29102138 -0.034922566 0.075665556
0.08730641 -0.02328171 -0.24445796 -0.25027838 -0.11640855 0.052383848 0.0 0.0
-0.2328171 -0.2968418 0.45399335 0.12222898 -0.14551069 -0.011640855 -0.2560988 -0.08148599
0.18043326 -0.15133111 0.22117625 -0.45399335 -0.08730641 0.040742993 -0.19789454 0.27938053
-0.43653208 0.011640855 0.25027838 -0.0640247 -0.02328171 -0.1280494 -0.19789454 0.06984513
-0.51801807 0.2735601 0.011640855 -0.49473634 -0.08148599 0.30266222 -0.18625368 0.0058204276
-0.3841482 0.04656342 0.20371497 -0.02328171 -0.17461282 -0.25027838 -0.4423525 0.1687924
-0.59950405 0.20371497 -0.09312684 -0.5296589 0.017461283 0.011640855 0.37250736 0.08148599
-0.18043326 -0.052383848 0.0640247 0.09894727 -0.18625368 -0.22117625 -0.44817293 0.08730641
-0.51801807 0.110588126 -0.3375848 -0.2328171 0.0058204276 0.41325036 0.110588126 -0.09894727
-0.058204275 -0.25027838 -0.04656342 0.08730641 0.34340522 -0.56458145 -0.104767695 -0.2328171
0.011640855 -0.5296589 -0.0058204276 -0.22117625 -0.0058204276 0.41325036 0.3143031 -0.04656342
-0.41907078 -0.011640855 -0.09312684 0.15715155 0.34922564 -0.2735601 -0.41325036 -0.58204275
-0.040742993 -0.3550461 -0.3550461 0.011640855 0.017461283 0.3841482 0.30266222 -0.32012352
0.5471202 0.11640855 -0.104767695 0.1687924 0.08148599 -0.52383846 -0.23863754 -0.48891592
-0.017461283 -0.32012352 -0.32594395 -0.1920741 0.26191923 -0.13969027 0.5354793 -0.13969027
-0.08148599 -0.13386983 -0.29102138 0.33176437 0.0 -0.22699668 -0.7391943 -0.029102137
-0.02328171 -0.18043326 0.19789454 -0.34922564 0.17461282 0.0058204276 0.06984513 -0.11640855
0.43653208 -0.29102138 -0.33176437 -0.2968418 -0.052383848 -0.13386983 -0.15133111 -0.2560988
0.02328171 -0.13969027 -0.21535581 -0.33176437 0.15715155 -0.27938053 -0.2968418 -0.19789454
0.040742993 0.30848265 0.18625368 0.0 -0.43653208 -0.029102137 -0.62278575 -0.13969027
-0.43653208 -0.32012352 -0.0058204276 -0.040742993 -0.23863754 0.110588126 -0.2968418 -0.2560988
-0.08148599 0.30848265 0.06984513 -0.23863754 -0.4830955 -0.4656342 -0.13969027 0.2968418
-0.13969027 -0.43653208 0.27938053 -0.16297197 0.15715155 0.034922566 -0.029102137 0.20371497
-0.1280494 0.26773965 -0.36668694 -0.011640855 -0.41907078 -0.09894727 -0.24445796 0.20953539
