model_repo/e0a4c429-1095-4833-a6cd-07d385ff61d5.tflite (tflite, 8048 bytes, 3 tensors)

sequential/y_pred/MatMul;StatefulPartitionedCall/sequential/y_pred/MatMul i1 [4, 208] scale=0.008896928 zero_point=0
000000 ec 0b e0 2b e0 30 f6 ec f8 d4 06 f7 17 e0 fe 08
       -0.17793857 0.09786621 -0.2847017 0.3825679 -0.2847017 0.42705256 -0.08896928 -0.17793857 -0.071175426 -0.39146483 0.05338157 -0.08007236 0.20462935 -0.2847017 -0.017793857 0.071175426
000010 eb f9 fd 1d e3 27 e9 f6 1e 34 ee fe 16 ed ed 08
       -0.1868355 -0.062278498 -0.026690785 0.25801092 -0.25801092 0.3469802 -0.20462935 -0.08896928 0.26690784 0.4626403 -0.16014472 -0.017793857 0.19573241 -0.16904163 -0.16904163 0.071175426
000020 c4 f9 e8 21 e5 18 ff f9 1c 21 e0 ff 12 bc db f8
       -0.5338157 -0.062278498 -0.21352628 0.29359862 -0.24021706 0.21352628 -0.008896928 -0.062278498 0.24911399 0.29359862 -0.2847017 -0.008896928 0.16014472 -0.60499114 -0.32918635 -0.071175426
000030 e7 0b f8 20 ee 15 fe fe 1d 1d df 03 1e c2 c7 ef
       -0.22242321 0.09786621 -0.071175426 0.2847017 -0.16014472 0.1868355 -0.017793857 -0.017793857 0.25801092 0.25801092 -0.29359862 0.026690785 0.26690784 -0.5516096 -0.5071249 -0.15124778
000040 de 0c ec 19 02 20 24 e5 21 23 ed ff 29 da df ee
       -0.30249557 0.10676314 -0.17793857 0.22242321 0.017793857 0.2847017 0.32028943 -0.24021706 0.29359862 0.3113925 -0.16904163 -0.008896928 0.36477405 -0.33808327 -0.29359862 -0.16014472
000050 c8 15 e4 17 eb 22 23 f4 1a 17 da 23 1b d1 e9 fc
       -0.49822798 0.1868355 -0.24911399 0.20462935 -0.1868355 0.30249557 0.3113925 -0.10676314 0.23132014 0.20462935 -0.33808327 0.3113925 0.24021706 -0.41815564 -0.20462935 -0.035587713
000060 dc 03 f1 1c 08 1b 1b ef 35 1e d4 03 19 c8 ef f8
       -0.32028943 0.026690785 -0.13345392 0.24911399 0.071175426 0.24021706 0.24021706 -0.15124778 0.4715372 0.26690784 -0.39146483 0.026690785 0.22242321 -0.49822798 -0.15124778 -0.071175426
000070 df fa f9 1b f0 17 14 ff 19 25 db ea 22 c8 dd fe
       -0.29359862 -0.05338157 -0.062278498 0.24021706 -0.14235085 0.20462935 0.17793857 -0.008896928 0.22242321 0.32918635 -0.32918635 -0.19573241 0.30249557 -0.49822798 -0.3113925 -0.017793857
000080 eb f4 da 1a ee fe 13 ee 1c 1b c9 ed 06 e5 d5 fd
       -0.1868355 -0.10676314 -0.33808327 0.23132014 -0.16014472 -0.017793857 0.16904163 -0.16014472 0.24911399 0.24021706 -0.48933107 -0.16904163 0.05338157 -0.24021706 -0.3825679 -0.026690785
000090 cb f0 ed 17 ef 1b 18 e4 13 0a ce f8 19 cf de f9
       -0.4715372 -0.14235085 -0.16904163 0.20462935 -0.15124778 0.24021706 0.21352628 -0.24911399 0.16904163 0.08896928 -0.44484642 -0.071175426 0.22242321 -0.43594947 -0.30249557 -0.062278498
0000a0 ef d9 cb 1c f9 fb 1e db 29 18 dc f5 13 f7 de 00
       -0.15124778 -0.3469802 -0.4715372 0.24911399 -0.062278498 -0.04448464 0.26690784 -0.32918635 0.36477405 0.21352628 -0.32028943 -0.09786621 0.16904163 -0.08007236 -0.30249557 0.0
0000b0 f5 ec bc 07 ee 15 fc e8 1f 09 dc 03 15 a1 da 1d
       -0.09786621 -0.17793857 -0.60499114 0.062278498 -0.16014472 0.1868355 -0.035587713 -0.21352628 0.2758048 0.08007236 -0.32028943 0.026690785 0.1868355 -0.84520817 -0.33808327 0.25801092
0000c0 fc 0c fb 05 19 05 ff dd 19 1e fa fc f2 ee d5 fb
       -0.035587713 0.10676314 -0.04448464 0.04448464 0.22242321 0.04448464 -0.008896928 -0.3113925 0.22242321 0.26690784 -0.05338157 -0.035587713 -0.124556996 -0.16014472 -0.3825679 -0.04448464
0000d0 e5 1f 47 02 cd 1d 00 f3 d1 44 ef 11 f6 32 cf 0d
       -0.24021706 0.2758048 0.6316819 0.017793857 -0.45374334 0.25801092 0.0 -0.11566007 -0.41815564 0.60499114 -0.15124778 0.15124778 -0.08896928 0.44484642 -0.43594947 0.11566007
0000e0 18 25 21 03 d3 18 ee f9 f3 27 f8 13 fc 37 20 fd
       0.21352628 0.32918635 0.29359862 0.026690785 -0.40036178 0.21352628 -0.16014472 -0.062278498 -0.11566007 0.3469802 -0.071175426 0.16904163 -0.035587713 0.48933107 0.2847017 -0.026690785
0000f0 27 1d 1f 0b e4 14 ed ef ee 1b fc 07 f0 2c 22 fb
       0.3469802 0.25801092 0.2758048 0.09786621 -0.24911399 0.17793857 -0.16904163 -0.15124778 -0.16014472 0.24021706 -0.035587713 0.062278498 -0.14235085 0.39146483 0.30249557 -0.04448464

sequential/conv1d/conv1d;StatefulPartitionedCall/sequential/conv1d/conv1d i1 [8, 1, 3, 13]
000000 52 ed 48 18 03 e8 fb 0e 09 0a ff 07 07 2d ca ba
       82 -19 72 24 3 -24 -5 14 9 10 -1 7 7 45 -54 -70
000010 d8 f7 01 eb f4 f6 fe 07 00 10 81 3a 30 0d 09 08
       -40 -9 1 -21 -12 -10 -2 7 0 16 -127 58 48 13 9 8
000020 f0 e4 05 f3 e8 08 f7 81 f6 18 04 11 06 f5 ea 09
       -16 -28 5 -13 -24 8 -9 -127 -10 24 4 17 6 -11 -22 9
000030 0c f4 0a f8 82 f0 00 ff 0b 0a 0e fe f8 f3 e9 fc
       12 -12 10 -8 -126 -16 0 -1 11 10 14 -2 -8 -13 -23 -4
000040 f8 92 e7 04 02 14 f6 ff fb 00 0b 1c 09 02 71 d9
       -8 -110 -25 4 2 20 -10 -1 -5 0 11 28 9 2 113 -39
000050 e6 b6 d6 05 4f 62 d5 d9 fe f1 00 59 d1 cd f6 aa
       -26 -74 -42 5 79 98 -43 -39 -2 -15 0 89 -47 -51 -10 -86
000060 3b 6c fa e2 22 13 af 30 7f a2 1f 18 90 4e 57 00
       59 108 -6 -30 34 19 -81 48 127 -94 31 24 -112 78 87 0
000070 11 29 ee cd 0e df 7f 92 4f 32 bb e7 18 08 3f f4
       17 41 -18 -51 14 -33 127 -110 79 50 -69 -25 24 8 63 -12
000080 d5 10 dd 40 88 37 ee da 07 08 11 25 c0 1f fc 09
       -43 16 -35 64 -120 55 -18 -38 7 8 17 37 -64 31 -4 9
000090 15 aa f9 05 3c f9 06 53 f2 cd 22 ee 22 d6 45 15
       21 -86 -7 5 60 -7 6 83 -14 -51 34 -18 34 -42 69 21
0000a0 82 0b 0f f1 21 f4 ef 0e ff fc ff 6c 16 8d 05 d3
       -126 11 15 -15 33 -12 -17 14 -1 -4 -1 108 22 -115 5 -45
0000b0 07 2f 00 fe 0d 12 eb 11 7f 12 99 04 a7 e3 f3 f4
       7 47 0 -2 13 18 -21 17 127 18 -103 4 -89 -29 -13 -12
0000c0 f3 35 07 1e 74 7f e8 08 d1 9b ff f2 ff 23 f9 16
       -13 53 7 30 116 127 -24 8 -47 -101 -1 -14 -1 35 -7 22
0000d0 2c 65 69 dd 2d b3 ad fb fc eb 10 fd 00 4b 5a 5a
       44 101 105 -35 45 -77 -83 -5 -4 -21 16 -3 0 75 90 90
0000e0 11 f5 c0 d5 0d c6 e2 11 f6 15 81 35 f8 00 20 ef
       17 -11 -64 -43 13 -58 -30 17 -10 21 -127 53 -8 0 32 -17
0000f0 e5 fd f7 08 04 13 ee b5 49 0c fb 00 11 f1 00 fe
       -27 -3 -9 8 4 19 -18 -75 73 12 -5 0 17 -15 0 -2

sequential/conv1d_1/conv1d;StatefulPartitionedCall/sequential/conv1d_1/conv1d i1 [16, 1, 3, 8]
000000 bd 81 0f 30 dc bf b9 93 18 bc 0e e4 b4 04 e4 ba
       -67 -127 15 48 -36 -65 -71 -109 24 -68 14 -28 -76 4 -28 -70
000010 e0 f9 ef e2 76 05 07 c8 f4 07 81 fc ec fe 15 fe
       -32 -7 -17 -30 118 5 7 -56 -12 7 -127 -4 -20 -2 21 -2
000020 eb f8 f9 f0 e7 01 fe f2 db df 04 1f f1 03 04 d6
       -21 -8 -7 -16 -25 1 -2 -14 -37 -33 4 31 -15 3 4 -42
000030 c2 f8 a1 e9 9a 12 fc fd 0c e0 ed 72 a1 05 16 e8
       -62 -8 -95 -23 -102 18 -4 -3 12 -32 -19 114 -95 5 22 -24
000040 d0 81 02 ca e8 d9 ca d9 02 eb fe ee 11 30 fc f1
       -48 -127 2 -54 -24 -39 -54 -39 2 -21 -2 -18 17 48 -4 -15
000050 d7 81 06 ed 0c f2 fe c8 db 9b 10 0e fc 03 00 a8
       -41 -127 6 -19 12 -14 -2 -56 -37 -101 16 14 -4 3 0 -88
000060 19 f2 12 cb 1f e3 aa 10 06 df 04 dc ed e1 c4 e8
       25 -14 18 -53 31 -29 -86 16 6 -33 4 -36 -19 -31 -60 -24
000070 f9 81 04 36 e5 11 00 9c f4 f5 f2 15 fc 0c 1d ec
       -7 -127 4 54 -27 17 0 -100 -12 -11 -14 21 -4 12 29 -20
000080 07 b7 fd f6 ed fb 08 a7 e3 81 19 03 f1 ff e5 c7
       7 -73 -3 -10 -19 -5 8 -89 -29 -127 25 3 -15 -1 -27 -57
000090 fe e8 0d fe 01 e5 81 f5 04 fa ff ee 01 bb c8 f1
       -2 -24 13 -2 1 -27 -127 -11 4 -6 -1 -18 1 -69 -56 -15
0000a0 06 06 00 b1 f7 c0 da 20 f1 91 f9 f9 e8 02 eb d6
       6 6 0 -79 -9 -64 -38 32 -15 -111 -7 -7 -24 2 -21 -42
0000b0 fd 86 f1 fe e2 02 f2 91 fd b6 f3 17 e9 0c 1f 81
       -3 -122 -15 -2 -30 2 -14 -111 -3 -74 -13 23 -23 12 31 -127
0000c0 d5 f7 49 e9 0e 43 f0 e7 c3 d0 f8 f0 e4 df e1 fe
       -43 -9 73 -23 14 67 -16 -25 -61 -48 -8 -16 -28 -33 -31 -2
0000d0 c7 f0 01 ef d1 ce 81 08 ef c5 f4 20 ee 2c fc d4
       -57 -16 1 -17 -47 -50 -127 8 -17 -59 -12 32 -18 44 -4 -44
0000e0 e7 a1 0d 09 fe f3 f3 a7 ee 95 19 f4 07 d5 81 04
       -25 -95 13 9 -2 -13 -13 -89 -18 -107 25 -12 7 -43 -127 4
0000f0 0a 81 fe 05 1f df c4 bc ff 95 e1 33 f7 02 d8 c6
       10 -127 -2 5 31 -33 -60 -68 -1 -107 -31 51 -9 2 -40 -58
