collected_models/ARM_DS_CNN_Small_.tflite (tflite, 47616 bytes, 10 tensors)

model/conv2d/Conv2D i1 [64, 10, 4, 1]
00000000: 590e 0120 35f8 fe18 46e7 0fe9 1ef2 eaca
00000010: 06cc eef2 14da f4da 1113 22f6 f422 33d1
00000020: b434 13e5 8118 23dd d8e7 0bf3 ce14 3700
00000030: 8159 6a07 904b 6200 d42d 0c1f 1aea b7bf
00000040: 11e4 afaf 2ae2 c1bd 31e3 e3e9 30f6 2de0
00000050: dace ca9f 2203 e293 21fd d281 eb00 f024
00000060: 02d7 0214 2be3 b9c6 14d2 9fbb 0c12 ce07
00000070: d4f2 1d24 e7ff 3c5c c67f 61d7 1d2a 71c5
00000080: 2a5f 7d2a f2ad 4d56 c8ad b717 5cd8 8798
00000090: 283e c8ef 002d 1819 dcf4 15f2 f7e5 edc0
000000a0: 0524 b232 e13f f748 d40a fe2d e3e2 e45f
000000b0: 0cd0 0b69 1ce3 ec7f 0ab3 f324 ede1 e71f
000000c0: dbce da0f e4d6 e838 c722 3cd3 f17c 21e0
000000d0: 4e7e 34fa 456b 182e 3741 f719 5df5 d510
000000e0: 7a81 22bf 16ef 1995 06f1 02be d8de 51d5
000000f0: 041a 10ea 3503 d42e 3513 9362 110e 8759
89 14 1 32 53 -8 -2 24
70 -25 15 -23 30 -14 -22 -54
6 -52 -18 -14 20 -38 -12 -38
17 19 34 -10 -12 34 51 -47
-76 52 19 -27 -127 24 35 -35
-40 -25 11 -13 -50 20 55 0
-127 89 106 7 -112 75 98 0
-44 45 12 31 26 -22 -73 -65
17 -28 -81 -81 42 -30 -63 -67
49 -29 -29 -23 48 -10 45 -32
-38 -50 -54 -97 34 3 -30 -109
33 -3 -46 -127 -21 0 -16 36
2 -41 2 20 43 -29 -71 -58
20 -46 -97 -69 12 18 -50 7
-44 -14 29 36 -25 -1 60 92
-58 127 97 -41 29 42 113 -59
42 95 125 42 -14 -83 77 86
-56 -83 -73 23 92 -40 -121 -104
40 62 -56 -17 0 45 24 25
-36 -12 21 -14 -9 -27 -19 -64
5 36 -78 50 -31 63 -9 72
-44 10 -2 45 -29 -30 -28 95
12 -48 11 105 28 -29 -20 127
10 -77 -13 36 -19 -31 -25 31
-37 -50 -38 15 -28 -42 -24 56
-57 34 60 -45 -15 124 33 -32
78 126 52 -6 69 107 24 46
55 65 -9 25 93 -11 -43 16
122 -127 34 -65 22 -17 25 -107
6 -15 2 -66 -40 -34 81 -43
4 26 16 -22 53 3 -44 46
53 19 -109 98 17 14 -121 89

model/batch_normalization_1/FusedBatchNormV3;model/depthwise_conv2d/depthwise;model/depthwise_conv2d/BiasAdd;model/conv2d/Conv2D;model/depthwise_conv2d/BiasAdd/ReadVariableOp/resource1 i1 [1, 3, 3, 64]
00000000: 0481 647f ce60 e0a4 1d15 3b53 d753 c720
00000010: ff04 c881 a92b 81c7 d1d0 1f3b e324 c55e
00000020: 811d f0ce 567f 6c81 c00a ffca 5135 79bc
00000030: 4443 ad17 deac 819a 1435 e882 f47f 3a2e
00000040: d375 50f2 3f1b 2cc5 ec1c f225 441d eae9
00000050: cd28 7f98 81db 18a8 1b29 10d5 f007 16f8
00000060: d9fc b3f3 4fc2 f957 4c8b dcc6 d0fc 9456
00000070: 7f2c 2165 f7c7 efe9 f62a f77f e7ed db82
00000080: 4fe8 9ed8 81f6 81e4 e87f f23b df81 a9e6
00000090: e29c 5275 2ff5 3ff5 0281 633b dd6a 10da
000000a0: edc1 7fd0 12be 4581 c97f b0b2 a1d1 cce2
000000b0: e1cb b8e5 adcf 1ba3 13f5 f31e 230d ce21
000000c0: 9fd9 fbe7 cb3d d17f f719 21f8 cc79 ce0b
000000d0: d0e2 c523 0081 5066 be94 bf6b ad44 6123
000000e0: 0fc0 fd7f 5383 134a 81de 249d 0d48 f1e2
000000f0: ec7f e8e0 acb0 6c81 8114 e69f 1483 e3f0
4 -127 100 127 -50 96 -32 -92
29 21 59 83 -41 83 -57 32
-1 4 -56 -127 -87 43 -127 -57
-47 -48 31 59 -29 36 -59 94
-127 29 -16 -50 86 127 108 -127
-64 10 -1 -54 81 53 121 -68
68 67 -83 23 -34 -84 -127 -102
20 53 -24 -126 -12 127 58 46
-45 117 80 -14 63 27 44 -59
-20 28 -14 37 68 29 -22 -23
-51 40 127 -104 -127 -37 24 -88
27 41 16 -43 -16 7 22 -8
-39 -4 -77 -13 79 -62 -7 87
76 -117 -36 -58 -48 -4 -108 86
127 44 33 101 -9 -57 -17 -23
-10 42 -9 127 -25 -19 -37 -126
79 -24 -98 -40 -127 -10 -127 -28
-24 127 -14 59 -33 -127 -87 -26
-30 -100 82 117 47 -11 63 -11
2 -127 99 59 -35 106 16 -38
-19 -63 127 -48 18 -66 69 -127
-55 127 -80 -78 -95 -47 -52 -30
-31 -53 -72 -27 -83 -49 27 -93
19 -11 -13 30 35 13 -50 33
-97 -39 -5 -25 -53 61 -47 127
-9 25 33 -8 -52 121 -50 11
-48 -30 -59 35 0 -127 80 102
-66 -108 -65 107 -83 68 97 35
15 -64 -3 127 83 -125 19 74
-127 -34 36 -99 13 72 -15 -30
-20 127 -24 -32 -84 -80 108 -127
-127 20 -26 -97 20 -125 -29 -16

model/conv2d_1/Conv2D i1 [64, 1, 1, 64]
00000000: 18f7 b8e9 cfe4 14c0 25c7 e6b1 e82e 1eea
00000010: c8df dceb bedf e9e6 fc16 283a 06e1 d0e9
00000020: de0d f21d 13ec 0af9 2c81 03da f30e d832
00000030: 3037 16e6 e20a fbec 0aef 0efa a526 f915
00000040: a3da 2ce7 48bd c2da d64b 15c3 07e5 e800
00000050: d9f0 c88f 1c3b ede2 7fee f127 dcdb 0011
00000060: 020a 2b16 f136 1517 f217 d6d7 e906 2eeb
00000070: dcee f7ee 0dc3 ead7 0a2f 174b 3d14 e8f7
00000080: 3327 c304 19cb 13c9 a738 b2f0 51c4 302b
00000090: 0700 051a 3cc0 1b1d c9de 14ad fc15 2432
000000a0: ec08 4627 c1f8 06a6 f1f1 da45 09d1 39ce
000000b0: ec35 2c06 0834 084a 0d38 33e2 00cb 8161
000000c0: 1ee6 a638 fcf2 f0e2 f9f8 25f9 0481 fa00
000000d0: e9ff 2be6 d7e5 28a1 e0ef e4f1 2722 09d7
000000e0: ebe9 16cd c525 f512 14c4 29cf 91ce c4e9
000000f0: 03d7 f6d7 074b ca03 0e09 2f34 d2fe 0517
24 -9 -72 -23 -49 -28 20 -64
37 -57 -26 -79 -24 46 30 -22
-56 -33 -36 -21 -66 -33 -23 -26
-4 22 40 58 6 -31 -48 -23
-34 13 -14 29 19 -20 10 -7
44 -127 3 -38 -13 14 -40 50
48 55 22 -26 -30 10 -5 -20
10 -17 14 -6 -91 38 -7 21
-93 -38 44 -25 72 -67 -62 -38
-42 75 21 -61 7 -27 -24 0
-39 -16 -56 -113 28 59 -19 -30
127 -18 -15 39 -36 -37 0 17
2 10 43 22 -15 54 21 23
-14 23 -42 -41 -23 6 46 -21
-36 -18 -9 -18 13 -61 -22 -41
10 47 23 75 61 20 -24 -9
51 39 -61 4 25 -53 19 -55
-89 56 -78 -16 81 -60 48 43
7 0 5 26 60 -64 27 29
-55 -34 20 -83 -4 21 36 50
-20 8 70 39 -63 -8 6 -90
-15 -15 -38 69 9 -47 57 -50
-20 53 44 6 8 52 8 74
13 56 51 -30 0 -53 -127 97
30 -26 -90 56 -4 -14 -16 -30
-7 -8 37 -7 4 -127 -6 0
-23 -1 43 -26 -41 -27 40 -95
-32 -17 -28 -15 39 34 9 -41
-21 -23 22 -51 -59 37 -11 18
20 -60 41 -49 -111 -50 -60 -23
3 -41 -10 -41 7 75 -54 3
14 9 47 52 -46 -2 5 23

model/batch_normalization_3/FusedBatchNormV3;model/depthwise_conv2d_1/depthwise;model/depthwise_conv2d_1/BiasAdd;model/conv2d/Conv2D;model/depthwise_conv2d_1/BiasAdd/ReadVariableOp/resource1 i1 [1, 3, 3, 64]
00000000: 47c9 0b7a cb67 3e30 8100 7608 0b44 e97f
00000010: 6e30 67f3 9c9c 6924 0aaa 7fca c0c8 7f7f
00000020: 8255 3a08 ec75 ac86 1df3 aadb c11d 8168
00000030: ed24 161e 7f3a 6a2c 02b9 7f0c 947f 3864
00000040: 747f 8190 e63e 1616 bff4 75f1 c909 06f2
00000050: c6b0 f2c3 7f3f de81 c0dd cb86 ae7f aa75
00000060: 87d6 04cb 17fc 1d3d 2a13 d37f da26 a0b5
00000070: 9df6 e63a 3c81 174a 42ed 30fc bbbc f326
00000080: 37e0 7d4f 0f1f 5c81 c07f ee5a ff2f bb0b
00000090: 9df7 c5c1 670a aa3d d837 ca20 0d91 f13a
000000a0: 7f09 b2ee 44c6 41db 3e5e 43b1 9f01 2550
000000b0: effa a7b7 1369 4905 8146 c429 a7df 7f1e
000000c0: 7bcb 9c69 3053 2e24 a30b 81c6 37f5 7215
000000d0: 03d9 7ff7 de1a 4031 c2b7 6ead 54c3 1b5b
000000e0: 3b56 f8b9 7f78 c949 47d8 cddb 0136 2e7f
000000f0: 0d34 1e9b 1227 5f5e 4f85 f8d2 0659 427f
71 -55 11 122 -53 103 62 48
-127 0 118 8 11 68 -23 127
110 48 103 -13 -100 -100 105 36
10 -86 127 -54 -64 -56 127 127
-126 85 58 8 -20 117 -84 -122
29 -13 -86 -37 -63 29 -127 104
-19 36 22 30 127 58 106 44
2 -71 127 12 -108 127 56 100
116 127 -127 -112 -26 62 22 22
-65 -12 117 -15 -55 9 6 -14
-58 -80 -14 -61 127 63 -34 -127
-64 -35 -53 -122 -82 127 -86 117
-121 -42 4 -53 23 -4 29 61
42 19 -45 127 -38 38 -96 -75
-99 -10 -26 58 60 -127 23 74
66 -19 48 -4 -69 -68 -13 38
55 -32 125 79 15 31 92 -127
-64 127 -18 90 -1 47 -69 11
-99 -9 -59 -63 103 10 -86 61
-40 55 -54 32 13 -111 -15 58
127 9 -78 -18 68 -58 65 -37
62 94 67 -79 -97 1 37 80
-17 -6 -89 -73 19 105 73 5
-127 70 -60 41 -89 -33 127 30
123 -53 -100 105 48 83 46 36
-93 11 -127 -58 55 -11 114 21
3 -39 127 -9 -34 26 64 49
-62 -73 110 -83 84 -61 27 91
59 86 -8 -71 127 120 -55 73
71 -40 -51 -37 1 54 46 127
13 52 30 -101 18 39 95 94
79 -123 -8 -46 6 89 66 127

model/conv2d_2/Conv2D i1 [64, 1, 1, 64]
00000000: 6448 dfe5 23ee b885 59e0 cfd4 dfa1 7e69
00000010: 369d eae4 abf6 f6a4 a118 d6b8 4acb 4696
00000020: 19e9 49ed 2d67 8a4f b133 db11 1321 dc7f
00000030: 5154 a5e1 f1d5 f7b2 0f9b 35e0 a60f bdc6
00000040: 0211 f9cf 10d2 dac1 3bfc 1dc3 d826 01f0
00000050: 3f17 1ae9 042b 0004 f418 14fb ebe7 2be2
00000060: f1b1 d052 3fcf f428 2be9 16fe ff44 c601
00000070: c981 c90e e1fc 0b05 db0e ebb9 61f5 32c4
00000080: 89c8 8844 1c33 fbfb f6c0 c2e2 e8ad d4e4
00000090: 2d2f 1ee6 b8ec dee6 c828 1d71 3ff3 2be2
000000a0: 5115 0027 f5cc 814f 2f13 3e0b 16b3 e63a
000000b0: 1134 ff58 de63 dda4 e6b4 0c13 111b e2b3
000000c0: 4929 4c03 fbf1 dbda 40da bb13 fb42 c715
000000d0: 1322 3792 b2b3 ef35 1936 f9f0 c1d6 0481
000000e0: e907 de00 fae6 2ad0 276d 59dd d411 bbfb
000000f0: efaf 4bfd 492a f0e1 0b2a f557 6015 f2bc
100 72 -33 -27 35 -18 -72 -123
89 -32 -49 -44 -33 -95 126 105
54 -99 -22 -28 -85 -10 -10 -92
-95 24 -42 -72 74 -53 70 -106
25 -23 73 -19 45 103 -118 79
-79 51 -37 17 19 33 -36 127
81 84 -91 -31 -15 -43 -9 -78
15 -101 53 -32 -90 15 -67 -58
2 17 -7 -49 16 -46 -38 -63
59 -4 29 -61 -40 38 1 -16
63 23 26 -23 4 43 0 4
-12 24 20 -5 -21 -25 43 -30
-15 -79 -48 82 63 -49 -12 40
43 -23 22 -2 -1 68 -58 1
-55 -127 -55 14 -31 -4 11 5
-37 14 -21 -71 97 -11 50 -60
-119 -56 -120 68 28 51 -5 -5
-10 -64 -62 -30 -24 -83 -44 -28
45 47 30 -26 -72 -20 -34 -26
-56 40 29 113 63 -13 43 -30
81 21 0 39 -11 -52 -127 79
47 19 62 11 22 -77 -26 58
17 52 -1 88 -34 99 -35 -92
-26 -76 12 19 17 27 -30 -77
73 41 76 3 -5 -15 -37 -38
64 -38 -69 19 -5 66 -57 21
19 34 55 -110 -78 -77 -17 53
25 54 -7 -16 -63 -42 4 -127
-23 7 -34 0 -6 -26 42 -48
39 109 89 -35 -44 17 -69 -5
-17 -81 75 -3 73 42 -16 -31
11 42 -11 87 96 21 -14 -68

model/batch_normalization_5/FusedBatchNormV3;model/depthwise_conv2d_2/depthwise;model/depthwise_conv2d_2/BiasAdd;model/conv2d/Conv2D;model/depthwise_conv2d_2/BiasAdd/ReadVariableOp/resource1 i1 [1, 3, 3, 64]
00000000: 76e4 f031 81da 7f81 8c35 59b6 5c54 667f
00000010: 4094 7f45 de69 4121 1351 eb49 7f8a bb7f
00000020: ba5e 4f0f 2617 107f 7ff5 060c 7f57 7f67
00000030: db9e f381 7d40 4bdd 7b4d 7fae 7f7a c274
00000040: 5014 6ed2 06b9 4889 8156 33c4 7fcc 4c78
00000050: 63e7 0b7f 81ed aa0c a122 2ffc c303 aaee
00000060: 1edc a6fd 0581 b175 170e 64ba 0330 e749
00000070: d928 b7dd edeb 1503 3fef 2413 01f0 2734
00000080: 8105 827f b931 219d 737f 7fd5 e17f 79f6
00000090: 3cf5 ff6f f316 1421 8149 f593 1c7f 9a45
000000a0: ac32 bdc1 9148 c060 242d 4023 e226 ae7f
000000b0: 9ede 3bf1 3660 3036 4b7f 3a37 2881 0cd2
000000c0: 2ebe 448a 9e96 20ea bc70 3dbb 4345 7f47
000000d0: 2ad6 44e3 ef72 684f 167f f63e 680e b71b
000000e0: d02f ec49 0ffb 1b17 21c3 6cfc ec3f 6f60
000000f0: d2a2 23db 262c 35fe 18d5 2ddc 5e4e 8149
118 -28 -16 49 -127 -38 127 -127
-116 53 89 -74 92 84 102 127
64 -108 127 69 -34 105 65 33
19 81 -21 73 127 -118 -69 127
-70 94 79 15 38 23 16 127
127 -11 6 12 127 87 127 103
-37 -98 -13 -127 125 64 75 -35
123 77 127 -82 127 122 -62 116
80 20 110 -46 6 -71 72 -119
-127 86 51 -60 127 -52 76 120
99 -25 11 127 -127 -19 -86 12
-95 34 47 -4 -61 3 -86 -18
30 -36 -90 -3 5 -127 -79 117
23 14 100 -70 3 48 -25 73
-39 40 -73 -35 -19 -21 21 3
63 -17 36 19 1 -16 39 52
-127 5 -126 127 -71 49 33 -99
115 127 127 -43 -31 127 121 -10
60 -11 -1 111 -13 22 20 33
-127 73 -11 -109 28 127 -102 69
-84 50 -67 -63 -111 72 -64 96
36 45 64 35 -30 38 -82 127
-98 -34 59 -15 54 96 48 54
75 127 58 55 40 -127 12 -46
46 -66 68 -118 -98 -106 32 -22
-68 112 61 -69 67 69 127 71
42 -42 68 -29 -17 114 104 79
22 127 -10 62 104 14 -73 27
-48 47 -20 73 15 -5 27 23
33 -61 108 -4 -20 63 111 96
-46 -94 35 -37 38 44 53 -2
24 -43 45 -36 94 78 -127 73

model/conv2d_3/Conv2D i1 [64, 1, 1, 64]
00000000: 0428 3116 27f4 1a1b 08f4 8110 414b 3102
00000010: 053c c1d6 bf48 d0fb 37e9 d903 a4e1 0ee5
00000020: 13d1 39f6 eef3 be02 2909 d5ed f8e6 2f0a
00000030: d564 fddf dc3f fddd d101 9df4 fa09 2335
00000040: cca8 edb0 3333 2c0d 44eb 521e 1fd6 eadb
00000050: bb98 97da cf29 8f17 b2ca 1ead de16 2f56
00000060: 8709 138d d5e3 ed3c 3416 e542 7524 0c09
00000070: 8117 d617 7cf3 19d4 d001 d6db b65e 58d6
00000080: 40ba f562 17e3 f60d d40a f875 ae03 0115
00000090: d37f 00b8 f9cf 34fd 22bf 30cb ea02 a4c6
000000a0: ea14 1371 df2c c30d d144 60fb 0ead 1fe7
000000b0: c3e1 2d11 3dfc ea13 ce77 5340 f1b4 ec1a
000000c0: f037 c6fb 8eb8 1cd2 8425 9b6c 23da 1b3e
000000d0: f121 dba8 f9a8 c5aa 3a2f d527 fdbe c604
000000e0: 3a81 51ab cff0 2caf 28b5 30e7 13e3 e5c2
000000f0: d7f1 3dde c128 a918 3841 b8b7 2436 9144
4 40 49 22 39 -12 26 27
8 -12 -127 16 65 75 49 2
5 60 -63 -42 -65 72 -48 -5
55 -23 -39 3 -92 -31 14 -27
19 -47 57 -10 -18 -13 -66 2
41 9 -43 -19 -8 -26 47 10
-43 100 -3 -33 -36 63 -3 -35
-47 1 -99 -12 -6 9 35 53
-52 -88 -19 -80 51 51 44 13
68 -21 82 30 31 -42 -22 -37
-69 -104 -105 -38 -49 41 -113 23
-78 -54 30 -83 -34 22 47 86
-121 9 19 -115 -43 -29 -19 60
52 22 -27 66 117 36 12 9
-127 23 -42 23 124 -13 25 -44
-48 1 -42 -37 -74 94 88 -42
64 -70 -11 98 23 -29 -10 13
-44 10 -8 117 -82 3 1 21
-45 127 0 -72 -7 -49 52 -3
34 -65 48 -53 -22 2 -92 -58
-22 20 19 113 -33 44 -61 13
-47 68 96 -5 14 -83 31 -25
-61 -31 45 17 61 -4 -22 19
-50 119 83 64 -15 -76 -20 26
-16 55 -58 -5 -114 -72 28 -46
-124 37 -101 108 35 -38 27 62
-15 33 -37 -88 -7 -88 -59 -86
58 47 -43 39 -3 -66 -58 4
58 -127 81 -85 -49 -16 44 -81
40 -75 48 -25 19 -29 -27 -62
-41 -15 61 -34 -63 40 -87 24
56 65 -72 -73 36 54 -111 68

model/batch_normalization_7/FusedBatchNormV3;model/depthwise_conv2d_3/depthwise;model/depthwise_conv2d_3/BiasAdd;model/conv2d/Conv2D;model/depthwise_conv2d_3/BiasAdd/ReadVariableOp/resource1 i1 [1, 3, 3, 64]
00000000: 4d94 8e7b b181 0f7f 889d 9b9d f351 55b3
00000010: 7f21 607f 6c60 4981 5158 7fe3 1e65 b07f
00000020: d7b2 5553 7f50 9cdb 4fd0 d3c6 8163 8152
00000030: 815f d265 6f7f 9b6a c783 b398 afc3 4144
00000040: 668d ae71 dfa0 b263 89b5 8184 a05f 64d2
00000050: 6724 535b 7f4e 3656 385c 6cd8 bf73 3d7b
00000060: 8da5 4a61 6964 8581 7fda fdc6 cb57 987f
00000070: 977f b642 7c6f 8161 81c5 c291 99df 4a7f
00000080: 3e81 a848 8bcb 8c3f 81f7 ac81 cd30 36a7
00000090: 5dc7 6d4c 5645 1aac 437f 4ad5 814b 815d
000000a0: 81a7 7f7f 5753 c888 46ee a4cd e456 c063
000000b0: ae5e b34a 6353 cb5f 93dd db9c a7ed 0550
000000c0: 23c2 c915 cdd4 c115 f3e0 d2d7 f520 3997
000000d0: 2f12 2017 2014 25f4 1b2d 22bb 1002 f41a
000000e0: bfab fc07 1915 c69b 0bc7 cfc1 da17 e90e
000000f0: 0040 f117 2d09 c916 92bc 9cd0 e2c8 0b29
77 -108 -114 123 -79 -127 15 127
-120 -99 -101 -99 -13 81 85 -77
127 33 96 127 108 96 73 -127
81 88 127 -29 30 101 -80 127
-41 -78 85 83 127 80 -100 -37
79 -48 -45 -58 -127 99 -127 82
-127 95 -46 101 111 127 -101 106
-57 -125 -77 -104 -81 -61 65 68
102 -115 -82 113 -33 -96 -78 99
-119 -75 -127 -124 -96 95 100 -46
103 36 83 91 127 78 54 86
56 92 108 -40 -65 115 61 123
-115 -91 74 97 105 100 -123 -127
127 -38 -3 -58 -53 87 -104 127
-105 127 -74 66 124 111 -127 97
-127 -59 -62 -111 -103 -33 74 127
62 -127 -88 72 -117 -53 -116 63
-127 -9 -84 -127 -51 48 54 -89
93 -57 109 76 86 69 26 -84
67 127 74 -43 -127 75 -127 93
-127 -89 127 127 87 83 -56 -120
70 -18 -92 -51 -28 86 -64 99
-82 94 -77 74 99 83 -53 95
-109 -35 -37 -100 -89 -19 5 80
35 -62 -55 21 -51 -44 -63 21
-13 -32 -46 -41 -11 32 57 -105
47 18 32 23 32 20 37 -12
27 45 34 -69 16 2 -12 26
-65 -85 -4 7 25 21 -58 -101
11 -57 -49 -63 -38 23 -23 14
0 64 -15 23 45 9 -55 22
-110 -68 -100 -48 -30 -56 11 41

model/conv2d_4/Conv2D i1 [64, 1, 1, 64]
00000000: f7d2 e208 0541 81fb 29f2 f2da 310a e2b4
00000010: 30d6 1101 1ff7 183d f9f3 a84e 10fe 15ff
00000020: f9fb 0643 db11 bfec 1d25 d7df 1a4c 31db
00000030: 57f2 42e0 0817 4d1f dea4 1909 12ef d708
00000040: e420 0ad2 e8dd 1026 fe5e 960b 27dd 3bb1
00000050: d8d6 5133 b8fd caef b009 2f22 fecf bbb0
00000060: c72a 05de df06 4218 074b 0a29 eff8 1439
00000070: a549 b864 49cc 8104 2b3c 2322 d146 15d2
00000080: fbd9 196a 0273 e103 efd2 2056 c4b2 ee81
00000090: 17d3 03f7 ebdb e60b 3ffb db2e cef2 503b
000000a0: b6e1 260f 5ec2 16c3 2861 b24b 3126 ba25
000000b0: dfde f9f8 383e 59e3 45cb c648 ebc6 24fe
000000c0: c1f5 824a e91e e1d1 2ff5 f6dd 0711 579a
000000d0: 26de d407 b425 0b7f b52c fdba 0b9c fc0c
000000e0: 2a62 f1f4 cc1c fd18 16e9 e6bd f44c 590d
000000f0: e90d b4dc 26e5 f9df 5da8 1fc4 b13e cff4
-9 -46 -30 8 5 65 -127 -5
41 -14 -14 -38 49 10 -30 -76
48 -42 17 1 31 -9 24 61
-7 -13 -88 78 16 -2 21 -1
-7 -5 6 67 -37 17 -65 -20
29 37 -41 -33 26 76 49 -37
87 -14 66 -32 8 23 77 31
-34 -92 25 9 18 -17 -41 8
-28 32 10 -46 -24 -35 16 38
-2 94 -106 11 39 -35 59 -79
-40 -42 81 51 -72 -3 -54 -17
-80 9 47 34 -2 -49 -69 -80
-57 42 5 -34 -33 6 66 24
7 75 10 41 -17 -8 20 57
-91 73 -72 100 73 -52 -127 4
43 60 35 34 -47 70 21 -46
-5 -39 25 106 2 115 -31 3
-17 -46 32 86 -60 -78 -18 -127
23 -45 3 -9 -21 -37 -26 11
63 -5 -37 46 -50 -14 80 59
-74 -31 38 15 94 -62 22 -61
40 97 -78 75 49 38 -70 37
-33 -34 -7 -8 56 62 89 -29
69 -53 -58 72 -21 -58 36 -2
-63 -11 -126 74 -23 30 -31 -47
47 -11 -10 -35 7 17 87 -102
38 -34 -44 7 -76 37 11 127
-75 44 -3 -70 11 -100 -4 12
42 98 -15 -12 -52 28 -3 24
22 -23 -26 -67 -12 76 89 13
-23 13 -76 -36 38 -27 -7 -33
93 -88 31 -60 -79 62 -49 -12

model/dense/MatMul i1 [12, 64] scale=0.00954407 zero_point=0
00000000: 81a5 989e 3e4d b7f4 9fa9 c0bf c4a3 e2fd
00000010: e39d aa32 e601 3ca3 19b3 c6be 9edc cdaa
00000020: dba2 c7c2 9894 3f52 9127 9d8f 9bde 8446
00000030: 8a3b 3b95 36b8 b5a1 26f7 9b33 a8bf d4a2
00000040: e4fd 2cdc 18e3 da10 f52d 40ed d7f5 13f9
00000050: 37ca 0fe6 e8de f3f1 041a 5027 fc17 2f1c
00000060: fff5 172a c61f 0308 d6fb f7ec 0a38 f3ea
00000070: d5c8 26e5 fb21 e128 05dd 22da ea1b 30f0
00000080: 0fea d2e9 caf4 ebf0 15e3 3c4e c6e5 f7e5
00000090: d126 1e16 3fec 3aca 4c28 223a c2e0 d33a
000000a0: c7eb ced3 f7d4 f3f6 2c09 f022 f3d6 473d
000000b0: 0ebe e31a 1710 cbd8 dbbd efcd d9b4 dedb
000000c0: db24 dcf9 f2dd 39e0 07c6 f9d9 ff39 c9d0
000000d0: c933 2e12 c6d8 25d4 d92b dcd0 aed6 c10a
000000e0: 0df9 34be e028 e401 3123 1f37 fbe6 e4cd
000000f0: db0f fcc2 25bf 2d39 f60b ecfd 2009 2f27
-1.2120969 -0.86851037 -0.9925833 -0.9353188 0.5917323 0.7348934 -0.6967171 -0.114528835
-0.92577475 -0.83033407 -0.6108205 -0.62036455 -0.5726442 -0.8875985 -0.2863221 -0.028632209
-0.276778 -0.9448629 -0.82079 0.4772035 -0.24814582 0.00954407 0.5726442 -0.8875985
0.23860174 -0.7348934 -0.553556 -0.6299086 -0.9353188 -0.3435865 -0.48674756 -0.82079
-0.35313058 -0.8971426 -0.544012 -0.5917323 -0.9925833 -1.0307596 0.6012764 0.78261375
-1.0593917 0.37221873 -0.9448629 -1.0784799 -0.96395105 -0.3244984 -1.1834646 0.6680849
-1.1262002 0.5631001 0.5631001 -1.0212154 0.5153798 -0.687173 -0.71580523 -0.90668666
0.36267465 -0.085896626 -0.96395105 0.48674756 -0.83987814 -0.62036455 -0.41993907 -0.8971426
-0.26723397 -0.028632209 0.41993907 -0.3435865 0.22905767 -0.276778 -0.36267465 0.15270512
-0.10498477 0.42948315 0.6108205 -0.18133733 -0.39130688 -0.10498477 0.18133733 -0.06680849
0.52492386 -0.5153798 0.14316104 -0.24814582 -0.22905767 -0.3244984 -0.12407291 -0.14316104
0.03817628 0.24814582 0.7635256 0.37221873 -0.03817628 0.21951361 0.4485713 0.26723397
-0.00954407 -0.10498477 0.21951361 0.40085092 -0.553556 0.29586616 0.028632209 0.07635256
-0.40085092 -0.04772035 -0.085896626 -0.1908814 0.0954407 0.53446794 -0.12407291 -0.20996954
-0.410395 -0.53446794 0.36267465 -0.2576899 -0.04772035 0.3149543 -0.29586616 0.3817628
0.04772035 -0.33404246 0.3244984 -0.36267465 -0.20996954 0.2576899 0.45811534 -0.15270512
0.14316104 -0.20996954 -0.43902722 -0.21951361 -0.5153798 -0.114528835 -0.20042546 -0.15270512
0.20042546 -0.276778 0.5726442 0.74443746 -0.553556 -0.2576899 -0.085896626 -0.2576899
-0.4485713 0.36267465 0.2863221 0.20996954 0.6012764 -0.1908814 0.553556 -0.5153798
0.7253493 0.3817628 0.3244984 0.553556 -0.5917323 -0.30541024 -0.42948315 0.553556
-0.544012 -0.20042546 -0.4772035 -0.42948315 -0.085896626 -0.41993907 -0.12407291 -0.0954407
0.41993907 0.085896626 -0.15270512 0.3244984 -0.12407291 -0.40085092 0.67762893 0.58218825
0.13361698 -0.6299086 -0.276778 0.24814582 0.21951361 0.15270512 -0.5058357 -0.3817628
-0.35313058 -0.6394527 -0.1622492 -0.48674756 -0.37221873 -0.7253493 -0.3244984 -0.35313058
-0.35313058 0.3435865 -0.3435865 -0.06680849 -0.13361698 -0.33404246 0.544012 -0.30541024
0.06680849 -0.553556 -0.06680849 -0.37221873 -0.00954407 0.544012 -0.52492386 -0.45811534
-0.52492386 0.48674756 0.43902722 0.17179325 -0.553556 -0.3817628 0.35313058 -0.41993907
-0.37221873 0.410395 -0.3435865 -0.45811534 -0.78261375 -0.40085092 -0.6012764 0.0954407
0.12407291 -0.06680849 0.49629164 -0.6299086 -0.30541024 0.3817628 -0.26723397 0.00954407
0.4676594 0.33404246 0.29586616 0.52492386 -0.04772035 -0.24814582 -0.26723397 -0.48674756
-0.35313058 0.14316104 -0.03817628 -0.5917323 0.35313058 -0.62036455 0.42948315 0.544012
-0.0954407 0.10498477 -0.1908814 -0.028632209 0.30541024 0.085896626 0.4485713 0.37221873
