collected_models/ARM_MicroNet_Small_anomaly_detection.tflite (tflite, 252848 bytes, 10 tensors)

Conv2D;StatefulPartitionedCall/StatefulPartitionedCall/PartitionedCall_2/PartitionedCall/Conv2D i1 [72, 3, 3, 1]
000000 c1 70 f5 7f dc 28 c2 48 4f b2 54 f7 28 81 e3 05
       -63 112 -11 127 -36 40 -62 72 79 -78 84 -9 40 -127 -29 5
000010 b2 50 09 81 d6 35 ee 47 30 df b3 13 b0 8c 7f bc
       -78 80 9 -127 -42 53 -18 71 48 -33 -77 19 -80 -116 127 -68
000020 71 9d 0d 6f e4 9a b0 1b 19 c4 81 01 f7 51 88 ff
       113 -99 13 111 -28 -102 -80 27 25 -60 -127 1 -9 81 -120 -1
000030 6a 3f 40 39 fb 7f fe 7f 8a c3 5a 6d 02 20 c1 7f
       106 63 64 57 -5 127 -2 127 -118 -61 90 109 2 32 -63 127
000040 ac eb f1 28 b5 90 a6 76 36 36 b3 7f dd 97 d4 6c
       -84 -21 -15 40 -75 -112 -90 118 54 54 -77 127 -35 -105 -44 108
000050 e4 81 50 af 8e ae 4d c0 0f be 36 58 f9 7a 69 4d
       -28 -127 80 -81 -114 -82 77 -64 15 -66 54 88 -7 122 105 77
000060 0f 81 eb 2b 3f 71 a5 3c 7b 7f bd b0 13 3d 81 36
       15 -127 -21 43 63 113 -91 60 123 127 -67 -80 19 61 -127 54
000070 f9 10 0c 5a 7b d2 95 9e 4c 7f b4 50 e3 86 e9 45
       -7 16 12 90 123 -46 -107 -98 76 127 -76 80 -29 -122 -23 69
000080 37 5c 83 bc ae 7f b2 23 ad 39 b6 81 8e 50 5e d1
       55 92 -125 -68 -82 127 -78 35 -83 57 -74 -127 -114 80 94 -47
000090 7f 19 99 21 85 56 95 b4 eb 2c 83 96 4d fe 97 7f
       127 25 -103 33 -123 86 -107 -76 -21 44 -125 -106 77 -2 -105 127
0000a0 25 4a 55 2c 8c e5 47 81 31 8e 38 96 16 16 1f 04
       37 74 85 44 -116 -27 71 -127 49 -114 56 -106 22 22 31 4
0000b0 7f 10 15 54 c8 81 1d 9b e1 4c f8 55 2d 83 f9 6e
       127 16 21 84 -56 -127 29 -101 -31 76 -8 85 45 -125 -7 110
0000c0 4e 0d b2 81 6e 6a 3a 74 33 c1 b3 27 7f 3f 8c 65
       78 13 -78 -127 110 106 58 116 51 -63 -77 39 127 63 -116 101
0000d0 59 9a 7f 7c 86 6d 37 7f 39 1d 5e 2f 8f 7f e9 e7
       89 -102 127 124 -122 109 55 127 57 29 94 47 -113 127 -23 -25
0000e0 d1 0b c9 66 7f c8 e3 af 8b 83 46 49 16 7f 86 8f
       -47 11 -55 102 127 -56 -29 -81 -117 -125 70 73 22 127 -122 -113
0000f0 02 f0 01 88 8b 1a 9c 3b e2 cc 8d 81 85 2e b5 fe
       2 -16 1 -120 -117 26 -100 59 -30 -52 -115 -127 -123 46 -75 -2

Conv2D;StatefulPartitionedCall/StatefulPartitionedCall/PartitionedCall_6/PartitionedCall/Conv2D i1 [164, 1, 1, 72]
000000 b2 25 2d d3 5e 29 8f 99 17 fd 1a 69 81 2f 7b 4f
       -78 37 45 -45 94 41 -113 -103 23 -3 26 105 -127 47 123 79
000010 ea 41 18 9d 4c 3a 1f e9 c2 63 d6 0f 93 bb c9 88
       -22 65 24 -99 76 58 31 -23 -62 99 -42 15 -109 -69 -55 -120
000020 f3 9a 6f 36 dc ec 95 5b 7f 93 4c a4 8f 9b 9f 9b
       -13 -102 111 54 -36 -20 -107 91 127 -109 76 -92 -113 -101 -97 -101
000030 f4 a7 9d cf 4f 89 ef ea a9 a5 e6 b3 85 bd 84 89
       -12 -89 -99 -49 79 -119 -17 -22 -87 -91 -26 -77 -123 -67 -124 -119
000040 cb c2 8a bc 94 fd 67 86 3d c5 1e 0d 34 1d 68 1d
       -53 -62 -118 -68 -108 -3 103 -122 61 -59 30 13 52 29 104 29
000050 e4 13 65 8e 52 c5 66 5c 9b 39 1a a1 46 4b b1 b0
       -28 19 101 -114 82 -59 102 92 -101 57 26 -95 70 75 -79 -80
000060 df 53 53 5e 03 46 6a ca 2a 3d f7 3f b1 f0 5d 9a
       -33 83 83 94 3 70 106 -54 42 61 -9 63 -79 -16 93 -102
000070 d2 89 f0 48 f0 04 30 de 70 49 b5 5d 8e db 43 43
       -46 -119 -16 72 -16 4 48 -34 112 73 -75 93 -114 -37 67 67
000080 0a 42 be ed 81 12 27 56 bc c4 a2 ce 69 64 65 b9
       10 66 -66 -19 -127 18 39 86 -68 -60 -94 -50 105 100 101 -71
000090 fd f3 54 15 a3 1d a9 79 e7 eb 45 50 16 4f 0b 25
       -3 -13 84 21 -93 29 -87 121 -25 -21 69 80 22 79 11 37
0000a0 cb 31 89 40 21 84 63 58 94 1e 77 c7 72 dc b6 e4
       -53 49 -119 64 33 -124 99 88 -108 30 119 -57 114 -36 -74 -28
0000b0 f3 09 8d 81 c2 8c 63 2f a7 1e ad 01 d9 b0 14 39
       -13 9 -115 -127 -62 -116 99 47 -89 30 -83 1 -39 -80 20 57
0000c0 c7 19 bf 52 31 90 51 b3 4e a1 a5 c6 9d 39 64 9c
       -57 25 -65 82 49 -112 81 -77 78 -95 -91 -58 -99 57 100 -100
0000d0 4a 9e 24 27 89 b3 4b f6 60 e7 99 ee 9f 01 33 da
       74 -98 36 39 -119 -77 75 -10 96 -25 -103 -18 -97 1 51 -38
0000e0 23 e5 d0 41 59 4d 7c ac 22 90 7b 20 d9 19 66 94
       35 -27 -48 65 89 77 124 -84 34 -112 123 32 -39 25 102 -108
0000f0 68 77 58 ba f2 4d 7e 05 77 5a 28 9e dd eb 7e 81
       104 119 88 -70 -14 77 126 5 119 90 40 -98 -35 -21 126 -127

Conv2D;StatefulPartitionedCall/StatefulPartitionedCall/PartitionedCall_10/PartitionedCall/Conv2D i1 [220, 1, 1, 164]
000000 84 d5 1f a7 c8 42 84 a7 ae 53 fd 6f ac fe 55 a9
       -124 -43 31 -89 -56 66 -124 -89 -82 83 -3 111 -84 -2 85 -87
000010 0f ee f7 9d 5c 17 03 9c 1d f6 0a 1b 94 c9 db 47
       15 -18 -9 -99 92 23 3 -100 29 -10 10 27 -108 -55 -37 71
000020 93 9c b6 d4 6a 59 75 ab a9 04 c8 62 03 64 fd d4
       -109 -100 -74 -44 106 89 117 -85 -87 4 -56 98 3 100 -3 -44
000030 f9 9d 3e 29 ae fc f2 e3 01 12 2f e7 d0 9f c7 a5
       -7 -99 62 41 -82 -4 -14 -29 1 18 47 -25 -48 -97 -57 -91
000040 a7 33 ce 5d 18 37 e4 90 92 11 4a d6 4c 81 eb 97
       -89 51 -50 93 24 55 -28 -112 -110 17 74 -42 76 -127 -21 -105
000050 2b fd 05 1e a5 46 36 ae 9f 84 62 50 51 94 6e 39
       43 -3 5 30 -91 70 54 -82 -97 -124 98 80 81 -108 110 57
000060 8e b8 a8 ec 4d 6c 28 b1 16 b0 43 16 b0 34 10 2f
       -114 -72 -88 -20 77 108 40 -79 22 -80 67 22 -80 52 16 47
000070 ad 6b d0 3e 3d b9 06 d3 b9 40 78 57 f5 65 61 97
       -83 107 -48 62 61 -71 6 -45 -71 64 120 87 -11 101 97 -105
000080 84 d7 6d ed 7d c9 bc 12 a5 f3 e6 1c 74 e1 bb 1b
       -124 -41 109 -19 125 -55 -68 18 -91 -13 -26 28 116 -31 -69 27
000090 37 e8 c2 7c 61 50 82 4d dc 4d 33 60 d1 ba 84 7e
       55 -24 -62 124 97 80 -126 77 -36 77 51 96 -47 -70 -124 126
0000a0 6c 19 bc db 99 65 ec f8 0f b0 44 2d df 09 73 0c
       108 25 -68 -37 -103 101 -20 -8 15 -80 68 45 -33 9 115 12
0000b0 35 dc 2e 78 83 1e 16 54 d8 86 ea ff 05 1b 5a 08
       53 -36 46 120 -125 30 22 84 -40 -122 -22 -1 5 27 90 8
0000c0 be d4 a4 06 73 62 6e 6c 63 32 0c f5 bb bb 1b 76
       -66 -44 -92 6 115 98 110 108 99 50 12 -11 -69 -69 27 118
0000d0 9d f9 40 36 00 0d ec 67 84 6e af f0 7a 64 5d 8e
       -99 -7 64 54 0 13 -20 103 -124 110 -81 -16 122 100 93 -114
0000e0 4b 0e c1 e7 f6 23 8a 8c 3f ca 42 f2 ac 81 fc a3
       75 14 -63 -25 -10 35 -118 -116 63 -54 66 -14 -84 -127 -4 -93
0000f0 5c 84 1c 7b 75 7a c9 48 53 33 14 4c 29 ff 4a ae
       92 -124 28 123 117 122 -55 72 83 51 20 76 41 -1 74 -82

Conv2D;StatefulPartitionedCall/StatefulPartitionedCall/PartitionedCall_14/PartitionedCall/Conv2D i1 [276, 1, 1, 220]
000000 8d 78 e1 36 fd 8c b7 7e 81 2e 15 a2 ae e1 50 92
       -115 120 -31 54 -3 -116 -73 126 -127 46 21 -94 -82 -31 80 -110
000010 c0 85 c0 d4 f1 03 0e c4 7a 6a 58 4c b4 68 f6 92
       -64 -123 -64 -44 -15 3 14 -60 122 106 88 76 -76 104 -10 -110
000020 62 b4 b2 29 9e b3 66 7e 92 71 23 8f 1c 76 07 26
       98 -76 -78 41 -98 -77 102 126 -110 113 35 -113 28 118 7 38
000030 5f d6 0b 17 77 b5 ed 4c fa 85 89 52 e8 41 99 c9
       95 -42 11 23 119 -75 -19 76 -6 -123 -119 82 -24 65 -103 -55
000040 31 e5 63 c3 7d 79 c2 22 90 43 9b e3 e3 89 89 17
       49 -27 99 -61 125 121 -62 34 -112 67 -101 -29 -29 -119 -119 23
000050 87 cb 8c ee 2d b7 e4 3e d7 63 0b 5e 47 a7 93 d1
       -121 -53 -116 -18 45 -73 -28 62 -41 99 11 94 71 -89 -109 -47
000060 a8 de a1 8c 30 cc be 76 0b da 98 e2 3b 63 6f 3d
       -88 -34 -95 -116 48 -52 -66 118 11 -38 -104 -30 59 99 111 61
000070 83 f6 ba 05 e2 eb 78 50 0a 8c ae 62 f4 75 85 87
       -125 -10 -70 5 -30 -21 120 80 10 -116 -82 98 -12 117 -123 -121
000080 ca ee 9b 9d 9a e7 1d 66 d0 54 9d 6c 79 7f 3f 5d
       -54 -18 -101 -99 -102 -25 29 102 -48 84 -99 108 121 127 63 93
000090 e3 26 23 99 59 24 de 0d d4 13 cd 31 78 43 22 14
       -29 38 35 -103 89 36 -34 13 -44 19 -51 49 120 67 34 20
0000a0 be 9b 32 30 5d 73 95 de 8d d2 1c a8 f6 10 2d e6
       -66 -101 50 48 93 115 -107 -34 -115 -46 28 -88 -10 16 45 -26
0000b0 0b 82 9a 22 43 36 5e 81 a4 5e 66 ef 68 3d c7 97
       11 -126 -102 34 67 54 94 -127 -92 94 102 -17 104 61 -57 -105
0000c0 3f c0 3a 39 74 cf ef 0f 72 3c 6f 48 5e d9 ed 94
       63 -64 58 57 116 -49 -17 15 114 60 111 72 94 -39 -19 -108
0000d0 15 74 86 eb db f3 5e ce 35 0b 20 41 b1 9c 49 e7
       21 116 -122 -21 -37 -13 94 -50 53 11 32 65 -79 -100 73 -25
0000e0 fc fa b8 24 e7 c8 29 5f 3c 25 a5 02 60 47 0f cf
       -4 -6 -72 36 -25 -56 41 95 60 37 -91 2 96 71 15 -49
0000f0 9b 88 f0 74 3c 5a f2 cd 6b 96 6a f6 17 e9 23 b7
       -101 -120 -16 116 60 90 -14 -51 107 -106 106 -10 23 -23 35 -73

Conv2D;StatefulPartitionedCall/StatefulPartitionedCall/PartitionedCall_18/PartitionedCall/Conv2D i1 [276, 1, 1, 276]
000000 07 d7 9f 02 70 5d 88 5f e4 8a 24 39 1b d3 b6 fe
       7 -41 -97 2 112 93 -120 95 -28 -118 36 57 27 -45 -74 -2
000010 5f 74 f1 a0 e5 24 af 44 9d 91 59 09 0c 16 07 04
       95 116 -15 -96 -27 36 -81 68 -99 -111 89 9 12 22 7 4
000020 45 95 72 ea 66 4b 2c 52 d2 ee 5d 73 d1 3e c0 69
       69 -107 114 -22 102 75 44 82 -46 -18 93 115 -47 62 -64 105
000030 13 ab 33 31 28 3b 88 0f 0b 8c e7 f6 78 4a cf 04
       19 -85 51 49 40 59 -120 15 11 -116 -25 -10 120 74 -49 4
000040 6e 3f 4b 01 d0 90 1d ba 17 78 65 43 0d c1 ce 15
       110 63 75 1 -48 -112 29 -70 23 120 101 67 13 -63 -50 21
000050 fb bd d3 25 c6 3c 08 a0 fb 86 ef b7 6d 94 87 2b
       -5 -67 -45 37 -58 60 8 -96 -5 -122 -17 -73 109 -108 -121 43
000060 23 8f 83 00 86 9d 5f 7d 0c 26 dd e6 6f 11 3f 2a
       35 -113 -125 0 -122 -99 95 125 12 38 -35 -26 111 17 63 42
000070 b7 01 6e c5 8c 26 a5 2a 0e 03 74 bc 1f c7 3e dd
       -73 1 110 -59 -116 38 -91 42 14 3 116 -68 31 -57 62 -35
000080 91 6f c2 4f 5f bb 34 a1 2b 4a a4 6f 07 83 b7 23
       -111 111 -62 79 95 -69 52 -95 43 74 -92 111 7 -125 -73 35
000090 14 3f cd ee bc 5e f4 b6 8e ec 7b ef 81 f0 10 a9
       20 63 -51 -18 -68 94 -12 -74 -114 -20 123 -17 -127 -16 16 -87
0000a0 47 15 30 a7 a2 8f 3b 42 7f 58 1b cc 83 8b fb 75
       71 21 48 -89 -94 -113 59 66 127 88 27 -52 -125 -117 -5 117
0000b0 4c c2 3e 36 df b7 03 e4 ac 7d b3 d7 a4 eb 83 fa
       76 -62 62 54 -33 -73 3 -28 -84 125 -77 -41 -92 -21 -125 -6
0000c0 94 01 46 b5 f2 b5 1b 4c d3 74 05 13 6f f6 96 79
       -108 1 70 -75 -14 -75 27 76 -45 116 5 19 111 -10 -106 121
0000d0 52 7e 87 06 0e f5 60 28 d9 1d 4f bd 20 28 ae 40
       82 126 -121 6 14 -11 96 40 -39 29 79 -67 32 40 -82 64
0000e0 9c b2 d3 c8 0e 28 35 5b ab c7 9d 4c 89 aa 27 2e
       -100 -78 -45 -56 14 40 53 91 -85 -57 -99 76 -119 -86 39 46
0000f0 7b e2 07 2e cc 94 5c d4 c9 88 a1 c1 97 61 8c 48
       123 -30 7 46 -52 -108 92 -44 -55 -120 -95 -63 -105 97 -116 72

Conv2D;StatefulPartitionedCall/StatefulPartitionedCall/PartitionedCall_21/PartitionedCall/Conv2D i1 [8, 1, 1, 276]
000000 dc 46 97 24 28 9f 94 30 11 e1 3d f8 03 34 ed a8
       -36 70 -105 36 40 -97 -108 48 17 -31 61 -8 3 52 -19 -88
000010 0f 53 bb 65 2c 3f 3c c7 e2 1e f9 ea 38 1a 8c ff
       15 83 -69 101 44 63 60 -57 -30 30 -7 -22 56 26 -116 -1
000020 3a 7a b0 ef 0e de 87 13 3e a7 de 55 77 35 78 50
       58 122 -80 -17 14 -34 -121 19 62 -89 -34 85 119 53 120 80
000030 d0 72 65 7a d5 9e b0 ed e7 da 55 62 39 0d 6b da
       -48 114 101 122 -43 -98 -80 -19 -25 -38 85 98 57 13 107 -38
000040 71 5b 76 03 c3 02 45 90 e0 81 32 fe 38 da 81 82
       113 91 118 3 -61 2 69 -112 -32 -127 50 -2 56 -38 -127 -126
000050 8e 1d 78 12 5d 99 82 83 7e 47 a9 65 02 89 83 ad
       -114 29 120 18 93 -103 -126 -125 126 71 -87 101 2 -119 -125 -83
000060 36 6d cc 16 50 5f 39 3d 41 04 5b 3e 1e 6e ea 6b
       54 109 -52 22 80 95 57 61 65 4 91 62 30 110 -22 107
000070 00 dd 4a 55 2b 40 07 5b cb be f8 a5 ae 73 22 38
       0 -35 74 85 43 64 7 91 -53 -66 -8 -91 -82 115 34 56
000080 15 e7 c5 8b 6f bd 99 2e d0 a1 43 23 a5 a7 2f 5e
       21 -25 -59 -117 111 -67 -103 46 -48 -95 67 35 -91 -89 47 94
000090 14 b9 dd 82 6b 8b a1 9c 4c 7f 25 4f a5 94 6f ac
       20 -71 -35 -126 107 -117 -95 -100 76 127 37 79 -91 -108 111 -84
0000a0 54 4b 7e a1 93 3a dd ac 7e e5 3c 5f a7 a3 f0 c7
       84 75 126 -95 -109 58 -35 -84 126 -27 60 95 -89 -93 -16 -57
0000b0 e1 be f1 56 a0 c8 39 41 27 97 1e b9 52 fc 62 4b
       -31 -66 -15 86 -96 -56 57 65 39 -105 30 -71 82 -4 98 75
0000c0 ec b1 91 d1 d2 e5 9e ec 42 78 54 11 dd bb 26 7b
       -20 -79 -111 -47 -46 -27 -98 -20 66 120 84 17 -35 -69 38 123
0000d0 36 2a 51 d6 67 3a 90 15 36 4c 53 1f f5 96 b9 c4
       54 42 81 -42 103 58 -112 21 54 76 83 31 -11 -106 -71 -60
0000e0 1c 93 68 37 ed 5e b2 9a 55 1a 5e cf 6b 64 9a 40
       28 -109 104 55 -19 94 -78 -102 85 26 94 -49 107 100 -102 64
0000f0 d9 cf 24 cd 40 ac 39 48 14 bd 97 d4 da df d5 ab
       -39 -49 36 -51 64 -84 57 72 20 -67 -105 -44 -38 -33 -43 -85

FusedBatchNormV3;StatefulPartitionedCall/StatefulPartitionedCall/StatefulPartitionedCall_3/StatefulPartitionedCall/FusedBatchNormV3;depthwise;StatefulPartitionedCall/StatefulPartitionedCall/PartitionedCall_4/PartitionedCall/depthwise i1 [1, 3, 3, 72]
000000 11 b0 69 66 3d 08 81 61 f7 df 69 24 81 5b 91 77
       17 -80 105 102 61 8 -127 97 -9 -33 105 36 -127 91 -111 119
000010 b4 36 9d 81 7f 5e 81 2e f6 7f 69 47 46 c3 f5 33
       -76 54 -99 -127 127 94 -127 46 -10 127 105 71 70 -61 -11 51
000020 b8 29 53 7f b6 82 00 96 7f 6c 74 f7 07 3e 1d 4a
       -72 41 83 127 -74 -126 0 -106 127 108 116 -9 7 62 29 74
000030 81 b3 7f a4 67 46 c1 81 69 fe 36 f8 3f ce ee b2
       -127 -77 127 -92 103 70 -63 -127 105 -2 54 -8 63 -50 -18 -78
000040 20 a3 d9 7f 76 81 9f c0 14 87 c9 65 1e 42 42 c6
       32 -93 -39 127 118 -127 -97 -64 20 -121 -55 101 30 66 66 -58
000050 81 90 9b 89 c1 a5 d1 32 08 4a 4d 9a a8 72 a3 40
       -127 -112 -101 -119 -63 -91 -47 50 8 74 77 -102 -88 114 -93 64
000060 cf 38 ae 83 2c 1f 4b 76 0c 70 90 65 22 35 81 ba
       -49 56 -82 -125 44 31 75 118 12 112 -112 101 34 53 -127 -70
000070 67 a0 81 27 7f 89 a4 7f d4 ab 9c 21 b1 49 97 11
       103 -96 -127 39 127 -119 -92 127 -44 -85 -100 33 -79 73 -105 17
000080 7f 81 b7 68 1f e1 3c 36 bc c2 9b 8d 6e c0 c1 7d
       127 -127 -73 104 31 -31 60 54 -68 -62 -101 -115 110 -64 -63 125
000090 2b e0 72 e5 c4 94 7e 81 6d 27 9f a1 7a 8f 7f d5
       43 -32 114 -27 -60 -108 126 -127 109 39 -97 -95 122 -113 127 -43
0000a0 e5 6a bd 55 07 c2 0f e5 7f ef 3a b9 ef 7f 04 7f
       -27 106 -67 85 7 -62 15 -27 127 -17 58 -71 -17 127 4 127
0000b0 3c 81 c1 0e d1 f0 d1 fb 17 2a f9 67 f0 2f 9f db
       60 -127 -63 14 -47 -16 -47 -5 23 42 -7 103 -16 47 -97 -37
0000c0 de 22 fb 81 81 72 7e 59 75 1a 6d c8 98 c6 84 11
       -34 34 -5 -127 -127 114 126 89 117 26 109 -56 -104 -58 -124 17
0000d0 71 43 72 99 d3 4b 9c 0a fd 46 b4 2c 79 79 a3 cf
       113 67 114 -103 -45 75 -100 10 -3 70 -76 44 121 121 -93 -49
0000e0 84 7f 81 81 e7 e3 a6 89 90 7f 81 14 88 5e d7 40
       -124 127 -127 -127 -25 -29 -90 -119 -112 127 -127 20 -120 94 -41 64
0000f0 a3 db 7f 49 e9 62 31 ff 7f 4c 97 6f 50 12 75 09
       -93 -37 127 73 -23 98 49 -1 127 76 -105 111 80 18 117 9

FusedBatchNormV3;StatefulPartitionedCall/StatefulPartitionedCall/StatefulPartitionedCall_7/StatefulPartitionedCall/FusedBatchNormV3;depthwise;StatefulPartitionedCall/StatefulPartitionedCall/PartitionedCall_8/PartitionedCall/depthwise i1 [1, 3, 3, 164]
000000 ab c9 7f e9 b1 aa 1a 57 24 fd 81 e8 9e 7f ba 51
       -85 -55 127 -23 -79 -86 26 87 36 -3 -127 -24 -98 127 -70 81
000010 96 8b 8f ad 27 41 33 2a 50 3a 31 51 7f 1d b9 d4
       -106 -117 -113 -83 39 65 51 42 80 58 49 81 127 29 -71 -44
000020 81 4b af 7f af a7 8a 54 44 66 0d fa 51 4f 9a 7d
       -127 75 -81 127 -81 -89 -118 84 68 102 13 -6 81 79 -102 125
000030 d0 75 7f e2 85 4b 19 7e df 96 da 05 9f 81 ab 92
       -48 117 127 -30 -123 75 25 126 -33 -106 -38 5 -97 -127 -85 -110
000040 d5 62 81 cb e0 02 59 09 81 7c 5e 73 ae ae 64 ff
       -43 98 -127 -53 -32 2 89 9 -127 124 94 115 -82 -82 100 -1
000050 18 f8 f5 d0 d6 df d6 7c 1e d2 dd 6f 4b c6 0c 81
       24 -8 -11 -48 -42 -33 -42 124 30 -46 -35 111 75 -58 12 -127
000060 61 cd af c6 5d 81 b2 9c 73 09 d4 05 7f ea d1 d3
       97 -51 -81 -58 93 -127 -78 -100 115 9 -44 5 127 -22 -47 -45
000070 35 09 81 3d 13 a7 71 81 69 41 7a 7f 68 e7 01 81
       53 9 -127 61 19 -89 113 -127 105 65 122 127 104 -25 1 -127
000080 4e 17 03 c8 81 48 56 9f 87 cd cb bc fe 8e f2 83
       78 23 3 -56 -127 72 86 -97 -121 -51 -53 -68 -2 -114 -14 -125
000090 fe a7 ad 58 5d 7f 28 aa e2 d0 32 ba 8c 72 bb 7f
       -2 -89 -83 88 93 127 40 -86 -30 -48 50 -70 -116 114 -69 127
0000a0 7f 6e 1f 93 7f cc b5 90 3d d4 ce 7f 0b 7f d3 f3
       127 110 31 -109 127 -52 -75 -112 61 -44 -50 127 11 127 -45 -13
0000b0 29 f6 e3 23 78 15 1f 7f 75 f3 0d 6c 8f 50 f5 81
       41 -10 -29 35 120 21 31 127 117 -13 13 108 -113 80 -11 -127
0000c0 d2 0e 77 d0 e8 2a 5c 83 5c 8f 7b 72 eb 81 f2 5f
       -46 14 119 -48 -24 42 92 -125 92 -113 123 114 -21 -127 -14 95
0000d0 8a bb 7f 0a 6d 7f 43 50 7f ba 35 4c 73 93 30 db
       -118 -69 127 10 109 127 67 80 127 -70 53 76 115 -109 48 -37
0000e0 fa 37 ae b5 7f 5f 7b 13 c5 72 bc 6f 22 7f e0 b5
       -6 55 -82 -75 127 95 123 19 -59 114 -68 111 34 127 -32 -75
0000f0 eb 23 d6 a2 83 25 6b 07 c2 92 62 62 3b 2d 26 31
       -21 35 -42 -94 -125 37 107 7 -62 -110 98 98 59 45 38 49

FusedBatchNormV3;StatefulPartitionedCall/StatefulPartitionedCall/StatefulPartitionedCall_11/StatefulPartitionedCall/FusedBatchNormV3;depthwise;StatefulPartitionedCall/StatefulPartitionedCall/PartitionedCall_12/PartitionedCall/depthwise i1 [1, 3, 3, 220]
000000 e5 2c 91 7b 57 20 41 5d b7 91 05 4c 9e cb 82 d8
       -27 44 -111 123 87 32 65 93 -73 -111 5 76 -98 -53 -126 -40
000010 fa 0d 75 ab 5e d7 72 57 2a 4c 74 59 f3 7f 67 86
       -6 13 117 -85 94 -41 114 87 42 76 116 89 -13 127 103 -122
000020 3f 10 09 13 3a 7f da 27 20 c3 59 81 6c 0b ba 4b
       63 16 9 19 58 127 -38 39 32 -61 89 -127 108 11 -70 75
000030 6c e4 21 29 82 32 d4 2c 57 70 38 ad 81 d9 fa 3c
       108 -28 33 41 -126 50 -44 44 87 112 56 -83 -127 -39 -6 60
000040 81 de 85 7f 8b b9 ac f1 d0 47 58 d0 fb ee b0 81
       -127 -34 -123 127 -117 -71 -84 -15 -48 71 88 -48 -5 -18 -80 -127
000050 81 75 c8 83 cd b7 a3 6f 7f 88 39 3a e3 81 7f 02
       -127 117 -56 -125 -51 -73 -93 111 127 -120 57 58 -29 -127 127 2
000060 f5 a3 81 b4 5f 05 9b ce 07 14 0b b7 37 47 6a 81
       -11 -93 -127 -76 95 5 -101 -50 7 20 11 -73 55 71 106 -127
000070 50 43 9d b2 03 02 8e 42 06 81 eb 0c a0 19 b5 bb
       80 67 -99 -78 3 2 -114 66 6 -127 -21 12 -96 25 -75 -69
000080 ba cf 46 bd 6f 02 f5 0e ad 81 98 c3 ce 86 c6 c5
       -70 -49 70 -67 111 2 -11 14 -83 -127 -104 -61 -50 -122 -58 -59
000090 ef b8 a7 bf 15 60 04 57 4f 2f 88 7c 81 2d 81 7c
       -17 -72 -89 -65 21 96 4 87 79 47 -120 124 -127 45 -127 124
0000a0 f1 07 7f b3 47 61 81 91 0b 7f c4 7f e6 14 85 8c
       -15 7 127 -77 71 97 -127 -111 11 127 -60 127 -26 20 -123 -116
0000b0 cc a2 4b d2 ad 79 53 82 f6 4d 81 f7 3c 81 02 81
       -52 -94 75 -46 -83 121 83 -126 -10 77 -127 -9 60 -127 2 -127
0000c0 df 7f 55 34 06 7f 81 1e d7 94 22 bd 08 62 2f 2d
       -33 127 85 52 6 127 -127 30 -41 -108 34 -67 8 98 47 45
0000d0 56 c2 0e fb b1 9a 98 0b 4b a5 27 23 33 26 5b fa
       86 -62 14 -5 -79 -102 -104 11 75 -91 39 35 51 38 91 -6
0000e0 81 b4 27 9b 51 25 7f 1d 50 9f 81 04 7f e6 33 d2
       -127 -76 39 -101 81 37 127 29 80 -97 -127 4 127 -26 51 -46
0000f0 e9 18 fc 08 ac 02 21 98 42 8e 13 7a 73 90 cf 29
       -23 24 -4 8 -84 2 33 -104 66 -114 19 122 115 -112 -49 41

FusedBatchNormV3;StatefulPartitionedCall/StatefulPartitionedCall/StatefulPartitionedCall_15/StatefulPartitionedCall/FusedBatchNormV3;depthwise;StatefulPartitionedCall/StatefulPartitionedCall/PartitionedCall_16/PartitionedCall/depthwise;Conv2D;StatefulPartitionedCall/StatefulPartitionedCall/PartitionedCall_18/PartitionedCall/Conv2D;FusedBatchNormV3;StatefulPartitionedCall/StatefulPartitionedCall/StatefulPartitionedCall_17/StatefulPartitionedCall/FusedBatchNormV3 i1 [1, 3, 3, 276]
000000 4a 69 66 fe b3 15 4d 8a f5 35 69 4a 90 8b f3 f7
       74 105 102 -2 -77 21 77 -118 -11 53 105 74 -112 -117 -13 -9
000010 7f 42 5d af f3 a9 d1 8b 3e 66 e7 53 c5 dc 12 70
       127 66 93 -81 -13 -87 -47 -117 62 102 -25 83 -59 -36 18 112
000020 f7 54 8e 63 46 86 73 fb 53 33 d6 5a 46 48 62 a7
       -9 84 -114 99 70 -122 115 -5 83 51 -42 90 70 72 98 -89
000030 e6 af 26 7f 81 b5 9f 3e 67 c1 88 ff 2e 36 4b 39
       -26 -81 38 127 -127 -75 -97 62 103 -63 -120 -1 46 54 75 57
000040 f9 f0 ea ef ac 4f 42 4b d7 4d 94 7b 81 5b 29 7f
       -7 -16 -22 -17 -84 79 66 75 -41 77 -108 123 -127 91 41 127
000050 30 76 7f fa 72 2d 8e 36 e0 7f a9 5d 69 d2 dd 91
       48 118 127 -6 114 45 -114 54 -32 127 -87 93 105 -46 -35 -111
000060 95 09 81 a3 fe d7 ce 9a b8 a4 9f 3f 04 7c bb 2c
       -107 9 -127 -93 -2 -41 -50 -102 -72 -92 -97 63 4 124 -69 44
000070 7f 58 26 a1 e5 0b 17 fa 63 50 24 2a 1d 0d 0f 81
       127 88 38 -95 -27 11 23 -6 99 80 36 42 29 13 15 -127
000080 84 87 b0 0d 82 a6 1b 81 65 cc 81 23 ad e9 ff 25
       -124 -121 -80 13 -126 -90 27 -127 101 -52 -127 35 -83 -23 -1 37
000090 54 e1 a0 b8 36 58 f0 2c 5e 7f b4 ad 9a b0 60 c0
       84 -31 -96 -72 54 88 -16 44 94 127 -76 -83 -102 -80 96 -64
0000a0 c2 b5 dd 39 0a 5e b7 39 f6 d6 25 7f f1 79 8b b1
       -62 -75 -35 57 10 94 -73 57 -10 -42 37 127 -15 121 -117 -79
0000b0 f2 81 f5 d5 d9 f4 b2 a4 9f a3 c8 5e a8 7f 7f 76
       -14 -127 -11 -43 -39 -12 -78 -92 -97 -93 -56 94 -88 127 127 118
0000c0 91 c0 01 8d 52 39 6d 68 4d d6 f0 8d 62 ae 69 6f
       -111 -64 1 -115 82 57 109 104 77 -42 -16 -115 98 -82 105 111
0000d0 40 81 df dd b5 81 7e 7f b3 e3 28 c4 e3 e3 7b 8f
       64 -127 -33 -35 -75 -127 126 127 -77 -29 40 -60 -29 -29 123 -113
0000e0 53 22 c7 cd 62 cc fe b6 a1 0c cd 81 44 bf bf 65
       83 34 -57 -51 98 -52 -2 -74 -95 12 -51 -127 68 -65 -65 101
0000f0 75 8d dc 7a e5 4d 37 a0 28 e3 17 b9 72 b4 b8 b6
       117 -115 -36 122 -27 77 55 -96 40 -29 23 -71 114 -76 -72 -74
