collected_models/ARM_MicroNet_VWW_3.tflite (tflite, 542400 bytes, 54 tensors)

Conv2D;StatefulPartitionedCall/StatefulPartitionedCall/PartitionedCall_3/PartitionedCall/Conv2D i1 [9, 3, 3, 1]
00000000: 1015 bc7e 0d81 38f4 e3c4 0829 810a 7ece
00000010: fe31 0f7f 15ed fa1e f081 e5b7 81c3 fd08
00000020: 1137 7e38 3389 4442 56b4 8164 c256 7741
00000030: 4ef6 81df 96a4 9c96 929a 7f7e 7e7d 7cfb
00000040: 81d2 13ed ec1a 7f26 7b7f 3581 0a65 0ea2
00000050: c2
16 21 -68 126 13 -127 56 -12
-29 -60 8 41 -127 10 126 -50
-2 49 15 127 21 -19 -6 30
-16 -127 -27 -73 -127 -61 -3 8
17 55 126 56 51 -119 68 66
86 -76 -127 100 -62 86 119 65
78 -10 -127 -33 -106 -92 -100 -106
-110 -102 127 126 126 125 124 -5
-127 -46 19 -19 -20 26 127 38
123 127 53 -127 10 101 14 -94
-62

Conv2D;StatefulPartitionedCall/StatefulPartitionedCall/PartitionedCall_6/PartitionedCall/Conv2D i1 [3, 1, 1, 9]
00000000: 9e7f 1d02 f3b9 1fdf 1a09 f97d d1e9 24d5
00000010: 8136 3115 ae23 e581 365e d6
-98 127 29 2 -13 -71 31 -33
26 9 -7 125 -47 -23 36 -43
-127 54 49 21 -82 35 -27 -127
54 94 -42

Conv2D;StatefulPartitionedCall/StatefulPartitionedCall/PartitionedCall_12/PartitionedCall/Conv2D i1 [6, 1, 1, 3]
00000000: 6d86 8110 7f10 81ee 00d9 cc7f 787f 757f
00000010: be60
109 -122 -127 16 127 16 -127 -18
0 -39 -52 127 120 127 117 127
-66 96

Conv2D;StatefulPartitionedCall/StatefulPartitionedCall/PartitionedCall_14/PartitionedCall/Conv2D i1 [9, 1, 1, 6]
00000000: 7f82 aff6 b947 7f12 9ae1 7c63 5f13 fd81
00000010: c1ba dd81 3d28 82c4 8160 391e 0386 ce7f
00000020: a2e1 231e 65f0 81ee 7b2d 8229 f37f 454c
00000030: 7f83 c917 1c61
127 -126 -81 -10 -71 71 127 18
-102 -31 124 99 95 19 -3 -127
-63 -70 -35 -127 61 40 -126 -60
-127 96 57 30 3 -122 -50 127
-94 -31 35 30 101 -16 -127 -18
123 45 -126 41 -13 127 69 76
127 -125 -55 23 28 97

Conv2D;StatefulPartitionedCall/StatefulPartitionedCall/PartitionedCall_20/PartitionedCall/Conv2D i1 [14, 1, 1, 9]
00000000: 49e7 f3f0 1481 1815 d031 f9e4 107f dbd3
00000010: 8c1a 5472 9067 816a 6068 9e01 61a4 a3d8
00000020: a3f0 7f7e e0ee 387f bf9c c4ff 127f 4b63
00000030: 85f1 c9f6 c46b 16ef 3505 9c31 7fd9 7ebb
00000040: b078 d64a e5a1 7f47 067f d47f 7e36 2e7e
00000050: 7e7b 87af 8187 4986 7af0 dc37 e7e6 81d8
00000060: 0fe9 c9b8 e78d 0c58 dd21 7fee 2861 7fda
00000070: 3e86 6dd3 2046 8184 60d1 b9a6 ca71
73 -25 -13 -16 20 -127 24 21
-48 49 -7 -28 16 127 -37 -45
-116 26 84 114 -112 103 -127 106
96 104 -98 1 97 -92 -93 -40
-93 -16 127 126 -32 -18 56 127
-65 -100 -60 -1 18 127 75 99
-123 -15 -55 -10 -60 107 22 -17
53 5 -100 49 127 -39 126 -69
-80 120 -42 74 -27 -95 127 71
6 127 -44 127 126 54 46 126
126 123 -121 -81 -127 -121 73 -122
122 -16 -36 55 -25 -26 -127 -40
15 -23 -55 -72 -25 -115 12 88
-35 33 127 -18 40 97 127 -38
62 -122 109 -45 32 70 -127 -124
96 -47 -71 -90 -54 113

Conv2D;StatefulPartitionedCall/StatefulPartitionedCall/PartitionedCall_22/PartitionedCall/Conv2D i1 [28, 1, 1, 14]
00000000: ac70 a29c 556c 59ab 81a8 5e90 5085 3a67
00000010: 2d21 2178 4807 5478 9e81 fa5a 4d1a 0fed
00000020: 7fe2 06d2 25a4 040e 554e 898b 8a16 f4a0
00000030: 3b7f ecc1 3328 f0aa 2ae3 6f2c 2965 7fc2
00000040: e165 358d f46d 7de3 d42d e263 da7f de73
00000050: e01d 3c9a b345 3c50 793e 8122 2339 f488
00000060: a109 995a 8d9f a377 136e 8b21 818b 6b9e
00000070: 8d34 716e 8908 92ed 7f71 8e8e 8b6e 6fb6
00000080: 9b9b 9195 a967 816a 9d6b 644b 5ce2 2be8
00000090: 7fab cce0 efcb 7135 d845 8500 8176 fb3c
000000a0: 561e 0adc dbe4 2055 73fa 14fd 7ff3 f433
000000b0: 6992 1a49 6c7a 8f78 746b 386c 91e7 7ff6
000000c0: 7695 fb8a 0dcc fba6 35b3 7d08 da24 b2fb
000000d0: c87f 9640 6a97 8359 85ac 7f97 76b0 9481
000000e0: 5c34 05fe d10a 840b d4ea 272e 3581 a34f
000000f0: 5e9f 5e82 45b9 48c1 9736 8171 78ef bd7e
-84 112 -94 -100 85 108 89 -85
-127 -88 94 -112 80 -123 58 103
45 33 33 120 72 7 84 120
-98 -127 -6 90 77 26 15 -19
127 -30 6 -46 37 -92 4 14
85 78 -119 -117 -118 22 -12 -96
59 127 -20 -63 51 40 -16 -86
42 -29 111 44 41 101 127 -62
-31 101 53 -115 -12 109 125 -29
-44 45 -30 99 -38 127 -34 115
-32 29 60 -102 -77 69 60 80
121 62 -127 34 35 57 -12 -120
-95 9 -103 90 -115 -97 -93 119
19 110 -117 33 -127 -117 107 -98
-115 52 113 110 -119 8 -110 -19
127 113 -114 -114 -117 110 111 -74
-101 -101 -111 -107 -87 103 -127 106
-99 107 100 75 92 -30 43 -24
127 -85 -52 -32 -17 -53 113 53
-40 69 -123 0 -127 118 -5 60
86 30 10 -36 -37 -28 32 85
115 -6 20 -3 127 -13 -12 51
105 -110 26 73 108 122 -113 120
116 107 56 108 -111 -25 127 -10
118 -107 -5 -118 13 -52 -5 -90
53 -77 125 8 -38 36 -78 -5
-56 127 -106 64 106 -105 -125 89
-123 -84 127 -105 118 -80 -108 -127
92 52 5 -2 -47 10 -124 11
-44 -22 39 46 53 -127 -93 79
94 -97 94 -126 69 -71 72 -63
-105 54 -127 113 120 -17 -67 126

Conv2D;StatefulPartitionedCall/StatefulPartitionedCall/PartitionedCall_28/PartitionedCall/Conv2D i1 [16, 1, 1, 28]
00000000: 29ea 8f31 4acb 62ed 2e21 6926 ef5d 71fd
00000010: 4e02 3825 2a17 3ef5 f27f f3ea a645 cf27
00000020: d288 c11c 380c 8615 61ff 70ef 2c05 5b51
00000030: e97f 11ff 01d5 54c1 33d6 dfd3 fe94 c434
00000040: 477d 7fd7 d7d8 7edf f2e1 5e20 bae1 8f7f
00000050: df1e 56f9 407f 1bf0 b8a7 9781 d5ee 4ad8
00000060: 04a0 b6c6 eca6 7300 cc18 6405 e08f f2c2
00000070: 0ae0 81c0 d1d8 e4d4 c214 7a03 12ee 99f1
00000080: fbe8 3be3 da19 f5fe f293 e4d7 c708 0535
00000090: 7981 f079 d1b4 ab02 ba0e 3af1 da35 6232
000000a0: 4336 d3db ef81 1a18 f61e 0fff f7fc 093b
000000b0: fb56 de05 d10d 55fc ccf6 0fe7 171b e90a
000000c0: e67f 2bc4 05f5 1550 e3ce dc57 fbd5 c5ea
000000d0: 3b3e 8123 2922 348d 0f42 6233 ea8f 4cb4
000000e0: fe35 e23a e631 267f 21db 1bfe 6518 124d
000000f0: 8460 feec db71 aadf fdeb e0f1 3bf4 5f03
41 -22 -113 49 74 -53 98 -19
46 33 105 38 -17 93 113 -3
78 2 56 37 42 23 62 -11
-14 127 -13 -22 -90 69 -49 39
-46 -120 -63 28 56 12 -122 21
97 -1 112 -17 44 5 91 81
-23 127 17 -1 1 -43 84 -63
51 -42 -33 -45 -2 -108 -60 52
71 125 127 -41 -41 -40 126 -33
-14 -31 94 32 -70 -31 -113 127
-33 30 86 -7 64 127 27 -16
-72 -89 -105 -127 -43 -18 74 -40
4 -96 -74 -58 -20 -90 115 0
-52 24 100 5 -32 -113 -14 -62
10 -32 -127 -64 -47 -40 -28 -44
-62 20 122 3 18 -18 -103 -15
-5 -24 59 -29 -38 25 -11 -2
-14 -109 -28 -41 -57 8 5 53
121 -127 -16 121 -47 -76 -85 2
-70 14 58 -15 -38 53 98 50
67 54 -45 -37 -17 -127 26 24
-10 30 15 -1 -9 -4 9 59
-5 86 -34 5 -47 13 85 -4
-52 -10 15 -25 23 27 -23 10
-26 127 43 -60 5 -11 21 80
-29 -50 -36 87 -5 -43 -59 -22
59 62 -127 35 41 34 52 -115
15 66 98 51 -22 -113 76 -76
-2 53 -30 58 -26 49 38 127
33 -37 27 -2 101 24 18 77
-124 96 -2 -20 -37 113 -86 -33
-3 -21 -32 -15 59 -12 95 3

Conv2D;StatefulPartitionedCall/StatefulPartitionedCall/PartitionedCall_33/PartitionedCall/Conv2D i1 [28, 1, 1, 16]
00000000: 7fd5 3f29 54d6 3ad5 c1d6 5920 f8c8 7a3c
00000010: 0fdb 1f71 680c ad0e 9401 7d4c c75e 4981
00000020: 3f49 41bf e7cc 10d0 e8c0 17dd 71a6 7fb8
00000030: e0c9 8189 bc08 fb7a 05f6 9df5 67a6 e671
00000040: ef7f d617 d746 431e 2115 ef8e c3fb a57d
00000050: a58e 8c57 7aa7 7171 927f 7153 7082 6b8b
00000060: 5521 520d 3e85 b10c 2f69 3c4a a13f 817e
00000070: 7f05 b513 25f4 ec11 32f7 b60f 7e31 4cd2
00000080: d2c7 ea93 fb81 bfdc 30df ee5a fcc1 4fe7
00000090: 5aa0 ea71 247f 4ce1 ce7c 22dc 7a07 f80a
000000a0: 7679 c517 8b2c 8222 8cd0 fb79 f981 6b23
000000b0: 1844 1603 b50d e081 bef7 19e6 ed7a d6db
000000c0: f7b7 1dfd ccfd 0fd7 8131 56ce c0b6 2819
000000d0: 91eb 7f26 2131 0f51 2813 e1a3 c359 7fe5
000000e0: 811b ff85 e1f2 f086 04bc 84d1 e2f5 0746
000000f0: 4721 48b0 36e9 42cc dd81 e394 4fb4 16e9
127 -43 63 41 84 -42 58 -43
-63 -42 89 32 -8 -56 122 60
15 -37 31 113 104 12 -83 14
-108 1 125 76 -57 94 73 -127
63 73 65 -65 -25 -52 16 -48
-24 -64 23 -35 113 -90 127 -72
-32 -55 -127 -119 -68 8 -5 122
5 -10 -99 -11 103 -90 -26 113
-17 127 -42 23 -41 70 67 30
33 21 -17 -114 -61 -5 -91 125
-91 -114 -116 87 122 -89 113 113
-110 127 113 83 112 -126 107 -117
85 33 82 13 62 -123 -79 12
47 105 60 74 -95 63 -127 126
127 5 -75 19 37 -12 -20 17
50 -9 -74 15 126 49 76 -46
-46 -57 -22 -109 -5 -127 -65 -36
48 -33 -18 90 -4 -63 79 -25
90 -96 -22 113 36 127 76 -31
-50 124 34 -36 122 7 -8 10
118 121 -59 23 -117 44 -126 34
-116 -48 -5 121 -7 -127 107 35
24 68 22 3 -75 13 -32 -127
-66 -9 25 -26 -19 122 -42 -37
-9 -73 29 -3 -52 -3 15 -41
-127 49 86 -50 -64 -74 40 25
-111 -21 127 38 33 49 15 81
40 19 -31 -93 -61 89 127 -27
-127 27 -1 -123 -31 -14 -16 -122
4 -68 -124 -47 -30 -11 7 70
71 33 72 -80 54 -23 66 -52
-35 -127 -29 -108 79 -76 22 -23

Conv2D;StatefulPartitionedCall/StatefulPartitionedCall/PartitionedCall_39/PartitionedCall/Conv2D i1 [32, 1, 1, 28]
00000000: 0986 6234 d304 7f1b 5834 01a6 f7d2 d716
00000010: dddd 2f12 7b84 c72f 7a2d 7d18 ec2c fed7
00000020: 16bd 4eaf 335a 673c 3a15 f7a6 65be 42ec
00000030: 4f23 7f05 e5d0 4222 2ece 1a3b e2c2 45f4
00000040: 5d2f 083c 3c03 05f0 d781 130d baa2 1e17
00000050: 18ff bfea 072e 9e03 0505 4334 7240 7f0b
00000060: e705 50f9 1416 0bcd ef37 f2e6 c708 b9b5
00000070: b3fb d1e9 4cf6 0545 488c 8186 5a43 1aa2
00000080: 0dfd f615 b7d9 efe7 1b3f 320f d0d0 e248
00000090: 2202 bea0 2f7f 1967 12a8 b337 b4d5 c7f1
000000a0: 2756 72e9 8ec2 f90e d910 f1cc 1de4 e0e5
000000b0: 0c1b 0072 f024 33ef 3228 bdf7 ccb9 8734
000000c0: 53fd 7f24 4728 d9c0 5547 e7af b1af 026e
000000d0: b4e0 33e5 b3fd ed58 cf0d 0f0d fbf7 0481
000000e0: 3b40 03df 0123 74a8 9443 f247 35e2 e5fc
000000f0: 9727 37c3 f50b 8115 cc5f f724 c135 670a
9 -122 98 52 -45 4 127 27
88 52 1 -90 -9 -46 -41 22
-35 -35 47 18 123 -124 -57 47
122 45 125 24 -20 44 -2 -41
22 -67 78 -81 51 90 103 60
58 21 -9 -90 101 -66 66 -20
79 35 127 5 -27 -48 66 34
46 -50 26 59 -30 -62 69 -12
93 47 8 60 60 3 5 -16
-41 -127 19 13 -70 -94 30 23
24 -1 -65 -22 7 46 -98 3
5 5 67 52 114 64 127 11
-25 5 80 -7 20 22 11 -51
-17 55 -14 -26 -57 8 -71 -75
-77 -5 -47 -23 76 -10 5 69
72 -116 -127 -122 90 67 26 -94
13 -3 -10 21 -73 -39 -17 -25
27 63 50 15 -48 -48 -30 72
34 2 -66 -96 47 127 25 103
18 -88 -77 55 -76 -43 -57 -15
39 86 114 -23 -114 -62 -7 14
-39 16 -15 -52 29 -28 -32 -27
12 27 0 114 -16 36 51 -17
50 40 -67 -9 -52 -71 -121 52
83 -3 127 36 71 40 -39 -64
85 71 -25 -81 -79 -81 2 110
-76 -32 51 -27 -77 -3 -19 88
-49 13 15 13 -5 -9 4 -127
59 64 3 -33 1 35 116 -88
-108 67 -14 71 53 -30 -27 -4
-105 39 55 -61 -11 11 -127 21
-52 95 -9 36 -63 53 103 10

Conv2D;StatefulPartitionedCall/StatefulPartitionedCall/PartitionedCall_41/PartitionedCall/Conv2D i1 [115, 1, 1, 32]
00000000: 9879 1c3b dd25 5b64 beae dbc0 925b 94db
00000010: d9dc dcc6 a623 d8c2 3fcd 7f8e dd56 db39
00000020: 4190 a0b0 5aab 2634 d525 44af 3263 7186
00000030: aec1 2da8 2a56 3a3f c6a7 2cdc 7fc4 c0db
00000040: 474d 5d21 e94e 0b89 09a4 54fc 5d82 301b
00000050: 4c22 8603 30b7 e8c4 e31a 64c2 8112 adec
00000060: 3881 33be 7e2c b339 3d49 343d 883a 37d5
00000070: 34a8 c035 7739 3094 a6d0 31c2 c445 60c5
00000080: f5af d89c 6112 5e58 d9f1 a5e0 d908 f8de
00000090: b7f2 9dac 27d6 c581 e8a1 4ae9 bde4 da19
000000a0: 9bf9 011c 6ff5 007f ef6f c802 8d70 de1b
000000b0: c621 f8ef 965e 4605 1e03 864f 66df 76d8
000000c0: dd38 ed03 382b 6fbd 1700 c519 1388 0fa0
000000d0: 510a c889 f938 9d93 2e2d 7fc8 ef18 e977
000000e0: 1744 12be a06c b50b 7073 7328 867a 05ce
000000f0: 153b dd3d 7f5b 15de 21f3 bd17 312d 7405
-104 121 28 59 -35 37 91 100
-66 -82 -37 -64 -110 91 -108 -37
-39 -36 -36 -58 -90 35 -40 -62
63 -51 127 -114 -35 86 -37 57
65 -112 -96 -80 90 -85 38 52
-43 37 68 -81 50 99 113 -122
-82 -63 45 -88 42 86 58 63
-58 -89 44 -36 127 -60 -64 -37
71 77 93 33 -23 78 11 -119
9 -92 84 -4 93 -126 48 27
76 34 -122 3 48 -73 -24 -60
-29 26 100 -62 -127 18 -83 -20
56 -127 51 -66 126 44 -77 57
61 73 52 61 -120 58 55 -43
52 -88 -64 53 119 57 48 -108
-90 -48 49 -62 -60 69 96 -59
-11 -81 -40 -100 97 18 94 88
-39 -15 -91 -32 -39 8 -8 -34
-73 -14 -99 -84 39 -42 -59 -127
-24 -95 74 -23 -67 -28 -38 25
-101 -7 1 28 111 -11 0 127
-17 111 -56 2 -115 112 -34 27
-58 33 -8 -17 -106 94 70 5
30 3 -122 79 102 -33 118 -40
-35 56 -19 3 56 43 111 -67
23 0 -59 25 19 -120 15 -96
81 10 -56 -119 -7 56 -99 -109
46 45 127 -56 -17 24 -23 119
23 68 18 -66 -96 108 -75 11
112 115 115 40 -122 122 5 -50
21 59 -35 61 127 91 21 -34
33 -13 -67 23 49 45 116 5

Conv2D;StatefulPartitionedCall/StatefulPartitionedCall/PartitionedCall_47/PartitionedCall/Conv2D i1 [25, 1, 1, 115]
00000000: 274c 0504 40f0 d800 95f1 ea16 b2c5 e7ef
00000010: ddfe e1f8 1be0 7ff5 16e8 f1f5 12f4 9db4
00000020: a025 bb43 16fa f1c2 05fb cef0 efeb a6fc
00000030: 39e9 f931 ace9 2a72 eee3 0500 2b8d 0c0b
00000040: 0bd5 0061 4639 23f2 07ca eb77 f21e 1c00
00000050: 5f0c 2000 6a35 eb19 0e08 e0b7 d949 d508
00000060: 0c1c c291 2618 0ff6 92f9 2d9f c643 02bd
00000070: 0039 dfb5 fe3d 0d9f 96b9 314c c9e6 efed
00000080: ea09 5f30 3523 d504 012e 667f 8294 dc2c
00000090: e57b 91ab 14d8 25f2 2ff7 33de 47ac 4c12
000000a0: 1b00 2b11 d547 482d 4410 2d0d d34b 1b9d
000000b0: 1046 e81d 01f3 611f 9805 f834 06e5 2218
000000c0: feef fd03 3147 d944 1ef9 07fe 0308 43d4
000000d0: 3e11 1ff2 f54a 5b0e 0e0d 3f37 0125 56ea
000000e0: 39ef 18d0 0d15 c2fa 9272 dacf eff6 b11a
000000f0: f431 c42c bf12 11e3 ef50 3226 41b5 a713
39 76 5 4 64 -16 -40 0
-107 -15 -22 22 -78 -59 -25 -17
-35 -2 -31 -8 27 -32 127 -11
22 -24 -15 -11 18 -12 -99 -76
-96 37 -69 67 22 -6 -15 -62
5 -5 -50 -16 -17 -21 -90 -4
57 -23 -7 49 -84 -23 42 114
-18 -29 5 0 43 -115 12 11
11 -43 0 97 70 57 35 -14
7 -54 -21 119 -14 30 28 0
95 12 32 0 106 53 -21 25
14 8 -32 -73 -39 73 -43 8
12 28 -62 -111 38 24 15 -10
-110 -7 45 -97 -58 67 2 -67
0 57 -33 -75 -2 61 13 -97
-106 -71 49 76 -55 -26 -17 -19
-22 9 95 48 53 35 -43 4
1 46 102 127 -126 -108 -36 44
-27 123 -111 -85 20 -40 37 -14
47 -9 51 -34 71 -84 76 18
27 0 43 17 -43 71 72 45
68 16 45 13 -45 75 27 -99
16 70 -24 29 1 -13 97 31
-104 5 -8 52 6 -27 34 24
-2 -17 -3 3 49 71 -39 68
30 -7 7 -2 3 8 67 -44
62 17 31 -14 -11 74 91 14
14 13 63 55 1 37 86 -22
57 -17 24 -48 13 21 -62 -6
-110 114 -38 -49 -17 -10 -79 26
-12 49 -60 44 -65 18 17 -29
-17 80 50 38 65 -75 -89 19

Conv2D;StatefulPartitionedCall/StatefulPartitionedCall/PartitionedCall_52/PartitionedCall/Conv2D i1 [115, 1, 1, 32]
00000000: 8f89 20a9 db26 5657 dae6 05a6 c88e f6a5
00000010: 81a7 8dc2 ecbc b6d5 3222 25b6 4b4b ff2c
00000020: f7c1 6f8d f2cd 5126 284b 18f8 b39a a96a
00000030: 901c 4171 e9c4 1cf2 487f 1431 ebbf d7ee
00000040: 59d6 9795 cda6 0c55 eedd ade0 8649 f92a
00000050: fafb 573f 101c 2ce4 3f15 f4eb b209 0481
00000060: da13 8111 e3d9 edec ecb2 cdde f4d3 25db
00000070: 1123 3926 04f3 d1fe 33eb 1115 f8d9 ce06
00000080: 81ac 13f3 ac5c db1d 35f2 c016 5dd7 78f5
00000090: ceeb 3d1c 42b8 87f6 67f4 2a40 ff16 1049
000000a0: 55dd 45ca 601a 31aa 2de7 fe2c cebc 1b7f
000000b0: 14f2 8e9e 0904 c5d7 b0fe e0d1 ebf7 ccd3
000000c0: b464 ab76 abda ccdc 7fb6 9f69 c64f c9c2
000000d0: 6557 2b4e d150 78cb bc26 43bd d3bd 413d
000000e0: f7a7 0015 a6d7 16d7 fc05 e7a1 74ec 3d27
000000f0: 712d 1b12 508a 6178 d97f bfba 7155 b2d3
-113 -119 32 -87 -37 38 86 87
-38 -26 5 -90 -56 -114 -10 -91
-127 -89 -115 -62 -20 -68 -74 -43
50 34 37 -74 75 75 -1 44
-9 -63 111 -115 -14 -51 81 38
40 75 24 -8 -77 -102 -87 106
-112 28 65 113 -23 -60 28 -14
72 127 20 49 -21 -65 -41 -18
89 -42 -105 -107 -51 -90 12 85
-18 -35 -83 -32 -122 73 -7 42
-6 -5 87 63 16 28 44 -28
63 21 -12 -21 -78 9 4 -127
-38 19 -127 17 -29 -39 -19 -20
-20 -78 -51 -34 -12 -45 37 -37
17 35 57 38 4 -13 -47 -2
51 -21 17 21 -8 -39 -50 6
-127 -84 19 -13 -84 92 -37 29
53 -14 -64 22 93 -41 120 -11
-50 -21 61 28 66 -72 -121 -10
103 -12 42 64 -1 22 16 73
85 -35 69 -54 96 26 49 -86
45 -25 -2 44 -50 -68 27 127
20 -14 -114 -98 9 4 -59 -41
-80 -2 -32 -47 -21 -9 -52 -45
-76 100 -85 118 -85 -38 -52 -36
127 -74 -97 105 -58 79 -55 -62
101 87 43 78 -47 80 120 -53
-68 38 67 -67 -45 -67 65 61
-9 -89 0 21 -90 -41 22 -41
-4 5 -25 -95 116 -20 61 39
113 45 27 18 80 -118 97 120
-39 127 -65 -70 113 85 -78 -45

Conv2D;StatefulPartitionedCall/StatefulPartitionedCall/PartitionedCall_58/PartitionedCall/Conv2D i1 [32, 1, 1, 115]
00000000: 2027 054d 1064 e71c fd2f 27fe f84d dd28
00000010: 474b 22ef c005 2df0 b3fa adef 431b dcfc
00000020: b8f7 c4f5 d7ba 3b86 ffb2 eefb c227 fb97
00000030: bb64 156c ebdd 2bf2 f40a 3333 8efa c537
00000040: 23f0 2601 bbe3 dd7c 1228 bfe3 0f39 cbde
00000050: f64c f81d 0e43 ea44 1cfc c2f0 a31b cf28
00000060: f8cb eb81 b79f 97df 57e4 f234 0103 63fd
00000070: a172 f7a2 f265 207f d32f 07fb 0001 1fef
00000080: 3ecb f615 7222 d84a 2711 e80f 9bde 301f
00000090: 1fe3 2bbb 3aeb bfe5 fec5 4706 68f2 79cc
000000a0: 4a0b 0627 51f2 0642 86eb d2ec 0715 2ee2
000000b0: f227 0dd2 081a 08cd 2058 0f34 4832 d40b
000000c0: d045 bec0 3456 48f1 20ec 5a18 0019 f81c
000000d0: dd47 5ef3 d9cb f0da b613 14e4 bb45 f923
000000e0: 3d60 32a7 69dc fbfc fad8 0e12 dee6 ebfd
000000f0: c72f 0b2a cd27 c6f6 efec f3ca 641d d0da
32 39 5 77 16 100 -25 28
-3 47 39 -2 -8 77 -35 40
71 75 34 -17 -64 5 45 -16
-77 -6 -83 -17 67 27 -36 -4
-72 -9 -60 -11 -41 -70 59 -122
-1 -78 -18 -5 -62 39 -5 -105
-69 100 21 108 -21 -35 43 -14
-12 10 51 51 -114 -6 -59 55
35 -16 38 1 -69 -29 -35 124
18 40 -65 -29 15 57 -53 -34
-10 76 -8 29 14 67 -22 68
28 -4 -62 -16 -93 27 -49 40
-8 -53 -21 -127 -73 -97 -105 -33
87 -28 -14 52 1 3 99 -3
-95 114 -9 -94 -14 101 32 127
-45 47 7 -5 0 1 31 -17
62 -53 -10 21 114 34 -40 74
39 17 -24 15 -101 -34 48 31
31 -29 43 -69 58 -21 -65 -27
-2 -59 71 6 104 -14 121 -52
74 11 6 39 81 -14 6 66
-122 -21 -46 -20 7 21 46 -30
-14 39 13 -46 8 26 8 -51
32 88 15 52 72 50 -44 11
-48 69 -66 -64 52 86 72 -15
32 -20 90 24 0 25 -8 28
-35 71 94 -13 -39 -53 -16 -38
-74 19 20 -28 -69 69 -7 35
61 96 50 -89 105 -36 -5 -4
-6 -40 14 18 -34 -26 -21 -3
-57 47 11 42 -51 39 -58 -10
-17 -20 -13 -54 100 29 -48 -38

Conv2D;StatefulPartitionedCall/StatefulPartitionedCall/PartitionedCall_63/PartitionedCall/Conv2D i1 [172, 1, 1, 32]
00000000: b062 ca62 b863 d823 65d6 3b7b 314c b739
00000010: 4d23 4b64 c2bc af72 4d59 4a5a 67a9 567f
00000020: aada 112c ccef 0404 bbf1 1d5b acc9 8f5e
00000030: 168e e2e4 a8f9 f4a5 d2ba f8ea 81da bd9f
00000040: f2ee 2efb 342f 3855 98fe 0fb9 b66f 8302
00000050: e206 d5c2 2bcc e9bb 1888 5f23 9601 917f
00000060: 260d 5302 e7f7 02f9 c611 7f9a 3039 f8d9
00000070: 1a9f f1d7 55bc 0aac 223d 0cd6 c3b5 9bbd
00000080: 06a2 9fdf 6678 06f8 2322 9cc8 c9d5 cbcb
00000090: f7cb 12e6 1795 c099 04dd d490 b664 81e3
000000a0: 3a98 b105 dbf7 e410 a4da 63b8 f09b e8c4
000000b0: ca3a 37d9 87a2 f915 7f50 d410 839e 3055
000000c0: 2986 a6db f9e2 08f8 dcc2 68e9 e346 3720
000000d0: 8183 21da 2611 09f3 bde1 4f76 37dd 9d33
000000e0: e836 f7a0 5ce6 0ef0 1c28 3d93 d307 0999
000000f0: 41b7 22f4 2a0b 02dc 7f82 78f3 1ce9 d4ef
-80 98 -54 98 -72 99 -40 35
101 -42 59 123 49 76 -73 57
77 35 75 100 -62 -68 -81 114
77 89 74 90 103 -87 86 127
-86 -38 17 44 -52 -17 4 4
-69 -15 29 91 -84 -55 -113 94
22 -114 -30 -28 -88 -7 -12 -91
-46 -70 -8 -22 -127 -38 -67 -97
-14 -18 46 -5 52 47 56 85
-104 -2 15 -71 -74 111 -125 2
-30 6 -43 -62 43 -52 -23 -69
24 -120 95 35 -106 1 -111 127
38 13 83 2 -25 -9 2 -7
-58 17 127 -102 48 57 -8 -39
26 -97 -15 -41 85 -68 10 -84
34 61 12 -42 -61 -75 -101 -67
6 -94 -97 -33 102 120 6 -8
35 34 -100 -56 -55 -43 -53 -53
-9 -53 18 -26 23 -107 -64 -103
4 -35 -44 -112 -74 100 -127 -29
58 -104 -79 5 -37 -9 -28 16
-92 -38 99 -72 -16 -101 -24 -60
-54 58 55 -39 -121 -94 -7 21
127 80 -44 16 -125 -98 48 85
41 -122 -90 -37 -7 -30 8 -8
-36 -62 104 -23 -29 70 55 32
-127 -125 33 -38 38 17 9 -13
-67 -31 79 118 55 -35 -99 51
-24 54 -9 -96 92 -26 14 -16
28 40 61 -109 -45 7 9 -103
65 -73 34 -12 42 11 2 -36
127 -126 120 -13 28 -23 -44 -17

Conv2D;StatefulPartitionedCall/StatefulPartitionedCall/PartitionedCall_69/PartitionedCall/Conv2D i1 [51, 1, 1, 172]
00000000: 39a0 05e2 b4e2 e1cb d2bc 9bf5 17d3 0ae9
00000010: eec5 84f6 e4d8 60f9 57e5 1e21 9643 d1ff
00000020: f0fa 28ce 0c01 cebf b2ce a2ed 0afa dd0f
00000030: 1e02 b1ed 8144 0119 ef73 12e6 dfe6 cc2e
00000040: cfc4 e635 1305 b017 4205 541d 21f3 d12b
00000050: ecf7 a4c9 caad fa06 35ff bd95 0399 bfef
00000060: 0304 8ddd 0600 0828 c80d f5f8 dcd7 a13d
00000070: eae2 15e8 fe04 d828 b964 abad 2524 98fa
00000080: 0f10 b4af df1c faf1 df8c 95ee fdd3 c1b7
00000090: e9f9 2df9 2e2d 1f16 985a 582b f1ea 0c41
000000a0: cde7 34b8 a9ed 1236 c4b8 ffb3 111c 6efe
000000b0: 1d00 ca2e de3d c42a 3231 4613 f4f7 2dbe
000000c0: dea9 bb0d 3fd3 c4f4 19dd d6c8 f2ce f6d1
000000d0: f0df d912 d21a 0075 c281 5dd2 0cd6 48d7
000000e0: f8e3 1561 050d 4e18 d6ec fb1a edf6 ce14
000000f0: 9abb 1ce4 fcb4 d2e2 39ee 3104 9b39 b6f8
57 -96 5 -30 -76 -30 -31 -53
-46 -68 -101 -11 23 -45 10 -23
-18 -59 -124 -10 -28 -40 96 -7
87 -27 30 33 -106 67 -47 -1
-16 -6 40 -50 12 1 -50 -65
-78 -50 -94 -19 10 -6 -35 15
30 2 -79 -19 -127 68 1 25
-17 115 18 -26 -33 -26 -52 46
-49 -60 -26 53 19 5 -80 23
66 5 84 29 33 -13 -47 43
-20 -9 -92 -55 -54 -83 -6 6
53 -1 -67 -107 3 -103 -65 -17
3 4 -115 -35 6 0 8 40
-56 13 -11 -8 -36 -41 -95 61
-22 -30 21 -24 -2 4 -40 40
-71 100 -85 -83 37 36 -104 -6
15 16 -76 -81 -33 28 -6 -15
-33 -116 -107 -18 -3 -45 -63 -73
-23 -7 45 -7 46 45 31 22
-104 90 88 43 -15 -22 12 65
-51 -25 52 -72 -87 -19 18 54
-60 -72 -1 -77 17 28 110 -2
29 0 -54 46 -34 61 -60 42
50 49 70 19 -12 -9 45 -66
-34 -87 -69 13 63 -45 -60 -12
25 -35 -42 -56 -14 -50 -10 -47
-16 -33 -39 18 -46 26 0 117
-62 -127 93 -46 12 -42 72 -41
-8 -29 21 97 5 13 78 24
-42 -20 -5 26 -19 -10 -50 20
-102 -69 28 -28 -4 -76 -46 -30
57 -18 49 4 -101 57 -74 -8

Conv2D;StatefulPartitionedCall/StatefulPartitionedCall/PartitionedCall_71/PartitionedCall/Conv2D i1 [307, 1, 1, 51]
00000000: 0789 1c0b e7de a4ce 3023 6ea2 fffd 304d
00000010: 348a 868c 1a00 99a5 2581 0f20 f406 2316
00000020: 5d5b 33ba f937 de28 f21f 1c5a 641a ebb2
00000030: f69d 5072 4c84 343f 5a23 c6de b058 4f26
00000040: 3987 272f 8ac5 32bd 7f9a 6a3c 57ac c098
00000050: 204e d1d5 3bcd e42a 1c3f 67bd 3630 9de5
00000060: 338a b6c0 3532 4362 09d6 dd0f fbfb e83c
00000070: e4fd c7d1 4fcf ed0a 4324 d31f 0315 1d00
00000080: ba39 caef 73b5 1e08 3f71 1aa7 0d4c d404
00000090: 736f 0d4b 7527 617f af0a a82c 31bb 111e
000000a0: e889 2a09 b130 13e8 fe46 a902 bb2f eae7
000000b0: 0b1a 190d 322a 10c7 97ef 9523 f6ef 0ac4
000000c0: ccdd efa5 f44e edea 81f0 df0d be01 f823
000000d0: ccda 301d 100e b5bd 071f 36f1 c652 dd4a
000000e0: f62b 2320 1efa b662 510a 5de7 0c7b 35b2
000000f0: 7fb8 3b22 0cef 602a 2df7 c52f 6e44 f5d4
7 -119 28 11 -25 -34 -92 -50
48 35 110 -94 -1 -3 48 77
52 -118 -122 -116 26 0 -103 -91
37 -127 15 32 -12 6 35 22
93 91 51 -70 -7 55 -34 40
-14 31 28 90 100 26 -21 -78
-10 -99 80 114 76 -124 52 63
90 35 -58 -34 -80 88 79 38
57 -121 39 47 -118 -59 50 -67
127 -102 106 60 87 -84 -64 -104
32 78 -47 -43 59 -51 -28 42
28 63 103 -67 54 48 -99 -27
51 -118 -74 -64 53 50 67 98
9 -42 -35 15 -5 -5 -24 60
-28 -3 -57 -47 79 -49 -19 10
67 36 -45 31 3 21 29 0
-70 57 -54 -17 115 -75 30 8
63 113 26 -89 13 76 -44 4
115 111 13 75 117 39 97 127
-81 10 -88 44 49 -69 17 30
-24 -119 42 9 -79 48 19 -24
-2 70 -87 2 -69 47 -22 -25
11 26 25 13 50 42 16 -57
-105 -17 -107 35 -10 -17 10 -60
-52 -35 -17 -91 -12 78 -19 -22
-127 -16 -33 13 -66 1 -8 35
-52 -38 48 29 16 14 -75 -67
7 31 54 -15 -58 82 -35 74
-10 43 35 32 30 -6 -74 98
81 10 93 -25 12 123 53 -78
127 -72 59 34 12 -17 96 42
45 -9 -59 47 110 68 -11 -44

Conv2D;StatefulPartitionedCall/StatefulPartitionedCall/PartitionedCall_77/PartitionedCall/Conv2D i1 [51, 1, 1, 307]
00000000: adfe 680f 2fb8 19ce cec1 0308 ebec 7039
00000010: 3226 1d21 0bf9 d901 2024 1516 0003 2f03
00000020: f557 f315 25bb f4db 250d f594 00c7 14fc
00000030: dcee 1a02 06ee 4e43 0916 0ab3 5717 1f0e
00000040: 1908 fb4b 481d 04a5 1df2 f9eb b9d1 29f4
00000050: 11f2 eaeb 0d16 d542 060a 3f04 02e6 0c4e
00000060: 35dd f206 cefd 05dd fcf9 dbd8 ea12 deeb
00000070: fdfe 502d 1ae8 e2e3 35ad 16eb e9f7 02fc
00000080: efea 0a07 1305 d981 e8ec f202 281e daaf
00000090: 35f3 081b 4215 e700 1619 e3f6 ee00 28ca
000000a0: 4f30 15f2 0510 0527 d6f9 5433 0133 f238
000000b0: 0e12 4b3e f6d1 e04c 26e3 ee38 3311 bfd5
000000c0: dbfd fed4 20fa 2826 fb45 5bed fabf 2024
000000d0: cf07 2702 eefc 1523 1202 cbfe 08f6 1bc4
000000e0: 263f d0eb 23ea 1f06 f6f5 2e05 6820 2a3b
000000f0: 143f 0cd2 fcea 14e4 d8bc fa01 d5dc e1c2
-83 -2 104 15 47 -72 25 -50
-50 -63 3 8 -21 -20 112 57
50 38 29 33 11 -7 -39 1
32 36 21 22 0 3 47 3
-11 87 -13 21 37 -69 -12 -37
37 13 -11 -108 0 -57 20 -4
-36 -18 26 2 6 -18 78 67
9 22 10 -77 87 23 31 14
25 8 -5 75 72 29 4 -91
29 -14 -7 -21 -71 -47 41 -12
17 -14 -22 -21 13 22 -43 66
6 10 63 4 2 -26 12 78
53 -35 -14 6 -50 -3 5 -35
-4 -7 -37 -40 -22 18 -34 -21
-3 -2 80 45 26 -24 -30 -29
53 -83 22 -21 -23 -9 2 -4
-17 -22 10 7 19 5 -39 -127
-24 -20 -14 2 40 30 -38 -81
53 -13 8 27 66 21 -25 0
22 25 -29 -10 -18 0 40 -54
79 48 21 -14 5 16 5 39
-42 -7 84 51 1 51 -14 56
14 18 75 62 -10 -47 -32 76
38 -29 -18 56 51 17 -65 -43
-37 -3 -2 -44 32 -6 40 38
-5 69 91 -19 -6 -65 32 36
-49 7 39 2 -18 -4 21 35
18 2 -53 -2 8 -10 27 -60
38 63 -48 -21 35 -22 31 6
-10 -11 46 5 104 32 42 59
20 63 12 -46 -4 -22 20 -28
-40 -68 -6 1 -43 -36 -31 -62

Conv2D;StatefulPartitionedCall/StatefulPartitionedCall/PartitionedCall_82/PartitionedCall/Conv2D i1 [307, 1, 1, 51]
00000000: f881 3493 f103 f314 9c07 2cfb ea29 ce0d
00000010: 0924 a1b6 25c3 acf7 b835 09c5 08dc d147
00000020: 28c4 d801 5678 c26b e67b 2068 ef04 e99b
00000030: 8cc7 0323 1ab6 a52e fef8 c7fd ef1b d811
00000040: d2b0 0a3a ea02 19b5 d029 61e5 353e a43a
00000050: 5bca 19b8 a8ef 0f81 a9f8 e0fa 3401 9c35
00000060: fef8 40c8 2f2c 9fce e34c f174 2af1 0e0c
00000070: ac0b e71a 2b2b 5021 28f0 e07f be13 3844
00000080: f83e 0809 4c40 3440 a646 dbbb 6562 d426
00000090: 1f75 d91d d4a5 c94b c31b f216 e6fe ff84
000000a0: 0f16 403e 0ed5 e706 0124 367f fd21 e9ec
000000b0: d3e6 e338 e043 f80e 1af4 1c0a c6a8 a627
000000c0: a4f8 6b1c 0248 d2d0 e746 e70b a473 d091
000000d0: 30ce 30ba 74b5 e228 e1ba e253 c134 b728
000000e0: 631d 67e8 212d e0da 443c b4b8 1d76 e51b
000000f0: 381c 20ce e6d4 59df 2546 be3c 812e 4e04
-8 -127 52 -109 -15 3 -13 20
-100 7 44 -5 -22 41 -50 13
9 36 -95 -74 37 -61 -84 -9
-72 53 9 -59 8 -36 -47 71
40 -60 -40 1 86 120 -62 107
-26 123 32 104 -17 4 -23 -101
-116 -57 3 35 26 -74 -91 46
-2 -8 -57 -3 -17 27 -40 17
-46 -80 10 58 -22 2 25 -75
-48 41 97 -27 53 62 -92 58
91 -54 25 -72 -88 -17 15 -127
-87 -8 -32 -6 52 1 -100 53
-2 -8 64 -56 47 44 -97 -50
-29 76 -15 116 42 -15 14 12
-84 11 -25 26 43 43 80 33
40 -16 -32 127 -66 19 56 68
-8 62 8 9 76 64 52 64
-90 70 -37 -69 101 98 -44 38
31 117 -39 29 -44 -91 -55 75
-61 27 -14 22 -26 -2 -1 -124
15 22 64 62 14 -43 -25 6
1 36 54 127 -3 33 -23 -20
-45 -26 -29 56 -32 67 -8 14
26 -12 28 10 -58 -88 -90 39
-92 -8 107 28 2 72 -46 -48
-25 70 -25 11 -92 115 -48 -111
48 -50 48 -70 116 -75 -30 40
-31 -70 -30 83 -63 52 -73 40
99 29 103 -24 33 45 -32 -38
68 60 -76 -72 29 118 -27 27
56 28 32 -50 -26 -44 89 -33
37 70 -66 60 -127 46 78 4

Conv2D;StatefulPartitionedCall/StatefulPartitionedCall/PartitionedCall_88/PartitionedCall/Conv2D i1 [44, 1, 1, 307]
00000000: 0afb 0d27 1600 0cf8 05e1 cbf5 04ed 0113
00000010: f3f3 00f2 1820 2ad1 0828 f224 fff8 0df2
00000020: e129 4401 fd02 c908 3508 e015 03e4 2dea
00000030: 02eb 2200 37ef 1019 4a24 cb47 06ea fd0e
00000040: 1fea 24eb 0a24 31f4 1804 fd2b 0415 e603
00000050: 04fe ed2d d7f6 0e1e 2b22 1cf8 ea28 e331
00000060: 13df 4d2e 06d9 02ff b70e e421 f5bc f809
00000070: 2a21 ffed bed9 020f 1207 f4f6 06f6 10d3
00000080: 23fe 3101 fe19 de0f f4c7 0304 fdff 19f3
00000090: e3e6 3901 22cd 13f7 2616 c208 2dea 230b
000000a0: fbeb 3a1a fe25 0ded ebf3 260e 0700 04bc
000000b0: 0201 c7aa f5f7 fdf5 dd30 05d1 23eb f7e7
000000c0: 0d16 dad5 1a01 b21e fdfc 5b05 a807 d7f6
000000d0: 39fd 1e11 2623 cd0f 17b6 b4fa cddb d0f6
000000e0: f8fc 81c1 2814 cffb fa45 0402 19c5 d5e9
000000f0: e418 0adc eb12 3003 fccc 260a f2e8 e4eb
10 -5 13 39 22 0 12 -8
5 -31 -53 -11 4 -19 1 19
-13 -13 0 -14 24 32 42 -47
8 40 -14 36 -1 -8 13 -14
-31 41 68 1 -3 2 -55 8
53 8 -32 21 3 -28 45 -22
2 -21 34 0 55 -17 16 25
74 36 -53 71 6 -22 -3 14
31 -22 36 -21 10 36 49 -12
24 4 -3 43 4 21 -26 3
4 -2 -19 45 -41 -10 14 30
43 34 28 -8 -22 40 -29 49
19 -33 77 46 6 -39 2 -1
-73 14 -28 33 -11 -68 -8 9
42 33 -1 -19 -66 -39 2 15
18 7 -12 -10 6 -10 16 -45
35 -2 49 1 -2 25 -34 15
-12 -57 3 4 -3 -1 25 -13
-29 -26 57 1 34 -51 19 -9
38 22 -62 8 45 -22 35 11
-5 -21 58 26 -2 37 13 -19
-21 -13 38 14 7 0 4 -68
2 1 -57 -86 -11 -9 -3 -11
-35 48 5 -47 35 -21 -9 -25
13 22 -38 -43 26 1 -78 30
-3 -4 91 5 -88 7 -41 -10
57 -3 30 17 38 35 -51 15
23 -74 -76 -6 -51 -37 -48 -10
-8 -4 -127 -63 40 20 -49 -5
-6 69 4 2 25 -59 -43 -23
-28 24 10 -36 -21 18 48 3
-4 -52 38 10 -14 -24 -28 -21

Conv2D;StatefulPartitionedCall/StatefulPartitionedCall/PartitionedCall_93/PartitionedCall/Conv2D i1 [307, 1, 1, 51]
00000000: fd05 7ddd 997f b4d1 f789 9a17 00aa fae0
00000010: f51c a985 dc10 50d8 2cfc 472f 21cb 5d91
00000020: 0900 16e3 92b8 ecbe f10d e933 0012 f6af
00000030: edb4 2e0d 113a 4617 d403 dae8 b117 f807
00000040: 51bd 05dc f2e1 fbb8 27e6 f7b8 d7c7 2afe
00000050: 20dd 0b32 1be1 8124 032b ea19 2ac4 28ef
00000060: f2e6 84e4 be0b 50ca ad46 4134 17a5 37de
00000070: 1c2a 30c7 1cdf eb1b 42de 5bcf 488d 48b1
00000080: e6ca 2866 e883 9a5e e7cb ec1e d21e 19e2
00000090: 844c ab3a 81e0 4a99 26f3 073e 93ee 6e21
000000a0: 03c0 e14f efa6 6c1a 1824 2e87 a636 d6f9
000000b0: 2e57 290d dbef a020 090a ce7f 5310 a15e
000000c0: b1ae 66df 191c dbef ae2a 9b5e e303 ea06
000000d0: 5ecb f735 080b 08e9 28dc 6df2 e8f2 0405
000000e0: 0539 0597 1ae4 0a49 e52e f6c4 370b f933
000000f0: 7f4f 02fa f7c8 eae6 e9ea 0306 f1f0 0f64
-3 5 125 -35 -103 127 -76 -47
-9 -119 -102 23 0 -86 -6 -32
-11 28 -87 -123 -36 16 80 -40
44 -4 71 47 33 -53 93 -111
9 0 22 -29 -110 -72 -20 -66
-15 13 -23 51 0 18 -10 -81
-19 -76 46 13 17 58 70 23
-44 3 -38 -24 -79 23 -8 7
81 -67 5 -36 -14 -31 -5 -72
39 -26 -9 -72 -41 -57 42 -2
32 -35 11 50 27 -31 -127 36
3 43 -22 25 42 -60 40 -17
-14 -26 -124 -28 -66 11 80 -54
-83 70 65 52 23 -91 55 -34
28 42 48 -57 28 -33 -21 27
66 -34 91 -49 72 -115 72 -79
-26 -54 40 102 -24 -125 -102 94
-25 -53 -20 30 -46 30 25 -30
-124 76 -85 58 -127 -32 74 -103
38 -13 7 62 -109 -18 110 33
3 -64 -31 79 -17 -90 108 26
24 36 46 -121 -90 54 -42 -7
46 87 41 13 -37 -17 -96 32
9 10 -50 127 83 16 -95 94
-79 -82 102 -33 25 28 -37 -17
-82 42 -101 94 -29 3 -22 6
94 -53 -9 53 8 11 8 -23
40 -36 109 -14 -24 -14 4 5
5 57 5 -105 26 -28 10 73
-27 46 -10 -60 55 11 -7 51
127 79 2 -6 -9 -56 -22 -26
-23 -22 3 6 -15 -16 15 100

Conv2D;StatefulPartitionedCall/StatefulPartitionedCall/PartitionedCall_99/PartitionedCall/Conv2D i1 [57, 1, 1, 307]
00000000: 58d4 be20 28f1 01ed c1e1 4cbc 05fc fc0b
00000010: b722 0a33 211f 0003 f1dd 010a 27bf 68d3
00000020: 12ff a145 f83b 0da0 fff4 e4f6 f5b3 4125
00000030: 3345 fdfa fc46 0af3 e9e5 1e4e d623 03f8
00000040: eacd cbf4 ff8b 0202 f0ff 0160 0dc1 2c3e
00000050: 52f4 5a3c 15f4 26af fd58 afe2 3306 2fa1
00000060: e92a 2206 20ee 0ef3 3120 e60f cefd 3c9e
00000070: c706 a8ed 1535 d73e e3ff 4797 0ad8 f032
00000080: 1900 f61e 1f02 0501 2f2f 21dd f70c bbdc
00000090: 10ce ccba 4a10 ec11 f4aa 4a24 ec03 0830
000000a0: 1441 01fe fdf9 081a 144e 0d19 fd42 1000
000000b0: c320 fed8 2501 bbea 2bef b5fa bc26 33b1
000000c0: 2fec b2d7 f6d3 0901 decf fb1b 9024 fb65
000000d0: 25f1 e2b4 fdef 0f4b 2736 16a3 f8f8 00cb
000000e0: be5c 15e9 174a 12d1 3581 292b 2d4b 1a3a
000000f0: d832 0fc1 3c16 3326 1201 d144 f6f7 41ac
88 -44 -66 32 40 -15 1 -19
-63 -31 76 -68 5 -4 -4 11
-73 34 10 51 33 31 0 3
-15 -35 1 10 39 -65 104 -45
18 -1 -95 69 -8 59 13 -96
-1 -12 -28 -10 -11 -77 65 37
51 69 -3 -6 -4 70 10 -13
-23 -27 30 78 -42 35 3 -8
-22 -51 -53 -12 -1 -117 2 2
-16 -1 1 96 13 -63 44 62
82 -12 90 60 21 -12 38 -81
-3 88 -81 -30 51 6 47 -95
-23 42 34 6 32 -18 14 -13
49 32 -26 15 -50 -3 60 -98
-57 6 -88 -19 21 53 -41 62
-29 -1 71 -105 10 -40 -16 50
25 0 -10 30 31 2 5 1
47 47 33 -35 -9 12 -69 -36
16 -50 -52 -70 74 16 -20 17
-12 -86 74 36 -20 3 8 48
20 65 1 -2 -3 -7 8 26
20 78 13 25 -3 66 16 0
-61 32 -2 -40 37 1 -69 -22
43 -17 -75 -6 -68 38 51 -79
47 -20 -78 -41 -10 -45 9 1
-34 -49 -5 27 -112 36 -5 101
37 -15 -30 -76 -3 -17 15 75
39 54 22 -93 -8 -8 0 -53
-66 92 21 -23 23 74 18 -47
53 -127 41 43 45 75 26 58
-40 50 15 -63 60 22 51 38
18 1 -47 68 -10 -9 65 -84

Conv2D;StatefulPartitionedCall/StatefulPartitionedCall/PartitionedCall_104/PartitionedCall/Conv2D i1 [230, 1, 1, 57]
00000000: 0f07 8ee7 0d18 c428 48c3 7f0d 220b 4ff4
00000010: faf1 08d4 3d18 9efe 21b4 17d1 4832 8817
00000020: 6776 0daa 0fc0 1926 fd0d 2e11 c408 f74c
00000030: be02 a210 dad8 1f12 1b20 d40a dbe5 7651
00000040: 0eea 11b3 1302 cdd6 1b94 6583 0b21 f218
00000050: ebc6 a0d1 d1e8 8e33 2ba6 7fc6 7014 f5e5
00000060: fc22 d538 3a53 2aca 10bb b4f7 ddb7 e651
00000070: 1f62 5cae 3065 1667 a4b9 b52d b5fb 06f3
00000080: b9f4 c086 3424 1f05 24b1 0f40 2436 1e11
00000090: fe17 0fd9 e1d8 1f5a 2d0d f4cb f25e c33e
000000a0: 24cf 2dad 31c3 2c7f 1d62 f251 33ed 7fb2
000000b0: 8fcb 2c17 a591 bfdd db7b c60c 1ae4 2fed
000000c0: 2603 46c7 124d 2d09 da16 a86c fe10 fb2b
000000d0: 3103 314b 2ba8 0688 10e5 eb1e 1bbc 00e1
000000e0: 50c6 59f7 0a00 1bdb 99fa d629 cb2d 9981
000000f0: 8603 fca5 03a9 b91d 3bee 12f5 d9be d9c4
15 7 -114 -25 13 24 -60 40
72 -61 127 13 34 11 79 -12
-6 -15 8 -44 61 24 -98 -2
33 -76 23 -47 72 50 -120 23
103 118 13 -86 15 -64 25 38
-3 13 46 17 -60 8 -9 76
-66 2 -94 16 -38 -40 31 18
27 32 -44 10 -37 -27 118 81
14 -22 17 -77 19 2 -51 -42
27 -108 101 -125 11 33 -14 24
-21 -58 -96 -47 -47 -24 -114 51
43 -90 127 -58 112 20 -11 -27
-4 34 -43 56 58 83 42 -54
16 -69 -76 -9 -35 -73 -26 81
31 98 92 -82 48 101 22 103
-92 -71 -75 45 -75 -5 6 -13
-71 -12 -64 -122 52 36 31 5
36 -79 15 64 36 54 30 17
-2 23 15 -39 -31 -40 31 90
45 13 -12 -53 -14 94 -61 62
36 -49 45 -83 49 -61 44 127
29 98 -14 81 51 -19 127 -78
-113 -53 44 23 -91 -111 -65 -35
-37 123 -58 12 26 -28 47 -19
38 3 70 -57 18 77 45 9
-38 22 -88 108 -2 16 -5 43
49 3 49 75 43 -88 6 -120
16 -27 -21 30 27 -68 0 -31
80 -58 89 -9 10 0 27 -37
-103 -6 -42 41 -53 45 -103 -127
-122 3 -4 -91 3 -87 -71 29
59 -18 18 -11 -39 -66 -39 -60

Conv2D;StatefulPartitionedCall/StatefulPartitionedCall/PartitionedCall_110/PartitionedCall/Conv2D i1 [48, 1, 1, 230]
00000000: b1d6 bf07 361f fdc2 5ccd fae7 deef d927
00000010: 0a14 2e1b fae6 dc1a 09bf 4910 16fc e706
00000020: 42f5 16f5 bfb4 e40f 32df e922 b327 ff06
00000030: e117 29f5 1afc 2801 16f5 cc04 f119 54de
00000040: ee14 d9ce e427 e501 ec01 0100 0121 1f00
00000050: 06f9 2f24 d822 fd64 0bf9 fb4e 473d f10d
00000060: c707 22d8 15fb fe01 1d19 3236 ed22 432a
00000070: 171d bdf6 1cda e24f 2723 91d7 d32f 4c01
00000080: 1644 0ee8 18f8 2ce1 4494 f80c a109 137f
00000090: 2435 06ef 0f31 12f3 f34d 4b36 b104 056a
000000a0: 0bb2 e3ed f420 fd22 f8ff 5527 dbbb f4f0
000000b0: 19ed d0f2 2556 2c24 250f f627 2927 6829
000000c0: dbdf e00b 1be1 34f0 0ef3 05e2 de21 fbaf
000000d0: ba01 f711 dcfe 0bd8 0902 da02 b907 5601
000000e0: 09f8 fbfd 04e9 e001 f7dc 0829 fb0b cc34
000000f0: ae2d 0fde fcb8 c9e7 ad2f f244 f628 d589
-79 -42 -65 7 54 31 -3 -62
92 -51 -6 -25 -34 -17 -39 39
10 20 46 27 -6 -26 -36 26
9 -65 73 16 22 -4 -25 6
66 -11 22 -11 -65 -76 -28 15
50 -33 -23 34 -77 39 -1 6
-31 23 41 -11 26 -4 40 1
22 -11 -52 4 -15 25 84 -34
-18 20 -39 -50 -28 39 -27 1
-20 1 1 0 1 33 31 0
6 -7 47 36 -40 34 -3 100
11 -7 -5 78 71 61 -15 13
-57 7 34 -40 21 -5 -2 1
29 25 50 54 -19 34 67 42
23 29 -67 -10 28 -38 -30 79
39 35 -111 -41 -45 47 76 1
22 68 14 -24 24 -8 44 -31
68 -108 -8 12 -95 9 19 127
36 53 6 -17 15 49 18 -13
-13 77 75 54 -79 4 5 106
11 -78 -29 -19 -12 32 -3 34
-8 -1 85 39 -37 -69 -12 -16
25 -19 -48 -14 37 86 44 36
37 15 -10 39 41 39 104 41
-37 -33 -32 11 27 -31 52 -16
14 -13 5 -30 -34 33 -5 -81
-70 1 -9 17 -36 -2 11 -40
9 2 -38 2 -71 7 86 1
9 -8 -5 -3 4 -23 -32 1
-9 -36 8 41 -5 11 -52 52
-82 45 15 -34 -4 -72 -55 -25
-83 47 -14 68 -10 40 -43 -119

Conv2D;StatefulPartitionedCall/StatefulPartitionedCall/PartitionedCall_112/PartitionedCall/Conv2D i1 [288, 1, 1, 48]
00000000: 81f8 04f3 c028 0c7c c9a8 bf10 b115 f2a8
00000010: 383b ebe2 e001 954e b200 43ee c4fc c32d
00000020: 270b 4ef5 133b e8d0 1046 fef8 c53e a822
00000030: e472 2ad4 b609 b12e 22fa 7381 49fe da12
00000040: 082e e5c1 1dd9 e88d ac5b fcde 321c e0d7
00000050: 171c 712f 261e 11e1 dcdb aa3f 4bf9 0191
00000060: bff7 d7b3 e5b4 9be2 a99e cc8b 2902 2722
00000070: f357 e28e e71c bc46 fe4d c625 befb 3617
00000080: 4100 e411 dc2b 9734 17f8 4d22 fb7f f1f7
00000090: c9db 1d47 e215 4876 c78e 00ea f13b e30c
000000a0: bfbf c82b 07fe a7c0 f101 c59c 64af 135b
000000b0: 3bb9 cd03 8afb 26f6 747f 3549 f20d bd12
000000c0: 250f 3786 e3df 8143 86d5 a029 fe48 54bb
000000d0: 176b 06cc e6e0 506a d626 06e7 304c 3541
000000e0: 83da 1bbc 9e7d eb64 03d8 60d3 4477 08e2
000000f0: 11d0 f07f abba 332e e519 0455 1f2a e834
-127 -8 4 -13 -64 40 12 124
-55 -88 -65 16 -79 21 -14 -88
56 59 -21 -30 -32 1 -107 78
-78 0 67 -18 -60 -4 -61 45
39 11 78 -11 19 59 -24 -48
16 70 -2 -8 -59 62 -88 34
-28 114 42 -44 -74 9 -79 46
34 -6 115 -127 73 -2 -38 18
8 46 -27 -63 29 -39 -24 -115
-84 91 -4 -34 50 28 -32 -41
23 28 113 47 38 30 17 -31
-36 -37 -86 63 75 -7 1 -111
-65 -9 -41 -77 -27 -76 -101 -30
-87 -98 -52 -117 41 2 39 34
-13 87 -30 -114 -25 28 -68 70
-2 77 -58 37 -66 -5 54 23
65 0 -28 17 -36 43 -105 52
23 -8 77 34 -5 127 -15 -9
-55 -37 29 71 -30 21 72 118
-57 -114 0 -22 -15 59 -29 12
-65 -65 -56 43 7 -2 -89 -64
-15 1 -59 -100 100 -81 19 91
59 -71 -51 3 -118 -5 38 -10
116 127 53 73 -14 13 -67 18
37 15 55 -122 -29 -33 -127 67
-122 -43 -96 41 -2 72 84 -69
23 107 6 -52 -26 -32 80 106
-42 38 6 -25 48 76 53 65
-125 -38 27 -68 -98 125 -21 100
3 -40 96 -45 68 119 8 -30
17 -48 -16 127 -85 -70 51 46
-27 25 4 85 31 42 -24 52

Conv2D;StatefulPartitionedCall/StatefulPartitionedCall/PartitionedCall_118/PartitionedCall/Conv2D i1 [48, 1, 1, 288]
00000000: 15cc 0cdf 24ae 1ace 060a c606 210b 0c02
00000010: 4c36 a1fb 4cea 0fd8 9900 28f7 f800 8f9f
00000020: 37e7 1106 e9e7 fbfa 095a dcde 0b38 0919
00000030: 10f4 c6d0 f4f4 580d 381c f704 f30a 200b
00000040: 14e8 290b 1a07 4f4e f801 fa09 bf12 02fe
00000050: 2025 05ed 3bfe 1504 5d1b 3ad0 a4d5 3afa
00000060: 2181 0f35 1405 e9f1 3b16 acde 4245 cbfd
00000070: d724 e511 e1e7 11b0 02fc 58b4 233b 1057
00000080: f52e 1a55 eb06 251d 20f1 2002 2911 dfc6
00000090: 03e0 d70d fff4 fe34 f610 3efc d9e2 43f6
000000a0: dba7 fe02 ddf9 ef2a 1821 10c6 2401 6efa
000000b0: fc55 eabf 0dc9 1353 fa06 1503 69fe ac04
000000c0: 12d9 da14 d723 22f9 d7fe 0602 0d24 ea08
000000d0: ffe5 300c d1aa 3ce9 fcba dec5 06f8 dcfb
000000e0: 2ae3 600e 1a21 5a36 0357 fae1 ec19 d926
000000f0: 0dec 04b0 fa11 e9d7 1417 1440 177f d919
21 -52 12 -33 36 -82 26 -50
6 10 -58 6 33 11 12 2
76 54 -95 -5 76 -22 15 -40
-103 0 40 -9 -8 0 -113 -97
55 -25 17 6 -23 -25 -5 -6
9 90 -36 -34 11 56 9 25
16 -12 -58 -48 -12 -12 88 13
56 28 -9 4 -13 10 32 11
20 -24 41 11 26 7 79 78
-8 1 -6 9 -65 18 2 -2
32 37 5 -19 59 -2 21 4
93 27 58 -48 -92 -43 58 -6
33 -127 15 53 20 5 -23 -15
59 22 -84 -34 66 69 -53 -3
-41 36 -27 17 -31 -25 17 -80
2 -4 88 -76 35 59 16 87
-11 46 26 85 -21 6 37 29
32 -15 32 2 41 17 -33 -58
3 -32 -41 13 -1 -12 -2 52
-10 16 62 -4 -39 -30 67 -10
-37 -89 -2 2 -35 -7 -17 42
24 33 16 -58 36 1 110 -6
-4 85 -22 -65 13 -55 19 83
-6 6 21 3 105 -2 -84 4
18 -39 -38 20 -41 35 34 -7
-41 -2 6 2 13 36 -22 8
-1 -27 48 12 -47 -86 60 -23
-4 -70 -34 -59 6 -8 -36 -5
42 -29 96 14 26 33 90 54
3 87 -6 -31 -20 25 -39 38
13 -20 4 -80 -6 17 -23 -41
20 23 20 64 23 127 -39 25

Conv2D;StatefulPartitionedCall/StatefulPartitionedCall/PartitionedCall_123/PartitionedCall/Conv2D i1 [288, 1, 1, 48]
00000000: c844 1a3b 424c d117 1cb5 00ab e218 abfa
00000010: f512 ff0f 0792 01fa fad3 66a6 de0e be7f
00000020: 1cf4 e8d4 08ee 15f7 619c 233b 423b 9fc7
00000030: e812 4102 cf33 eed3 ea02 1b2f f5f5 928f
00000040: ba6c d8a4 bfbc 02bd 09a6 7ff5 2a17 2616
00000050: 0a08 181b 3b23 c5e6 f4ca 396f 2905 f907
00000060: 24fa 229c 0396 ff16 2207 bac8 3c42 3a14
00000070: ffca 3715 b9de 500b d624 b9e9 0ce5 12eb
00000080: 1602 e7c8 32e9 f47b a660 12df 7f1e 0bbf
00000090: 34fe 2b21 0b5f 3377 77cb 1b2e b25b 2cda
000000a0: 35ea 5c3e d5cb 0632 361e fbe7 c70f a255
000000b0: 3568 daec 7fe6 d71d e0fd 4712 f7ea 9111
000000c0: cd2c 19b8 52f4 c9bf 00eb 21a2 130f 85b8
000000d0: f203 dcce ff05 771c 2cb8 1804 16f9 c6b9
000000e0: eeac 0b32 20a6 8e06 1b81 bc2f b60d 6709
000000f0: cdd5 fe9a 24cc cc14 aeb3 1e81 f029 32fc
-56 68 26 59 66 76 -47 23
28 -75 0 -85 -30 24 -85 -6
-11 18 -1 15 7 -110 1 -6
-6 -45 102 -90 -34 14 -66 127
28 -12 -24 -44 8 -18 21 -9
97 -100 35 59 66 59 -97 -57
-24 18 65 2 -49 51 -18 -45
-22 2 27 47 -11 -11 -110 -113
-70 108 -40 -92 -65 -68 2 -67
9 -90 127 -11 42 23 38 22
10 8 24 27 59 35 -59 -26
-12 -54 57 111 41 5 -7 7
36 -6 34 -100 3 -106 -1 22
34 7 -70 -56 60 66 58 20
-1 -54 55 21 -71 -34 80 11
-42 36 -71 -23 12 -27 18 -21
22 2 -25 -56 50 -23 -12 123
-90 96 18 -33 127 30 11 -65
52 -2 43 33 11 95 51 119
119 -53 27 46 -78 91 44 -38
53 -22 92 62 -43 -53 6 50
54 30 -5 -25 -57 15 -94 85
53 104 -38 -20 127 -26 -41 29
-32 -3 71 18 -9 -22 -111 17
-51 44 25 -72 82 -12 -55 -65
0 -21 33 -94 19 15 -123 -72
-14 3 -36 -50 -1 5 119 28
44 -72 24 4 22 -7 -58 -71
-18 -84 11 50 32 -90 -114 6
27 -127 -68 47 -74 13 103 9
-51 -43 -2 -102 36 -52 -52 20
-82 -77 30 -127 -16 41 50 -4

Conv2D;StatefulPartitionedCall/StatefulPartitionedCall/PartitionedCall_129/PartitionedCall/Conv2D i1 [76, 1, 1, 288]
00000000: ccef 19fa 1537 e3cd 1023 f7f6 f452 0bb6
00000010: 2101 11d8 5bb8 f70c f1ec ff09 3ac8 b170
00000020: 4e0c 1404 ba2c 2804 41fe d718 e332 eff6
00000030: f2e0 b9f5 4adf c9ec c332 fa29 40e2 a42c
00000040: ebe3 e505 23f9 199d 73e5 7616 1c1d be7f
00000050: ff0d bd2b 7202 101c 0e1a e1d4 5d15 5615
00000060: f0a5 efff eee5 f8fd fd07 f51d 1a36 c323
00000070: dbde 2219 e6fc ff60 bf19 e9bf e9e8 0205
00000080: 4529 1b1b 0afc 11e7 e9d7 2d2a 2d48 d5e1
00000090: dafc f713 c9b5 e9ec ccf1 edf1 f300 e047
000000a0: 0022 0a0e 1bfc 12e1 a50f dcf0 ff23 482a
000000b0: c9e8 c4ce 9024 d3fb 66f9 0943 fec7 36e7
000000c0: e814 3337 cad0 97d8 2321 fdc9 0d0f 7ed6
000000d0: 7417 61c2 1f64 1f62 db09 09f8 c5a6 efef
000000e0: c62b ed5b f3fd 04f8 e058 3520 0835 1727
000000f0: 4f0a 0856 14fa 162e 1beb bb01 fb34 29b8
-52 -17 25 -6 21 55 -29 -51
16 35 -9 -10 -12 82 11 -74
33 1 17 -40 91 -72 -9 12
-15 -20 -1 9 58 -56 -79 112
78 12 20 4 -70 44 40 4
65 -2 -41 24 -29 50 -17 -10
-14 -32 -71 -11 74 -33 -55 -20
-61 50 -6 41 64 -30 -92 44
-21 -29 -27 5 35 -7 25 -99
115 -27 118 22 28 29 -66 127
-1 13 -67 43 114 2 16 28
14 26 -31 -44 93 21 86 21
-16 -91 -17 -1 -18 -27 -8 -3
-3 7 -11 29 26 54 -61 35
-37 -34 34 25 -26 -4 -1 96
-65 25 -23 -65 -23 -24 2 5
69 41 27 27 10 -4 17 -25
-23 -41 45 42 45 72 -43 -31
-38 -4 -9 19 -55 -75 -23 -20
-52 -15 -19 -15 -13 0 -32 71
0 34 10 14 27 -4 18 -31
-91 15 -36 -16 -1 35 72 42
-55 -24 -60 -50 -112 36 -45 -5
102 -7 9 67 -2 -57 54 -25
-24 20 51 55 -54 -48 -105 -40
35 33 -3 -55 13 15 126 -42
116 23 97 -62 31 100 31 98
-37 9 9 -8 -59 -90 -17 -17
-58 43 -19 91 -13 -3 4 -8
-32 88 53 32 8 53 23 39
79 10 8 86 20 -6 22 46
27 -21 -69 1 -5 52 41 -72

Conv2D;StatefulPartitionedCall/StatefulPartitionedCall/PartitionedCall_134/PartitionedCall/Conv2D i1 [115, 1, 1, 76]
00000000: c1df d314 4ea4 8b15 0a09 74f6 1476 6e38
00000010: de89 3309 d20f 1938 04f7 ac3f 457f cfe9
00000020: 2c32 bcb3 3646 5e1f 147a b4fa 3b3e 2a93
00000030: e611 e7d2 18f9 5fc4 e5ef d2e8 f7eb 2c42
00000040: a415 fe20 d006 3c3b fac0 0eed f4a9 cc45
00000050: 1b01 4585 e0c8 20f9 3eaf c179 a809 89a3
00000060: e720 8184 51d8 f57f 67c5 f2ff d010 1854
00000070: 2bea d021 7f32 070e 3748 234e ce04 3702
00000080: c402 f716 ce05 f405 faaa 2302 1307 f4eb
00000090: 2e26 1647 e91f fc1c 41ad d3eb 08f1 372c
000000a0: cdd5 0dde 25e5 6ddf f11b 1c12 e477 96bf
000000b0: 7f72 e75a 1743 ce40 5e67 02ed 12f6 c412
000000c0: 3a1e 051d e5c5 e91f db09 12dc 03cf e80a
000000d0: 0ee0 3404 0acb 2dbf 0ff9 f70a 082d 12f0
000000e0: ba07 12e9 001a 38b4 a9c3 dff9 ceeb 81c9
000000f0: 73bf 2e8a 2f5e ead4 5a0d 17fc 3a0b eadf
-63 -33 -45 20 78 -92 -117 21
10 9 116 -10 20 118 110 56
-34 -119 51 9 -46 15 25 56
4 -9 -84 63 69 127 -49 -23
44 50 -68 -77 54 70 94 31
20 122 -76 -6 59 62 42 -109
-26 17 -25 -46 24 -7 95 -60
-27 -17 -46 -24 -9 -21 44 66
-92 21 -2 32 -48 6 60 59
-6 -64 14 -19 -12 -87 -52 69
27 1 69 -123 -32 -56 32 -7
62 -81 -63 121 -88 9 -119 -93
-25 32 -127 -124 81 -40 -11 127
103 -59 -14 -1 -48 16 24 84
43 -22 -48 33 127 50 7 14
55 72 35 78 -50 4 55 2
-60 2 -9 22 -50 5 -12 5
-6 -86 35 2 19 7 -12 -21
46 38 22 71 -23 31 -4 28
65 -83 -45 -21 8 -15 55 44
-51 -43 13 -34 37 -27 109 -33
-15 27 28 18 -28 119 -106 -65
127 114 -25 90 23 67 -50 64
94 103 2 -19 18 -10 -60 18
58 30 5 29 -27 -59 -23 31
-37 9 18 -36 3 -49 -24 10
14 -32 52 4 10 -53 45 -65
15 -7 -9 10 8 45 18 -16
-70 7 18 -23 0 26 56 -76
-87 -61 -33 -7 -50 -21 -127 -55
115 -65 46 -118 47 94 -22 -44
90 13 23 -4 58 11 -22 -33

Conv2D;StatefulPartitionedCall/StatefulPartitionedCall/PartitionedCall_140/PartitionedCall/Conv2D i1 [16, 1, 1, 115]
00000000: ff36 7fdb 1e21 a92c d6b2 d425 0b1d 5aea
00000010: 0a15 2829 f250 48c1 fbe9 c9a4 79aa c67d
00000020: f3be 4d47 fce0 f10e ba56 bcd7 bbf9 26f4
00000030: 291d e1a0 dcf3 189f 01c8 370f c733 c6e6
00000040: 1b0c fdf0 f239 2c10 0bcc 060e 656e 6dd2
00000050: 55fa f033 f3e4 52e9 b90c 06da 0086 2908
00000060: d101 e448 d211 6cdf 1f51 b2b5 3615 39ff
00000070: f964 3e9a 09aa ca18 5304 0f27 af0e 10b8
00000080: cc2b b1fb eec9 0631 d304 bef2 10b8 12d9
00000090: 32ce c02f c910 d42d 3949 82ca 3c13 ecf7
000000a0: 2db5 d503 cd30 1bd1 3a0a cd23 c5ea b5f4
000000b0: 491a 3a9c f0fd 6c5b d8bf 04a3 2b18 7904
000000c0: 8104 c2d2 eae3 0404 6a54 3eb1 d30a 104b
000000d0: 24be eecf ff66 aad8 0509 213a 13ae 221d
000000e0: 132b ff04 0cfe dcec 00c4 f56f e93e 13f6
000000f0: bb62 c505 bfb9 e0fd 1033 1810 2df1 1ce7
-1 54 127 -37 30 33 -87 44
-42 -78 -44 37 11 29 90 -22
10 21 40 41 -14 80 72 -63
-5 -23 -55 -92 121 -86 -58 125
-13 -66 77 71 -4 -32 -15 14
-70 86 -68 -41 -69 -7 38 -12
41 29 -31 -96 -36 -13 24 -97
1 -56 55 15 -57 51 -58 -26
27 12 -3 -16 -14 57 44 16
11 -52 6 14 101 110 109 -46
85 -6 -16 51 -13 -28 82 -23
-71 12 6 -38 0 -122 41 8
-47 1 -28 72 -46 17 108 -33
31 81 -78 -75 54 21 57 -1
-7 100 62 -102 9 -86 -54 24
83 4 15 39 -81 14 16 -72
-52 43 -79 -5 -18 -55 6 49
-45 4 -66 -14 16 -72 18 -39
50 -50 -64 47 -55 16 -44 45
57 73 -126 -54 60 19 -20 -9
45 -75 -43 3 -51 48 27 -47
58 10 -51 35 -59 -22 -75 -12
73 26 58 -100 -16 -3 108 91
-40 -65 4 -93 43 24 121 4
-127 4 -62 -46 -22 -29 4 4
106 84 62 -79 -45 10 16 75
36 -66 -18 -49 -1 102 -86 -40
5 9 33 58 19 -82 34 29
19 43 -1 4 12 -2 -36 -20
0 -60 -11 111 -23 62 19 -10
-69 98 -59 5 -65 -71 -32 -3
16 51 24 16 45 -15 28 -25

Conv2D;StatefulPartitionedCall/StatefulPartitionedCall/PartitionedCall_142/PartitionedCall/Conv2D i1 [96, 1, 1, 16]
00000000: dc7a 3281 403c 7030 f652 38f2 3515 dc20
00000010: 6064 d723 89c1 434f 1d86 c73a 9cd3 a87f
00000020: f141 0316 b645 f7fa e113 aaef f5b6 813e
00000030: 7f3e d62c 0100 a901 377c 31e8 b34f 94d9
00000040: 86bd 3299 e169 7f16 e9fc 1925 2cd1 1f6d
00000050: 7508 ebd9 5fe4 8172 32af 5b8a 95db 0c02
00000060: 7fde 0f51 9f59 8317 b3d4 0c85 6091 4f4c
00000070: b353 2d9f 323a 2833 5837 04a5 4dd1 8281
00000080: e5ea 4783 440d 7f4d d25b 4927 2534 98c6
00000090: 4c4c 94ed f631 ee18 a781 b2d7 4b40 45df
000000a0: e8e2 2d5f e9e1 1df7 b0bc ca14 ccef 7f44
000000b0: df52 097f f3d4 adf0 30be b167 8cf3 54b7
000000c0: 2d7f 7b1c 7c83 b729 3f3b 20be 4c91 7a69
000000d0: 4e8f aaff 6fe5 a857 5ddf 5889 8150 229a
000000e0: 557f 6a52 c38d a7b4 1bb3 e097 d99e 9264
000000f0: d3f5 d40e 8673 6ca3 83a7 907f 9fda b635
-36 122 50 -127 64 60 112 48
-10 82 56 -14 53 21 -36 32
96 100 -41 35 -119 -63 67 79
29 -122 -57 58 -100 -45 -88 127
-15 65 3 22 -74 69 -9 -6
-31 19 -86 -17 -11 -74 -127 62
127 62 -42 44 1 0 -87 1
55 124 49 -24 -77 79 -108 -39
-122 -67 50 -103 -31 105 127 22
-23 -4 25 37 44 -47 31 109
117 8 -21 -39 95 -28 -127 114
50 -81 91 -118 -107 -37 12 2
127 -34 15 81 -97 89 -125 23
-77 -44 12 -123 96 -111 79 76
-77 83 45 -97 50 58 40 51
88 55 4 -91 77 -47 -126 -127
-27 -22 71 -125 68 13 127 77
-46 91 73 39 37 52 -104 -58
76 76 -108 -19 -10 49 -18 24
-89 -127 -78 -41 75 64 69 -33
-24 -30 45 95 -23 -31 29 -9
-80 -68 -54 20 -52 -17 127 68
-33 82 9 127 -13 -44 -83 -16
48 -66 -79 103 -116 -13 84 -73
45 127 123 28 124 -125 -73 41
63 59 32 -66 76 -111 122 105
78 -113 -86 -1 111 -27 -88 87
93 -33 88 -119 -127 80 34 -102
85 127 106 82 -61 -115 -89 -76
27 -77 -32 -105 -39 -98 -110 100
-45 -11 -44 14 -122 115 108 -93
-125 -89 -112 127 -97 -38 -74 53

Conv2D;StatefulPartitionedCall/StatefulPartitionedCall/PartitionedCall_148/PartitionedCall/Conv2D i1 [16, 1, 1, 96]
00000000: 5010 ea05 241b 0ff9 fc07 2e0a e81f 851a
00000010: 0ce8 0211 02f0 11ff 0217 1f0b 01fb fcfe
00000020: 190e 6304 021e 11f7 02fb 0ff1 fe13 ad15
00000030: f8ab 0916 ed17 11eb 7f01 e0fe d00c fb08
00000040: fa0f 05fe f60d 0417 524f f878 c5f8 0d0b
00000050: 0904 0c8b 1505 23f5 ffff e70e f9a4 17af
00000060: bc0f 0883 f6e8 f7ed 02e9 e402 0fe5 dde3
00000070: ee0b dbe4 3efe 04eb f602 df15 13ea fc0d
00000080: f0f1 8ef6 0ef7 ed11 bbef 00ea fae6 c616
00000090: f67e fbee 0500 e6df 81fd 03eb eaf5 0e08
000000a0: f0f6 0cfe f0fa f3fd 9aeb f130 a5f4 11ed
000000b0: fdf2 1ab9 fdee ed08 f50f f0fe 154c e078
000000c0: dc02 fcd1 f51a 12f7 fe07 a1f5 0014 fe02
000000d0: 08fb fdfd fafd 12f2 f60c 0102 f804 0335
000000e0: 06ec cbf4 051e fe12 fe0c 0009 043a e319
000000f0: f0fa 0a0b 041b f9aa fbf9 22f8 0007 00ef
80 16 -22 5 36 27 15 -7
-4 7 46 10 -24 31 -123 26
12 -24 2 17 2 -16 17 -1
2 23 31 11 1 -5 -4 -2
25 14 99 4 2 30 17 -9
2 -5 15 -15 -2 19 -83 21
-8 -85 9 22 -19 23 17 -21
127 1 -32 -2 -48 12 -5 8
-6 15 5 -2 -10 13 4 23
82 79 -8 120 -59 -8 13 11
9 4 12 -117 21 5 35 -11
-1 -1 -25 14 -7 -92 23 -81
-68 15 8 -125 -10 -24 -9 -19
2 -23 -28 2 15 -27 -35 -29
-18 11 -37 -28 62 -2 4 -21
-10 2 -33 21 19 -22 -4 13
-16 -15 -114 -10 14 -9 -19 17
-69 -17 0 -22 -6 -26 -58 22
-10 126 -5 -18 5 0 -26 -33
-127 -3 3 -21 -22 -11 14 8
-16 -10 12 -2 -16 -6 -13 -3
-102 -21 -15 48 -91 -12 17 -19
-3 -14 26 -71 -3 -18 -19 8
-11 15 -16 -2 21 76 -32 120
-36 2 -4 -47 -11 26 18 -9
-2 7 -95 -11 0 20 -2 2
8 -5 -3 -3 -6 -3 18 -14
-10 12 1 2 -8 4 3 53
6 -20 -53 -12 5 30 -2 18
-2 12 0 9 4 58 -29 25
-16 -6 10 11 4 27 -7 -86
-5 -7 34 -8 0 7 0 -17

Conv2D;StatefulPartitionedCall/StatefulPartitionedCall/PartitionedCall_153/PartitionedCall/Conv2D i1 [96, 1, 1, 16]
00000000: 49c0 c2e7 b481 8ca8 7ac3 a6fa 9c4c 6689
00000010: e9d5 81e6 14f1 3e08 5e4b 3f4e 3d42 a8a0
00000020: 81eb d891 0b3a 6406 4fd9 653b 969b 174c
00000030: 177f 582c 691d 5c57 3249 7ae5 c5da a198
00000040: 69fa 2dd7 6f13 1673 e99a 6d9d 216b 507f
00000050: a452 f87f a7c4 e6ab 9836 8c44 3bc4 d644
00000060: 7190 f4d2 3d51 3b0c 4830 02f4 917f 1308
00000070: 27d9 3947 77f4 8176 1cf3 00ab 1471 c39b
00000080: 0d14 62e4 49ee bf58 bb81 b099 5373 5162
00000090: 8fe3 25de 2821 7f3c ab98 1f00 0fbf 0703
000000a0: f081 0fdf 504b d435 fa04 f3ac a11a 458c
000000b0: 3eb4 d481 7d23 7b78 4447 ce88 7991 8485
000000c0: e8df bb2e ac85 83b2 b3f2 ba2c 5e7f ade2
000000d0: 51a8 b811 0611 a600 3e73 1c1a d57f bd9d
000000e0: 4dd1 31dc 0e26 e107 5a68 1024 8131 d691
000000f0: dfe6 b42a c3c7 acc6 7f5b e042 c1d0 d7d3
73 -64 -62 -25 -76 -127 -116 -88
122 -61 -90 -6 -100 76 102 -119
-23 -43 -127 -26 20 -15 62 8
94 75 63 78 61 66 -88 -96
-127 -21 -40 -111 11 58 100 6
79 -39 101 59 -106 -101 23 76
23 127 88 44 105 29 92 87
50 73 122 -27 -59 -38 -95 -104
105 -6 45 -41 111 19 22 115
-23 -102 109 -99 33 107 80 127
-92 82 -8 127 -89 -60 -26 -85
-104 54 -116 68 59 -60 -42 68
113 -112 -12 -46 61 81 59 12
72 48 2 -12 -111 127 19 8
39 -39 57 71 119 -12 -127 118
28 -13 0 -85 20 113 -61 -101
13 20 98 -28 73 -18 -65 88
-69 -127 -80 -103 83 115 81 98
-113 -29 37 -34 40 33 127 60
-85 -104 31 0 15 -65 7 3
-16 -127 15 -33 80 75 -44 53
-6 4 -13 -84 -95 26 69 -116
62 -76 -44 -127 125 35 123 120
68 71 -50 -120 121 -111 -124 -123
-24 -33 -69 46 -84 -123 -125 -78
-77 -14 -70 44 94 127 -83 -30
81 -88 -72 17 6 17 -90 0
62 115 28 26 -43 127 -67 -99
77 -47 49 -36 14 38 -31 7
90 104 16 36 -127 49 -42 -111
-33 -26 -76 42 -61 -57 -84 -58
127 91 -32 66 -63 -48 -41 -45

Conv2D;StatefulPartitionedCall/StatefulPartitionedCall/PartitionedCall_159/PartitionedCall/Conv2D i1 [16, 1, 1, 96]
00000000: 32fc 22e4 e4e7 2ab4 bef3 fc1f 09f6 d2c4
00000010: fe1b 04d2 2eff a1a3 f3e8 dc3b fedb 1a19
00000020: e2ff 206e d2ad d5d3 f90a 1409 e4f1 25e2
00000030: e9dc e6fa e737 c825 0518 1d4a 334b 1303
00000040: fc18 1bce d4e9 ff03 cff6 c6df d00f e2f5
00000050: f001 1d6a 7f4e e20c 61f8 e0fd f713 f5d2
00000060: e6b7 ad3e 0736 0af1 f1ef f90d 05c1 b1e5
00000070: 140d 0113 8818 39e8 04db 39f7 011e c22c
00000080: 0fe0 24dd f0f3 dbdc 2027 0415 7fbd 1a03
00000090: 33cb c030 c117 d1e1 0ee4 f590 f81d f7d5
000000a0: 1b3a fac5 3cff f2e4 de08 cd14 b70f e81a
000000b0: 1200 ec17 0d1a 8214 19ec 28e0 f7de e0c5
000000c0: 1b4d ce14 8c09 f6c5 ce22 9adc 10d7 db13
000000d0: 2dcf eb26 0903 3dd2 1408 2e0e dd81 c99f
000000e0: 3afa fb00 ecee 19f2 ff21 5bd1 2efd e3df
000000f0: e524 f3a2 11ff 2e10 f1e0 0612 1bfd b0d6
50 -4 34 -28 -28 -25 42 -76
-66 -13 -4 31 9 -10 -46 -60
-2 27 4 -46 46 -1 -95 -93
-13 -24 -36 59 -2 -37 26 25
-30 -1 32 110 -46 -83 -43 -45
-7 10 20 9 -28 -15 37 -30
-23 -36 -26 -6 -25 55 -56 37
5 24 29 74 51 75 19 3
-4 24 27 -50 -44 -23 -1 3
-49 -10 -58 -33 -48 15 -30 -11
-16 1 29 106 127 78 -30 12
97 -8 -32 -3 -9 19 -11 -46
-26 -73 -83 62 7 54 10 -15
-15 -17 -7 13 5 -63 -79 -27
20 13 1 19 -120 24 57 -24
4 -37 57 -9 1 30 -62 44
15 -32 36 -35 -16 -13 -37 -36
32 39 4 21 127 -67 26 3
51 -53 -64 48 -63 23 -47 -31
14 -28 -11 -112 -8 29 -9 -43
27 58 -6 -59 60 -1 -14 -28
-34 8 -51 20 -73 15 -24 26
18 0 -20 23 13 26 -126 20
25 -20 40 -32 -9 -34 -32 -59
27 77 -50 20 -116 9 -10 -59
-50 34 -102 -36 16 -41 -37 19
45 -49 -21 38 9 3 61 -46
20 8 46 14 -35 -127 -55 -97
58 -6 -5 0 -20 -18 25 -14
-1 33 91 -47 46 -3 -29 -33
-27 36 -13 -94 17 -1 46 16
-15 -32 6 18 27 -3 -80 -42
