collected_models/Magic_Wand_2.tflite (tflite, 31256 bytes, 4 tensors)

std.constant1 i1 [10, 64] scale=0.013441577 zero_point=0
000000 e7 0a 0a 12 f2 dd 09 f7 03 e4 08 d3 d1 b8 f8 0b
       -0.33603942 0.13441576 0.13441576 0.24194838 -0.18818207 -0.47045517 0.12097419 -0.12097419 0.04032473 -0.37636414 0.10753261 -0.604871 -0.6317541 -0.9677935 -0.10753261 0.14785734
000010 c1 13 f6 07 0c ca 17 15 fb d2 15 09 11 15 e2 d7
       -0.84681934 0.25538996 -0.13441576 0.094091035 0.16129892 -0.72584516 0.30915627 0.2822731 -0.06720788 -0.61831254 0.2822731 0.12097419 0.2285068 0.2822731 -0.4032473 -0.55110466
000020 03 fa f4 fe 14 fa 06 b8 0c 0c 13 09 f5 03 0e eb
       0.04032473 -0.08064946 -0.16129892 -0.026883153 0.26883152 -0.08064946 0.08064946 -0.9677935 0.16129892 0.16129892 0.25538996 0.12097419 -0.14785734 0.04032473 0.18818207 -0.2822731
000030 c5 f6 11 17 05 b8 e5 f5 d3 11 d6 ba 10 f8 1c 0c
       -0.79305303 -0.13441576 0.2285068 0.30915627 0.06720788 -0.9677935 -0.36292258 -0.14785734 -0.604871 0.2285068 -0.5645462 -0.94091034 0.21506523 -0.10753261 0.37636414 0.16129892
000040 ae b3 09 11 b6 09 b4 a9 a5 8b 0d 0b 01 06 9f 0c
       -1.1022093 -1.0350014 0.12097419 0.2285068 -0.99467665 0.12097419 -1.0215598 -1.1694171 -1.2231835 -1.5726645 0.1747405 0.14785734 0.013441577 0.08064946 -1.3038329 0.16129892
000050 11 13 b3 13 9d 0c 18 0c ae 0f ee c5 ee 23 fa 0f
       0.2285068 0.25538996 -1.0350014 0.25538996 -1.3307161 0.16129892 0.32259783 0.16129892 -1.1022093 0.20162365 -0.24194838 -0.79305303 -0.24194838 0.47045517 -0.08064946 0.20162365
000060 0b b0 9b 93 c7 f2 c0 07 0d 0d 18 ca 18 a6 11 b3
       0.14785734 -1.0753261 -1.3575993 -1.4651319 -0.76616985 -0.18818207 -0.8602609 0.094091035 0.1747405 0.1747405 0.32259783 -0.72584516 0.32259783 -1.209742 0.2285068 -1.0350014
000070 11 fe 18 c8 c6 11 8f 98 07 c9 eb 0c 02 9e e9 fb
       0.2285068 -0.026883153 0.32259783 -0.7527283 -0.77961147 0.2285068 -1.5188981 -1.397924 0.094091035 -0.7392867 -0.2822731 0.16129892 0.026883153 -1.3172745 -0.30915627 -0.06720788
000080 17 af 01 da da f5 fd b0 02 d8 08 02 0f 14 08 bf
       0.30915627 -1.0887676 0.013441577 -0.5107799 -0.5107799 -0.14785734 -0.04032473 -1.0753261 0.026883153 -0.53766304 0.10753261 0.026883153 0.20162365 0.26883152 0.10753261 -0.87370247
000090 ee cf d1 e9 e6 fe da 10 a7 d7 b4 13 05 e6 0c cc
       -0.24194838 -0.6586372 -0.6317541 -0.30915627 -0.349481 -0.026883153 -0.5107799 0.21506523 -1.1963003 -0.55110466 -1.0215598 0.25538996 0.06720788 -0.349481 0.16129892 -0.698962
0000a0 e9 ed e7 f5 b8 f3 0c 00 0a 06 1d 06 df a3 e7 f1
       -0.30915627 -0.25538996 -0.33603942 -0.14785734 -0.9677935 -0.1747405 0.16129892 0.0 0.13441576 0.08064946 0.38980573 0.08064946 -0.443572 -1.2500666 -0.33603942 -0.20162365
0000b0 ee c1 10 1b 12 e8 f2 cb 05 9e 0e f8 0d 0d f9 0b
       -0.24194838 -0.84681934 0.21506523 0.36292258 0.24194838 -0.32259783 -0.18818207 -0.71240354 0.06720788 -1.3172745 0.18818207 -0.10753261 0.1747405 0.1747405 -0.094091035 0.14785734
0000c0 f7 ed de ac ec 05 02 fa 07 12 d9 08 07 ff 01 f2
       -0.12097419 -0.25538996 -0.4570136 -1.1290925 -0.26883152 0.06720788 0.026883153 -0.08064946 0.094091035 0.24194838 -0.5242215 0.10753261 0.094091035 -0.013441577 0.013441577 -0.18818207
0000d0 fd ac db cf ec 07 ab e7 fa fa c1 0a f9 0c 08 d0
       -0.04032473 -1.1290925 -0.49733832 -0.6586372 -0.26883152 0.094091035 -1.142534 -0.33603942 -0.08064946 -0.08064946 -0.84681934 0.13441576 -0.094091035 0.16129892 0.10753261 -0.64519566
0000e0 c4 0f 07 0f be f3 0a 06 bb b9 aa 10 e4 f9 9e 09
       -0.8064946 0.20162365 0.094091035 0.20162365 -0.887144 -0.1747405 0.13441576 0.08064946 -0.9274688 -0.95435196 -1.1559756 0.21506523 -0.37636414 -0.094091035 -1.3172745 0.12097419
0000f0 f7 c9 c6 11 0b ff 10 fa 04 be 02 02 f0 08 f6 0a
       -0.12097419 -0.7392867 -0.77961147 0.2285068 0.14785734 -0.013441577 0.21506523 -0.08064946 0.053766306 -0.887144 0.026883153 0.026883153 -0.21506523 0.10753261 -0.13441576 0.13441576

std.constant2 i1 [32, 3, 3, 16]
000000 3c 02 fb 1b 1e 0b 1a 0d 18 16 1c d3 4e 04 f7 b3
       60 2 -5 27 30 11 26 13 24 22 28 -45 78 4 -9 -77
000010 49 fe ec d1 1a de 25 0b 09 03 18 09 36 cb e3 d4
       73 -2 -20 -47 26 -34 37 11 9 3 24 9 54 -53 -29 -44
000020 21 05 d9 d9 15 bc 1a 0c 17 0f 1f 30 3c d1 ef 03
       33 5 -39 -39 21 -68 26 12 23 15 31 48 60 -47 -17 3
000030 4f fe 1d 04 05 26 03 d9 ff ee 0b 13 2a 34 1c b8
       79 -2 29 4 5 38 3 -39 -1 -18 11 19 42 52 28 -72
000040 5b 0a 1b cb 12 19 26 ee 00 fe 12 2c 40 12 11 de
       91 10 27 -53 18 25 38 -18 0 -2 18 44 64 18 17 -34
000050 4c 0f 15 f3 11 04 28 06 14 0b 0b 13 4e 09 19 ed
       76 15 21 -13 17 4 40 6 20 11 11 19 78 9 25 -19
000060 21 10 14 02 93 20 12 a9 93 ea 87 0c 05 05 3c d7
       33 16 20 2 -109 32 18 -87 -109 -22 -121 12 5 5 60 -41
000070 34 1b 1a e8 ae 1b 18 ae 81 ec ae 24 2d 13 22 e8
       52 27 26 -24 -82 27 24 -82 -127 -20 -82 36 45 19 34 -24
000080 34 1a 1c 08 df 26 2b bf 93 f9 da 04 36 f4 20 d7
       52 26 28 8 -33 38 43 -65 -109 -7 -38 4 54 -12 32 -41
000090 fc fc d5 f1 fd d3 fe 08 08 07 fe 07 fc db 18 0d
       -4 -4 -43 -15 -3 -45 -2 8 8 7 -2 7 -4 -37 24 13
0000a0 f6 fa a8 03 09 a2 fa 02 0e 16 0b 0d 12 b2 da 0d
       -10 -6 -88 3 9 -94 -6 2 14 22 11 13 18 -78 -38 13
0000b0 f9 f2 d6 0b 07 d4 f9 02 0c 0d 0e 07 07 b4 f4 01
       -7 -14 -42 11 7 -44 -7 2 12 13 14 7 7 -76 -12 1
0000c0 e8 08 b3 f8 08 ba 0f 07 06 18 0c f3 01 d6 f6 09
       -24 8 -77 -8 8 -70 15 7 6 24 12 -13 1 -42 -10 9
0000d0 e9 f0 8c 05 09 91 ff 11 0a 12 03 00 fd 81 c3 ff
       -23 -16 -116 5 9 -111 -1 17 10 18 3 0 -3 -127 -61 -1
0000e0 ec ef 97 0c 12 a3 f9 09 06 0d 0b f5 fc ae e3 07
       -20 -17 -105 12 18 -93 -7 9 6 13 11 -11 -4 -82 -29 7
0000f0 0b 04 b2 03 0a 9c 12 0a 03 0c 0a 05 06 e3 01 05
       11 4 -78 3 10 -100 18 10 3 12 10 5 6 -29 1 5

std.constant3 i1 [64, 3, 3, 32]
000000 1c d5 22 38 0e f1 14 1a e6 fd 11 f1 cf d0 fd f5
       28 -43 34 56 14 -15 20 26 -26 -3 17 -15 -49 -48 -3 -11
000010 a8 0f c1 aa b2 ef f4 49 51 eb 1a 4d d1 09 da 98
       -88 15 -63 -86 -78 -17 -12 73 81 -21 26 77 -47 9 -38 -104
000020 f8 e9 f5 2b 10 24 01 32 d0 f1 f6 da c4 10 fe ff
       -8 -23 -11 43 16 36 1 50 -48 -15 -10 -38 -60 16 -2 -1
000030 f0 00 81 94 9c b1 2a 3a 52 03 2d 22 97 02 ea c9
       -16 0 -127 -108 -100 -79 42 58 82 3 45 34 -105 2 -22 -55
000040 14 fd 18 30 12 fa fd 06 b4 1a 17 0e ce 00 fa 20
       20 -3 24 48 18 -6 -3 6 -76 26 23 14 -50 0 -6 32
000050 f6 0d bd f4 c5 eb 18 34 31 0c 11 31 c6 16 f5 d0
       -10 13 -67 -12 -59 -21 24 52 49 12 17 49 -58 22 -11 -48
000060 26 f1 2e 11 14 17 f1 58 dc 48 04 df b7 06 04 2a
       38 -15 46 17 20 23 -15 88 -36 72 4 -33 -73 6 4 42
000070 a8 21 bf c1 cd dd 11 64 34 00 34 5b cd de d5 9b
       -88 33 -65 -63 -51 -35 17 100 52 0 52 91 -51 -34 -43 -101
000080 23 02 0d 29 fc 17 d9 38 e4 42 f7 bd a6 0d ee 0b
       35 2 13 41 -4 23 -39 56 -28 66 -9 -67 -90 13 -18 11
000090 cf f1 95 c6 c1 c7 f8 37 1e ea 2b 2a ce f1 e6 ca
       -49 -15 -107 -58 -63 -57 -8 55 30 -22 43 42 -50 -15 -26 -54
0000a0 19 21 ff e2 1c f7 dd 21 c4 3d 14 fe e0 4d d9 1b
       25 33 -1 -30 28 -9 -35 33 -60 61 20 -2 -32 77 -39 27
0000b0 f2 dc cb ff 0b c6 28 38 18 0e 19 33 d7 10 e1 dd
       -14 -36 -53 -1 11 -58 40 56 24 14 25 51 -41 16 -31 -35
0000c0 28 bb 16 03 11 26 e7 31 0a 02 04 03 b1 11 d1 14
       40 -69 22 3 17 38 -25 49 10 2 4 3 -79 17 -47 20
0000d0 ad 13 d5 e9 ef 0d f3 1d 07 c7 31 0c 0a d8 e6 be
       -83 19 -43 -23 -17 13 -13 29 7 -57 49 12 10 -40 -26 -66
0000e0 1c ef 16 10 c3 51 0b 44 f3 0b 02 e1 9a 13 e2 e7
       28 -17 22 16 -61 81 11 68 -13 11 2 -31 -102 19 -30 -25
0000f0 a8 ea b0 de d7 c2 35 29 1b f5 5a 39 c3 e7 ec d3
       -88 -22 -80 -34 -41 -62 53 41 27 -11 90 57 -61 -25 -20 -45

;;conv2d_3/bias;;1 i1 [16, 3, 3, 3]
000000 d9 fc 10 95 28 e9 ec 1d fa ef a5 bc bf 90 f3 46
       -39 -4 16 -107 40 -23 -20 29 -6 -17 -91 -68 -65 -112 -13 70
000010 08 e7 81 2a fa e3 ec df 32 fd fd 13 37 9d 32 1a
       8 -25 -127 42 -6 -29 -20 -33 50 -3 -3 19 55 -99 50 26
000020 e4 4b f4 05 0a 49 81 2b 36 e4 5e 05 ff 04 42 95
       -28 75 -12 5 10 73 -127 43 54 -28 94 5 -1 4 66 -107
000030 19 29 fa 36 07 fa a6 f9 fa e0 0e f3 f8 08 fa b6
       25 41 -6 54 7 -6 -90 -7 -6 -32 14 -13 -8 8 -6 -74
000040 ea fe c8 35 81 e1 19 bf 12 da 00 05 fa ff f3 0b
       -22 -2 -56 53 -127 -31 25 -65 18 -38 0 5 -6 -1 -13 11
000050 eb c8 32 22 30 a9 92 fb 10 0a e4 29 02 4b a0 81
       -21 -56 50 34 48 -87 -110 -5 16 10 -28 41 2 75 -96 -127
000060 d9 2e 16 21 e8 18 03 f2 e1 f1 19 04 14 f0 5b fe
       -39 46 22 33 -24 24 3 -14 -31 -15 25 4 20 -16 91 -2
000070 ff 76 a9 0d 4f 1d f8 57 10 fa 6e 18 00 78 11 fb
       -1 118 -87 13 79 29 -8 87 16 -6 110 24 0 120 17 -5
000080 53 ff fd 7f 00 02 74 a7 0e ec e3 0c fb f9 07 02
       83 -1 -3 127 0 2 116 -89 14 -20 -29 12 -5 -7 7 2
000090 87 20 81 ec 13 c7 ec 09 f1 9e 1d 96 d3 1b 86 da
       -121 32 -127 -20 19 -57 -20 9 -15 -98 29 -106 -45 27 -122 -38
0000a0 17 ba e6 38 da da 50 01 c1 18 fe e0 53 d3 d1 5e
       23 -70 -26 56 -38 -38 80 1 -63 24 -2 -32 83 -45 -47 94
0000b0 0b e1 42 03 e3 4b d9 c1 7f 01 c3 69 e2 1c f5 ba
       11 -31 66 3 -29 75 -39 -63 127 1 -61 105 -30 28 -11 -70
0000c0 5a c1 37 75 c1 0d 17 f3 3b 2c fc 6a 29 f4 42 1f
       90 -63 55 117 -63 13 23 -13 59 44 -4 106 41 -12 66 31
0000d0 f1 7a 1a f5 7f 02 fb 6a ff 05 46 26 ff 69 7f f1
       -15 122 26 -11 127 2 -5 106 -1 5 70 38 -1 105 127 -15
0000e0 46 1d fb 37 36 fd 6b 59 f4 6a 00 02 12 5f da 4a
       70 29 -5 55 54 -3 107 89 -12 106 0 2 18 95 -38 74
0000f0 69 cc 25 f3 15 07 f5 0e 30 06 e2 c2 f3 0f fd cd
       105 -52 37 -13 21 7 -11 14 48 6 -30 -62 -13 15 -3 -51
