collected_models/Micro_Speech_Yes_No_4.tflite (tflite, 8864 bytes, 3 tensors)

final_fc_weights/read/transpose i1 [4, 96] scale=0.0012997008 zero_point=0
-0.009097906 -0.0103976065 -0.0038991026 0.0051988033 -0.0051988033 -0.0012997008 0.011697307 -0.007798205
0.0 0.011697307 -0.0025994016 0.007798205 -0.0038991026 0.0012997008 0.01689611 0.006498504
-0.0025994016 0.007798205 0.0012997008 -0.007798205 -0.0051988033 0.007798205 0.009097906 0.009097906
-0.053287733 -0.12737069 -0.041590426 -0.032492522 -0.022094915 -0.09747756 0.03509192 -0.058486536
-0.01559641 -0.07668235 0.0 -0.012997008 -0.009097906 -0.04678923 0.024694316 0.0038991026
-0.01559641 -0.03379222 0.0051988033 -0.038991023 -0.022094915 0.0012997008 0.022094915 -0.0038991026
-0.06628474 -0.1507653 -0.06368534 -0.09357846 -0.032492522 -0.13256948 0.05198803 -0.057186835
-0.018195812 -0.090979055 -0.03379222 -0.01559641 -0.019495511 -0.06758444 0.029893119 -0.012997008
-0.014296709 -0.055887137 0.014296709 -0.03509192 -0.022094915 -0.027293717 0.0 0.020795213
0.084480554 -0.03509192 0.007798205 -0.025994016 0.07018384 -0.028593417 0.16506201 0.09617786
0.08188115 -0.025994016 0.0 -0.028593417 0.041590426 -0.025994016 0.07018384 0.08318085
0.03119282 -0.0012997008 0.012997008 -0.036391623 0.007798205 0.0012997008 0.028593417 0.032492522
-0.0051988033 0.0025994016 -0.006498504 0.0051988033 -0.007798205 0.0025994016 -0.006498504 -0.007798205
-0.0025994016 -0.0103976065 -0.0103976065 0.009097906 -0.007798205 0.0 0.0012997008 -0.0012997008
-0.007798205 -0.018195812 -0.007798205 -0.006498504 -0.006498504 -0.0012997008 -0.006498504 -0.0012997008
0.020795213 0.025994016 0.024694316 0.022094915 0.0051988033 0.037691325 -0.009097906 0.019495511
0.038991023 0.018195812 0.0038991026 0.059786238 0.045489527 0.025994016 -0.0103976065 0.025994016
-0.007798205 0.020795213 -0.0103976065 -0.023394614 -0.023394614 -0.007798205 -0.007798205 -0.01689611
0.028593417 0.03509192 0.025994016 0.04808893 0.019495511 0.045489527 0.006498504 0.028593417
0.06108594 0.024694316 0.011697307 0.08058145 0.06758444 0.05198803 0.0051988033 0.022094915
-0.022094915 0.0103976065 -0.01689611 -0.012997008 -0.01689611 0.0025994016 -0.018195812 -0.022094915
0.0025994016 0.014296709 0.014296709 0.0038991026 -0.024694316 0.007798205 -0.022094915 -0.020795213
0.0 0.018195812 0.0 0.04418983 0.0103976065 -0.0012997008 -0.036391623 -0.01689611
-0.05068833 -0.023394614 0.006498504 -0.03379222 -0.029893119 -0.011697307 -0.027293717 -0.03509192
-0.006498504 -0.0038991026 -0.009097906 0.0025994016 -0.0038991026 -0.0025994016 -0.006498504 -0.0103976065
0.0012997008 -0.0051988033 -0.0103976065 0.0051988033 -0.0051988033 -0.0051988033 0.0051988033 0.006498504
0.007798205 0.018195812 -0.0025994016 0.0012997008 0.0012997008 0.0038991026 0.0 0.006498504
0.0025994016 0.041590426 -0.0025994016 0.014296709 -0.0051988033 0.019495511 -0.018195812 -0.0025994016
-0.0025994016 0.009097906 -0.0103976065 0.01559641 0.018195812 0.01689611 0.0 0.01689611
0.059786238 -0.012997008 0.012997008 0.06888414 0.07928175 0.018195812 0.011697307 0.024694316
-0.009097906 0.036391623 -0.0051988033 0.024694316 0.0 0.014296709 -0.024694316 -0.006498504
0.019495511 0.01689611 0.0012997008 0.0012997008 0.01559641 0.041590426 0.018195812 0.025994016
00000000: f9f8 fd04 fcff 09fa 0009 fe06 fd01 0d05
00000010: fe06 01fa fc06 0707 d79e e0e7 efb5 1bd3
00000020: f4c5 00f6 f9dc 1303 f4e6 04e2 ef01 11fd
00000030: cd8c cfb8 e79a 28d4 f2ba e6f4 f1cc 17f6
00000040: f5d5 0be5 efeb 0010 41e5 06ec 36ea 7f4a
00000050: 3fec 00ea 20ec 3640 18ff 0ae4 0601 1619
00000060: fc02 fb04 fa02 fbfa fef8 f807 fa00 01ff
00000070: faf2 fafb fbff fbff 1014 1311 041d f90f
00000080: 1e0e 032e 2314 f814 fa10 f8ee eefa faf3
00000090: 161b 1425 0f23 0516 2f13 093e 3428 0411
000000a0: ef08 f3f6 f302 f2ef 020b 0b03 ed06 eff0
000000b0: 000e 0022 08ff e4f3 d9ee 05e6 e9f7 ebe5
000000c0: fbfd f902 fdfe fbf8 01fc f804 fcfc 0405
000000d0: 060e fe01 0103 0005 0220 fe0b fc0f f2fe
000000e0: fe07 f80c 0e0d 000d 2ef6 0a35 3d0e 0913
000000f0: f91c fc13 000b edfb 0f0d 0101 0c20 0e14

first_weights/read i1 [1, 10, 8, 8]
68 -51 46 40 15 31 113 -31
65 28 40 -41 54 10 -5 49
77 -36 -5 57 17 75 95 -51
26 96 25 -34 49 38 -2 58
15 -2 30 51 -36 94 120 -36
33 15 127 -26 14 19 -6 38
-26 127 1 30 -96 60 35 -28
-24 40 39 -18 4 25 -62 -9
67 -13 1 29 15 -6 86 -40
17 -76 -13 -41 65 -4 -15 78
82 53 24 47 1 68 91 -36
11 -1 74 -12 25 32 -9 39
41 1 23 51 -27 82 65 12
12 55 23 -16 23 30 8 14
6 29 44 34 -113 66 -8 -75
-7 9 48 -17 -23 -26 -38 27
42 -72 -64 37 21 -20 94 -22
37 5 22 -37 52 -13 10 127
93 55 -12 60 1 42 78 -14
-4 -37 -16 -32 13 5 7 30
28 45 38 53 -8 73 59 -40
-8 16 39 -47 -4 -27 -32 46
-30 41 54 35 -104 58 7 -81
-26 58 4 -35 -30 -53 -61 -31
66 -5 -58 33 45 38 89 -4
10 26 11 -23 55 -28 0 86
57 -40 5 74 58 78 105 -40
-28 -19 37 -18 46 -6 9 24
17 -13 62 64 -13 89 62 -22
-31 72 26 -32 2 -19 1 90
12 -4 29 31 -58 41 0 -85
-19 53 -45 -58 -12 -53 -69 -6
00000000: 44cd 2e28 0f1f 71e1 411c 28d7 360a fb31
00000010: 4ddc fb39 114b 5fcd 1a60 19de 3126 fe3a
00000020: 0ffe 1e33 dc5e 78dc 210f 7fe6 0e13 fa26
00000030: e67f 011e a03c 23e4 e828 27ee 0419 c2f7
00000040: 43f3 011d 0ffa 56d8 11b4 f3d7 41fc f14e
00000050: 5235 182f 0144 5bdc 0bff 4af4 1920 f727
00000060: 2901 1733 e552 410c 0c37 17f0 171e 080e
00000070: 061d 2c22 8f42 f8b5 f909 30ef e9e6 da1b
00000080: 2ab8 c025 15ec 5eea 2505 16db 34f3 0a7f
00000090: 5d37 f43c 012a 4ef2 fcdb f0e0 0d05 071e
000000a0: 1c2d 2635 f849 3bd8 f810 27d1 fce5 e02e
000000b0: e229 3623 983a 07af e63a 04dd e2cb c3e1
000000c0: 42fb c621 2d26 59fc 0a1a 0be9 37e4 0056
000000d0: 39d8 054a 3a4e 69d8 e4ed 25ee 2efa 0918
000000e0: 11f3 3e40 f359 3eea e148 1ae0 02ed 015a
000000f0: 0cfc 1d1f c629 00ab ed35 d3c6 f4cb bbfa

second_weights/read i1 [8, 10, 8, 8]
-42 17 8 -73 -4 -9 -64 61
-17 -27 -41 -18 4 6 -43 -4
39 46 61 12 23 -30 -16 32
45 51 47 -10 13 -18 32 23
18 18 -10 -32 25 28 -12 16
20 27 -43 -35 9 25 3 19
30 -15 28 -60 14 6 -13 43
-3 -54 -6 -24 21 28 10 52
-34 0 -11 -38 13 24 -68 -7
-8 67 11 -13 9 -12 25 12
-17 -4 10 -11 16 -6 -9 -4
33 -7 -18 -4 27 49 41 30
26 17 13 -41 12 -1 -13 26
10 -6 18 -29 10 9 -32 18
8 -6 30 -6 23 -39 18 34
-4 -19 14 -39 27 -2 -23 4
-68 -27 -30 -58 -14 1 -47 -7
-17 -10 -7 3 7 -10 -1 -6
16 -29 11 31 11 32 -36 -7
31 2 9 13 15 40 42 1
-2 -44 1 8 27 32 56 9
11 2 -38 -11 18 -30 18 33
60 -16 23 6 43 -18 -2 33
14 -21 3 -33 22 8 7 35
-61 33 10 -59 -38 -38 -74 48
-44 5 30 3 -27 16 -12 63
1 -42 24 16 15 5 19 5
37 -23 5 24 -3 52 -16 -14
70 -45 52 24 9 12 43 22
43 17 31 32 10 -15 11 30
54 -41 17 5 38 -22 41 27
14 49 -22 22 16 43 14 -17
00000000: d611 08b7 fcf7 c03d efe5 d7ee 0406 d5fc
00000010: 272e 3d0c 17e2 f020 2d33 2ff6 0dee 2017
00000020: 1212 f6e0 191c f410 141b d5dd 0919 0313
00000030: 1ef1 1cc4 0e06 f32b fdca fae8 151c 0a34
00000040: de00 f5da 0d18 bcf9 f843 0bf3 09f4 190c
00000050: effc 0af5 10fa f7fc 21f9 eefc 1b31 291e
00000060: 1a11 0dd7 0cff f31a 0afa 12e3 0a09 e012
00000070: 08fa 1efa 17d9 1222 fced 0ed9 1bfe e904
00000080: bce5 e2c6 f201 d1f9 eff6 f903 07f6 fffa
00000090: 10e3 0b1f 0b20 dcf9 1f02 090d 0f28 2a01
000000a0: fed4 0108 1b20 3809 0b02 daf5 12e2 1221
000000b0: 3cf0 1706 2bee fe21 0eeb 03df 1608 0723
000000c0: c321 0ac5 dada b630 d405 1e03 e510 f43f
000000d0: 01d6 1810 0f05 1305 25e9 0518 fd34 f0f2
000000e0: 46d3 3418 090c 2b16 2b11 1f20 0af1 0b1e
000000f0: 36d7 1105 26ea 291b 0e31 ea16 102b 0eef
