collected_models/Move.tflite (tflite, 6480 bytes, 3 tensors)

sequential_1/dense_Dense1/MatMul/ReadVariableOp/transpose i1 [50, 60] scale=0.0026381423 zero_point=0
000000 ee 4c cb f2 ee 15 2b b2 c9 f6 de e6 2e 17 f9 aa
       -0.047486562 0.20049882 -0.13982154 -0.036933992 -0.047486562 0.05540099 0.11344012 -0.2057751 -0.14509782 -0.026381424 -0.08969684 -0.0685917 0.12135455 0.060677275 -0.018466996 -0.22688024
000010 fa 61 1f ca 3d 2a 4a 33 d5 d6 ba 0f ef f5 29 d0
       -0.015828853 0.25589982 0.081782416 -0.14245969 0.16092668 0.11080198 0.19522253 0.13454525 -0.11344012 -0.11080198 -0.18466996 0.039572135 -0.04484842 -0.029019566 0.10816383 -0.12663083
000020 43 d9 28 01 26 cb 35 eb 10 18 0d 2f d3 f7 46 fe
       0.17675553 -0.10288755 0.105525695 0.0026381423 0.10024941 -0.13982154 0.13982154 -0.05540099 0.042210277 0.063315414 0.03429585 0.12399269 -0.118716404 -0.023743281 0.18466996 -0.0052762846
000030 34 0e 03 ff ea 20 d2 1a 2b e0 19 1e 4f e5 38 d7
       0.1371834 0.036933992 0.007914427 -0.0026381423 -0.058039133 0.084420554 -0.12135455 0.0685917 0.11344012 -0.084420554 0.06595356 0.07914427 0.20841324 -0.071229845 0.14773597 -0.10816383
000040 10 ee 1c 09 31 a7 22 0a b1 f0 fb 0f 38 bf cc be
       0.042210277 -0.047486562 0.073867984 0.023743281 0.12926897 -0.23479466 0.08969684 0.026381424 -0.20841324 -0.042210277 -0.013190712 0.039572135 0.14773597 -0.17147925 -0.1371834 -0.17411739
000050 f7 cb 04 fc fc bf c2 dc 04 f6 e7 4a 0e fd 33 c5
       -0.023743281 -0.13982154 0.010552569 -0.010552569 -0.010552569 -0.17147925 -0.16356483 -0.094973125 0.010552569 -0.026381424 -0.06595356 0.19522253 0.036933992 -0.007914427 0.13454525 -0.15565039
000060 fa 38 03 03 17 d4 15 c6 b8 22 f8 fd ec 0e 12 f6
       -0.015828853 0.14773597 0.007914427 0.007914427 0.060677275 -0.116078265 0.05540099 -0.15301226 -0.18994625 0.08969684 -0.021105139 -0.007914427 -0.052762847 0.036933992 0.047486562 -0.026381424
000070 5f 39 d0 f6 d9 d0 33 1c d4 24 05 35 de e0 a0 44
       0.25062352 0.15037411 -0.12663083 -0.026381424 -0.10288755 -0.12663083 0.13454525 0.073867984 -0.116078265 0.094973125 0.013190712 0.13982154 -0.08969684 -0.084420554 -0.25326166 0.17939368
000080 32 fb 38 34 c1 de 39 1a ca 2f d0 23 d8 ee 2a 33
       0.13190712 -0.013190712 0.14773597 0.1371834 -0.16620296 -0.08969684 0.15037411 0.0685917 -0.14245969 0.12399269 -0.12663083 0.09233498 -0.105525695 -0.047486562 0.11080198 0.13454525
000090 25 08 c8 c2 b7 eb 04 bb f5 ff 3e ef f0 de 02 fe
       0.09761126 0.021105139 -0.14773597 -0.16356483 -0.1925844 -0.05540099 0.010552569 -0.18203183 -0.029019566 -0.0026381423 0.16356483 -0.04484842 -0.042210277 -0.08969684 0.0052762846 -0.0052762846
0000a0 1a be 15 f3 4b f6 ae f6 ef ac fb 4b fc d5 d9 ca
       0.0685917 -0.17411739 0.05540099 -0.03429585 0.19786067 -0.026381424 -0.21632767 -0.026381424 -0.04484842 -0.22160396 -0.013190712 0.19786067 -0.010552569 -0.11344012 -0.10288755 -0.14245969
0000b0 17 0b fa f3 12 bf 40 fb f5 45 1f 61 fd 24 23 25
       0.060677275 0.029019566 -0.015828853 -0.03429585 0.047486562 -0.17147925 0.16884111 -0.013190712 -0.029019566 0.18203183 0.081782416 0.25589982 -0.007914427 0.094973125 0.09233498 0.09761126
0000c0 f9 1f d1 31 f9 ba b1 26 d3 ac 49 16 15 fa a9 f5
       -0.018466996 0.081782416 -0.12399269 0.12926897 -0.018466996 -0.18466996 -0.20841324 0.10024941 -0.118716404 -0.22160396 0.1925844 0.058039133 0.05540099 -0.015828853 -0.22951838 -0.029019566
0000d0 c0 e3 e0 31 f6 ce ca eb f6 32 3e 1f 0a ea c3 31
       -0.16884111 -0.07650613 -0.084420554 0.12926897 -0.026381424 -0.13190712 -0.14245969 -0.05540099 -0.026381424 0.13190712 0.16356483 0.081782416 0.026381424 -0.058039133 -0.16092668 0.12926897
0000e0 26 bc 2f a9 ab 28 eb df 06 ed cb 06 f6 63 c5 08
       0.10024941 -0.17939368 0.12399269 -0.22951838 -0.22424209 0.105525695 -0.05540099 -0.08705869 0.015828853 -0.050124705 -0.13982154 0.015828853 -0.026381424 0.26117608 -0.15565039 0.021105139
0000f0 e8 e5 23 5b db de ea fe 02 ce 09 d4 40 d0 53 f8
       -0.063315414 -0.071229845 0.09233498 0.24007095 -0.09761126 -0.08969684 -0.058039133 -0.0052762846 0.0052762846 -0.13190712 0.023743281 -0.116078265 0.16884111 -0.12663083 0.21896581 -0.021105139

sequential_1/dense_Dense2/MatMul/ReadVariableOp/transpose i1 [15, 50] scale=0.003792232 zero_point=0
000000 18 15 5b 08 cf f5 20 ca 09 0b cc 17 17 07 18 f4
       0.091013566 0.07963687 0.3450931 0.030337855 -0.18581936 -0.04171455 0.12135142 -0.20478052 0.03413009 0.04171455 -0.19719607 0.08722133 0.08722133 0.026545623 0.091013566 -0.045506783
000010 ed ea 08 f7 27 d5 c6 de 1c 07 d9 31 3a 41 19 e2
       -0.072052404 -0.0834291 0.030337855 -0.03413009 0.14789705 -0.16306597 -0.21994945 -0.12893589 0.10618249 0.026545623 -0.14789705 0.18581936 0.21994945 0.24649507 0.0948058 -0.11376695
000020 da 25 1f 16 3c d1 be 2f 0d f0 29 05 d1 20 ef e0
       -0.14410481 0.14031258 0.11755919 0.0834291 0.2275339 -0.1782349 -0.2502873 0.1782349 0.049299017 -0.06067571 0.1554815 0.01896116 -0.1782349 0.12135142 -0.064467944 -0.12135142
000030 02 ca c8 0a 30 00 d2 e7 c8 0b d0 34 19 de 01 30
       0.007584464 -0.20478052 -0.21236499 0.03792232 0.18202713 0.0 -0.17444266 -0.0948058 -0.21236499 0.04171455 -0.18202713 0.19719607 0.0948058 -0.12893589 0.003792232 0.18202713
000040 f8 fb 2a e4 44 cd 02 3d f9 b6 d5 15 03 ef dd d9
       -0.030337855 -0.01896116 0.15927374 -0.10618249 0.25787178 -0.19340383 0.007584464 0.23132615 -0.026545623 -0.28062516 -0.16306597 0.07963687 0.011376696 -0.064467944 -0.13272811 -0.14789705
000050 0f da d2 ed 30 cd e7 1b 10 d0 f1 1c de 2b fd f9
       0.056883477 -0.14410481 -0.17444266 -0.072052404 0.18202713 -0.19340383 -0.0948058 0.10239026 0.06067571 -0.18202713 -0.056883477 0.10618249 -0.12893589 0.16306597 -0.011376696 -0.026545623
000060 0e 38 56 1a d3 09 de fd f9 7f ca 07 d6 f2 cc eb
       0.053091247 0.21236499 0.32613194 0.09859803 -0.17065044 0.03413009 -0.12893589 -0.011376696 -0.026545623 0.48161346 -0.20478052 0.026545623 -0.15927374 -0.053091247 -0.19719607 -0.07963687
000070 e8 0a e8 bc e6 12 46 e5 ef f9 b4 f4 2b 3c 59 21
       -0.091013566 0.03792232 -0.091013566 -0.25787178 -0.09859803 0.06826018 0.26545623 -0.10239026 -0.064467944 -0.026545623 -0.28820962 -0.045506783 0.16306597 0.2275339 0.33750865 0.12514365
000080 3e c7 9b fb 26 2d 19 25 2b 23 5a 30 e0 de f0 e0
       0.23511837 -0.21615721 -0.38301542 -0.01896116 0.14410481 0.17065044 0.0948058 0.14031258 0.16306597 0.13272811 0.34130087 0.18202713 -0.12135142 -0.12893589 -0.06067571 -0.12135142
000090 34 67 1b e0 fc 14 ff ea 1f 3c d8 43 ef ec b3 e7
       0.19719607 0.39059988 0.10239026 -0.12135142 -0.015168928 0.07584464 -0.003792232 -0.0834291 0.11755919 0.2275339 -0.15168928 0.25407955 -0.064467944 -0.07584464 -0.29200184 -0.0948058
0000a0 01 03 00 3a 47 e9 c3 e3 0d 11 d4 c3 d0 0a d7 18
       0.003792232 0.011376696 0.0 0.21994945 0.26924846 -0.08722133 -0.23132615 -0.10997473 0.049299017 0.064467944 -0.1668582 -0.23132615 -0.18202713 0.03792232 -0.1554815 0.091013566
0000b0 d0 1c 44 ef e9 f9 e2 0c 04 02 fc da 19 c1 08 09
       -0.18202713 0.10618249 0.25787178 -0.064467944 -0.08722133 -0.026545623 -0.11376695 0.045506783 0.015168928 0.007584464 -0.015168928 -0.14410481 0.0948058 -0.23891062 0.030337855 0.03413009
0000c0 21 de 13 b3 25 a7 e7 f3 fa 0e e2 c5 25 1a d9 00
       0.12514365 -0.12893589 0.072052404 -0.29200184 0.14031258 -0.33750865 -0.0948058 -0.049299017 -0.022753391 0.053091247 -0.11376695 -0.22374168 0.14031258 0.09859803 -0.14789705 0.0
0000d0 01 e2 2a f9 e0 4d 1a 29 29 35 ce ca 23 b5 12 10
       0.003792232 -0.11376695 0.15927374 -0.026545623 -0.12135142 0.29200184 0.09859803 0.1554815 0.1554815 0.2009883 -0.1896116 -0.20478052 0.13272811 -0.2844174 0.06826018 0.06067571
0000e0 ce e4 26 f8 62 ee 0a 0d 2b e6 17 44 2c c0 3f f0
       -0.1896116 -0.10618249 0.14410481 -0.030337855 0.37163872 -0.06826018 0.03792232 0.049299017 0.16306597 -0.09859803 0.08722133 0.25787178 0.1668582 -0.24270284 0.23891062 -0.06067571
0000f0 d5 d6 c1 ef 35 67 2b 01 d6 44 e7 a9 15 19 40 17
       -0.16306597 -0.15927374 -0.23891062 -0.064467944 0.2009883 0.39059988 0.16306597 0.003792232 -0.15927374 0.25787178 -0.0948058 -0.32992417 0.07963687 0.0948058 0.24270284 0.08722133

sequential_1/dense_Dense3/MatMul/ReadVariableOp/transpose i1 [2, 15] scale=0.006103469 zero_point=0
000000 10 fc 44 17 7f 2d a6 54 b8 bc 5a 11 03 b6 c9 f9
       0.097655505 -0.024413876 0.4150359 0.14037979 0.7751406 0.27465612 -0.54931223 0.5126914 -0.4394498 -0.4150359 0.54931223 0.103758976 0.018310407 -0.4516567 -0.3356908 -0.04272428
000010 41 cb 38 2d e8 1c 10 dc 13 fc a1 f1 3d 31
       0.39672548 -0.32348385 0.34179425 0.27465612 -0.14648326 0.17089713 0.097655505 -0.2197249 0.11596591 -0.024413876 -0.5798296 -0.091552034 0.37231162 0.29906997
