collected_models/Visual_Alarm_Clock.tflite (tflite, 531624 bytes, 29 tensors)

sequential_4/sequential_1/model1/conv2d_27/Conv2D/ReadVariableOp/resource i1 [1, 3, 3, 8]
000000 e2 20 d8 60 dd 39 16 04 1a c0 81 50 c6 59 48 1e
       -30 32 -40 96 -35 57 22 4 26 -64 -127 80 -58 89 72 30
000010 39 8f e1 ec 3e 71 7c 31 cd 03 ef 50 81 2a a3 7d
       57 -113 -31 -20 62 113 124 49 -51 3 -17 80 -127 42 -93 125
000020 81 d8 a4 70 1f 3b 64 43 16 aa 1c 7f 61 7f 7f 2f
       -127 -40 -92 112 31 59 100 67 22 -86 28 127 97 127 127 47
000030 1a b4 1b 20 b8 46 ab 7f e3 97 0a 2c 51 3a 17 2a
       26 -76 27 32 -72 70 -85 127 -29 -105 10 44 81 58 23 42
000040 f5 81 25 04 13 2b 66 0a
       -11 -127 37 4 19 43 102 10

sequential_4/sequential_1/model1/conv2d_28/Conv2D/ReadVariableOp/resource i1 [16, 1, 1, 8]
000000 52 01 81 75 13 f6 1f b8 5f 05 e1 1c fd 09 1e 81
       82 1 -127 117 19 -10 31 -72 95 5 -31 28 -3 9 30 -127
000010 f4 10 04 f3 7f 03 fa ee ef 0c 22 81 e3 d7 e6 15
       -12 16 4 -13 127 3 -6 -18 -17 12 34 -127 -29 -41 -26 21
000020 e5 d1 5c 26 81 e3 c6 2e 02 d4 7f d5 19 1b 05 13
       -27 -47 92 38 -127 -29 -58 46 2 -44 127 -43 25 27 5 19
000030 3d fd fa f5 7f fe fb fd a5 d3 30 7f ce e6 ce 39
       61 -3 -6 -11 127 -2 -5 -3 -91 -45 48 127 -50 -26 -50 57
000040 dc 07 81 3a 6e f0 19 60 5c ee 7f 5f 2e 10 ef d8
       -36 7 -127 58 110 -16 25 96 92 -18 127 95 46 16 -17 -40
000050 f6 04 f7 fc 81 fb 05 f9 e5 f7 fc 7f 0e 19 e6 bd
       -10 4 -9 -4 -127 -5 5 -7 -27 -9 -4 127 14 25 -26 -67
000060 4b 27 81 c4 64 18 1f d4 7f 2c c4 6a 15 e4 dd 00
       75 39 -127 -60 100 24 31 -44 127 44 -60 106 21 -28 -35 0
000070 f3 cd 90 09 81 1f e4 3f f8 1a 81 27 ef 2e 00 d1
       -13 -51 -112 9 -127 31 -28 63 -8 26 -127 39 -17 46 0 -47

sequential_4/sequential_1/model1/conv2d_29/Conv2D/ReadVariableOp/resource i1 [32, 1, 1, 16]
000000 d0 f0 58 0c d8 27 cf d6 0a ea 7f f6 2b fd 28 e0
       -48 -16 88 12 -40 39 -49 -42 10 -22 127 -10 43 -3 40 -32
000010 17 b5 fc b2 25 36 e3 1a fb ee f6 28 7f 09 0d ec
       23 -75 -4 -78 37 54 -29 26 -5 -18 -10 40 127 9 13 -20
000020 23 12 f5 2b e6 06 10 e2 ef f0 10 81 f7 30 e0 17
       35 18 -11 43 -26 6 16 -30 -17 -16 16 -127 -9 48 -32 23
000030 ff fa 9a ec 0a e8 63 12 f5 4a 81 01 1c e2 d5 eb
       -1 -6 -102 -20 10 -24 99 18 -11 74 -127 1 28 -30 -43 -21
000040 09 fb f8 a9 d3 7f 24 dd ee ed 23 3c f0 11 fb c9
       9 -5 -8 -87 -45 127 36 -35 -18 -19 35 60 -16 17 -5 -55
000050 19 b5 45 43 4f 46 0c 7f 1a 37 ec 44 e0 1b 10 11
       25 -75 69 67 79 70 12 127 26 55 -20 68 -32 27 16 17
000060 f4 ed ee ea 0d f7 14 0d dc 00 1d f5 fe 7f fc ea
       -12 -19 -18 -22 13 -9 20 13 -36 0 29 -11 -2 127 -4 -22
000070 fb e0 08 11 62 a8 8e f3 1d 9b f8 e6 7f 36 50 d6
       -5 -32 8 17 98 -88 -114 -13 29 -101 -8 -26 127 54 80 -42
000080 37 5e 11 21 f8 02 25 24 42 db 13 81 fd 7f 1c 9a
       55 94 17 33 -8 2 37 36 66 -37 19 -127 -3 127 28 -102
000090 26 e5 36 ef 7f 07 07 eb 03 e9 f3 20 07 09 1d fb
       38 -27 54 -17 127 7 7 -21 3 -23 -13 32 7 9 29 -5
0000a0 0a ed 17 e5 1f f3 81 03 05 b3 b6 0c f0 ed 63 7d
       10 -19 23 -27 31 -13 -127 3 5 -77 -74 12 -16 -19 99 125
0000b0 01 f0 cf ed f1 27 0b e7 db 03 4e 96 30 7f e9 db
       1 -16 -49 -19 -15 39 11 -25 -37 3 78 -106 48 127 -23 -37
0000c0 27 60 fe 72 e1 c9 d1 15 fb 7f e4 0a c8 0b df 42
       39 96 -2 114 -31 -55 -47 21 -5 127 -28 10 -56 11 -33 66
0000d0 34 d9 37 3d cc d0 c8 dc fc 55 72 08 e2 f9 81 c5
       52 -39 55 61 -52 -48 -56 -36 -4 85 114 8 -30 -7 -127 -59
0000e0 e7 7f e4 fa 0a ff 4a 21 c3 d3 37 e4 2f a9 32 ed
       -25 127 -28 -6 10 -1 74 33 -61 -45 55 -28 47 -87 50 -19
0000f0 ca 16 07 9d a1 ed cf 57 22 f8 6e be 23 bc d7 81
       -54 22 7 -99 -95 -19 -49 87 34 -8 110 -66 35 -68 -41 -127

sequential_4/sequential_1/model1/conv2d_30/Conv2D/ReadVariableOp/resource i1 [32, 1, 1, 32]
000000 ff f6 fa e3 f0 fe 59 f8 df fd 1b 01 11 f5 03 f9
       -1 -10 -6 -29 -16 -2 89 -8 -33 -3 27 1 17 -11 3 -7
000010 03 04 df 18 0a 0c e6 ff f9 fd 00 fc 00 7f f2 0f
       3 4 -33 24 10 12 -26 -1 -7 -3 0 -4 0 127 -14 15
000020 0b fb 3b ed c3 50 e7 e7 ea e8 e4 10 16 eb 69 0b
       11 -5 59 -19 -61 80 -25 -25 -22 -24 -28 16 22 -21 105 11
000030 bf ef 81 fd ef 2d 53 f6 12 ed e5 90 ff dc d6 50
       -65 -17 -127 -3 -17 45 83 -10 18 -19 -27 -112 -1 -36 -42 80
000040 61 21 a5 75 be 3a f4 16 ff e1 1e e4 7f f6 15 07
       97 33 -91 117 -66 58 -12 22 -1 -31 30 -28 127 -10 21 7
000050 4b b3 12 ba 06 3e f2 bc cc 2b 44 28 f2 2e 3b 02
       75 -77 18 -70 6 62 -14 -68 -52 43 68 40 -14 46 59 2
000060 e7 d6 58 e2 3f e0 64 f2 01 fa 1e 6e 32 81 f2 23
       -25 -42 88 -30 63 -32 100 -14 1 -6 30 110 50 -127 -14 35
000070 db 04 05 32 01 e7 5f da 03 67 e7 3c e4 f9 72 3e
       -37 4 5 50 1 -25 95 -38 3 103 -25 60 -28 -7 114 62
000080 1e f2 fb 2f 1e 74 05 1c 1f d5 d8 04 c5 7f 0f ca
       30 -14 -5 47 30 116 5 28 31 -43 -40 4 -59 127 15 -54
000090 08 d8 e9 3a e3 5d ec e8 c0 19 be 93 15 fa 04 14
       8 -40 -23 58 -29 93 -20 -24 -64 25 -66 -109 21 -6 4 20
0000a0 25 19 25 d9 f9 e8 fa f7 02 fe 16 ff 0e ff 1a e4
       37 25 37 -39 -7 -24 -6 -9 2 -2 22 -1 14 -1 26 -28
0000b0 1f 28 40 19 0a f1 0a e5 02 f4 19 0f dd 15 06 7f
       31 40 64 25 10 -15 10 -27 2 -12 25 15 -35 21 6 127
0000c0 d7 fc 7f 96 54 e7 cc 40 be 13 15 f6 ef d0 67 3e
       -41 -4 127 -106 84 -25 -52 64 -66 19 21 -10 -17 -48 103 62
0000d0 19 39 e7 c5 b6 df 4a fb 13 eb b2 11 35 ca 1b ab
       25 57 -25 -59 -74 -33 74 -5 19 -21 -78 17 53 -54 27 -85
0000e0 26 00 1b 81 2d 10 eb ef 12 11 fc 06 25 12 ef 0d
       38 0 27 -127 45 16 -21 -17 18 17 -4 6 37 18 -17 13
0000f0 f7 01 ff 1e 17 28 01 3e ed 17 f4 f1 08 24 eb d7
       -9 1 -1 30 23 40 1 62 -19 23 -12 -15 8 36 -21 -41

sequential_4/sequential_1/model1/conv2d_31/Conv2D/ReadVariableOp/resource i1 [64, 1, 1, 32]
000000 3a ff fe 35 f8 7f dc fc fb db 43 2d de 03 59 fc
       58 -1 -2 53 -8 127 -36 -4 -5 -37 67 45 -34 3 89 -4
000010 3f ba e0 19 ef d7 2e 0d 18 ef 03 fb eb 52 eb e0
       63 -70 -32 25 -17 -41 46 13 24 -17 3 -5 -21 82 -21 -32
000020 d6 14 ce 34 0a 7f cc c7 e4 c2 1a e0 e4 e1 24 f4
       -42 20 -50 52 10 127 -52 -57 -28 -62 26 -32 -28 -31 36 -12
000030 92 f9 d8 22 16 ee b7 00 04 ec 26 4f e5 3b f1 f1
       -110 -7 -40 34 22 -18 -73 0 4 -20 38 79 -27 59 -15 -15
000040 31 10 f4 c5 a6 1a f2 ee 1f f2 e8 05 fe 09 24 04
       49 16 -12 -59 -90 26 -14 -18 31 -14 -24 5 -2 9 36 4
000050 6d 11 ca ee 22 d3 cc f2 c0 41 07 ec 2e 7f f7 d1
       109 17 -54 -18 34 -45 -52 -14 -64 65 7 -20 46 127 -9 -47
000060 0c f3 7f e9 ce 19 0e 05 4a ff c3 16 c6 34 09 03
       12 -13 127 -23 -50 25 14 5 74 -1 -61 22 -58 52 9 3
000070 da 04 e1 e9 00 c8 dc 11 0d 1c f8 d0 ea 4d f1 f6
       -38 4 -31 -23 0 -56 -36 17 13 28 -8 -48 -22 77 -15 -10
000080 f9 0e f2 21 c8 f9 e9 02 e3 02 ae e1 08 0f f3 32
       -7 14 -14 33 -56 -7 -23 2 -29 2 -82 -31 8 15 -13 50
000090 d2 6f 7f 08 23 e0 ec f6 14 35 09 96 fd f7 ff ec
       -46 111 127 8 35 -32 -20 -10 20 53 9 -106 -3 -9 -1 -20
0000a0 64 f2 f6 ff df ec 3c fb 13 4c e2 0f 36 29 29 e8
       100 -14 -10 -1 -33 -20 60 -5 19 76 -30 15 54 41 41 -24
0000b0 c6 2b 81 fc 53 e8 cf 0f fd 18 f6 fe 20 f0 0f 1f
       -58 43 -127 -4 83 -24 -49 15 -3 24 -10 -2 32 -16 15 31
0000c0 14 c6 2f 21 81 fc e7 f9 3c dd 1b 29 bd ff ad a1
       20 -58 47 33 -127 -4 -25 -7 60 -35 27 41 -67 -1 -83 -95
0000d0 4f 14 3f e8 cb 16 10 f6 ce cf f6 79 0b d9 ff 4c
       79 20 63 -24 -53 22 16 -10 -50 -49 -10 121 11 -39 -1 76
0000e0 cd e0 08 f1 c1 20 fe 26 1f df f8 f2 7f 1c 08 d3
       -51 -32 8 -15 -63 32 -2 38 31 -33 -8 -14 127 28 8 -45
0000f0 e0 95 f3 26 36 f0 36 19 01 15 0f f7 24 ee 05 fb
       -32 -107 -13 38 54 -16 54 25 1 21 15 -9 36 -18 5 -5

sequential_4/sequential_1/model1/conv2d_32/Conv2D/ReadVariableOp/resource i1 [64, 1, 1, 64]
000000 ee e4 24 1f c9 f6 81 0d d7 b0 19 08 08 ec 1d 03
       -18 -28 36 31 -55 -10 -127 13 -41 -80 25 8 8 -20 29 3
000010 00 0e 2c cb e9 1a 02 ba f4 ef b9 2c 0d 04 c6 eb
       0 14 44 -53 -23 26 2 -70 -12 -17 -71 44 13 4 -58 -21
000020 46 d6 17 46 17 bd 18 ec f7 1c d8 01 17 0d e0 02
       70 -42 23 70 23 -67 24 -20 -9 28 -40 1 23 13 -32 2
000030 fa 04 eb eb d3 ed 31 45 39 f0 19 2b 13 e9 12 0e
       -6 4 -21 -21 -45 -19 49 69 57 -16 25 43 19 -23 18 14
000040 c2 9a db e5 b1 f6 ba 11 a1 4b 45 ce 08 04 37 2f
       -62 -102 -37 -27 -79 -10 -70 17 -95 75 69 -50 8 4 55 47
000050 0d 0f eb 20 17 d8 57 0e ea 1f 52 f9 fd c8 b4 81
       13 15 -21 32 23 -40 87 14 -22 31 82 -7 -3 -56 -76 -127
000060 29 3b 0c 28 f5 05 f3 fa 1d 2d e6 cc 2d 13 41 f1
       41 59 12 40 -11 5 -13 -6 29 45 -26 -52 45 19 65 -15
000070 89 d4 3e 06 d4 40 bd 24 1e dd e1 00 06 11 19 b7
       -119 -44 62 6 -44 64 -67 36 30 -35 -31 0 6 17 25 -73
000080 bc 91 e0 7d ac 9f a5 ef b8 20 01 07 1a ce ef 1a
       -68 -111 -32 125 -84 -97 -91 -17 -72 32 1 7 26 -50 -17 26
000090 33 11 c9 b8 ec c1 e7 c4 fe 3e 32 f4 f0 da dd e4
       51 17 -55 -72 -20 -63 -25 -60 -2 62 50 -12 -16 -38 -35 -28
0000a0 37 4d 20 24 7f 27 f6 2c 00 d4 f4 0d 05 fb d9 bc
       55 77 32 36 127 39 -10 44 0 -44 -12 13 5 -5 -39 -68
0000b0 cf 10 c5 b2 bd 16 d6 c9 26 7e ef 02 b4 47 ab b2
       -49 16 -59 -78 -67 22 -42 -55 38 126 -17 2 -76 71 -85 -78
0000c0 f5 00 0e 3c 20 ea 7f e8 29 a5 08 d9 04 b4 5b cd
       -11 0 14 60 32 -22 127 -24 41 -91 8 -39 4 -76 91 -51
0000d0 13 3e fe cd 14 d5 dc e5 17 fd cb 07 11 56 16 1e
       19 62 -2 -51 20 -43 -36 -27 23 -3 -53 7 17 86 22 30
0000e0 ec 39 23 0f fc e9 fd d1 dd 57 36 64 01 00 e0 54
       -20 57 35 15 -4 -23 -3 -47 -35 87 54 100 1 0 -32 84
0000f0 f3 57 40 c5 d1 15 3b 00 10 52 d5 0a d7 f6 a1 74
       -13 87 64 -59 -47 21 59 0 16 82 -43 10 -41 -10 -95 116

sequential_4/sequential_1/model1/conv2d_33/Conv2D/ReadVariableOp/resource i1 [128, 1, 1, 64]
000000 16 f8 f6 0f d4 35 00 f3 de f5 32 35 f7 08 f2 16
       22 -8 -10 15 -44 53 0 -13 -34 -11 50 53 -9 8 -14 22
000010 fd f7 fa f7 da e4 f2 1f f7 df f4 fb 09 28 23 23
       -3 -9 -6 -9 -38 -28 -14 31 -9 -33 -12 -5 9 40 35 35
000020 fe 0c ec eb e8 ed 15 04 e7 7f 08 d8 07 d1 dc e4
       -2 12 -20 -21 -24 -19 21 4 -25 127 8 -40 7 -47 -36 -28
000030 1c 08 ed 15 1f 13 05 04 31 ff f4 cf 04 19 2a 27
       28 8 -19 21 31 19 5 4 49 -1 -12 -49 4 25 42 39
000040 56 13 02 fc f0 3f f3 48 14 ff fb 1b 7f cb ff 36
       86 19 2 -4 -16 63 -13 72 20 -1 -5 27 127 -53 -1 54
000050 48 d7 0e 4a 23 de d2 19 14 f5 e3 13 ea c7 05 04
       72 -41 14 74 35 -34 -46 25 20 -11 -29 19 -22 -57 5 4
000060 f2 ce fd fe 00 39 dd 1d 23 dd ee 4e 1b fb 23 e0
       -14 -50 -3 -2 0 57 -35 29 35 -35 -18 78 27 -5 35 -32
000070 e4 2e d2 19 f1 27 f8 02 ff 12 02 2e e2 3c 19 27
       -28 46 -46 25 -15 39 -8 2 -1 18 2 46 -30 60 25 39
000080 3c 12 21 ed f6 cb 16 31 f3 13 38 d0 11 59 4f 37
       60 18 33 -19 -10 -53 22 49 -13 19 56 -48 17 89 79 55
000090 9c 14 1a 1b df e4 1e 35 0e f6 bc 1a 29 7f 16 e9
       -100 20 26 27 -33 -28 30 53 14 -10 -68 26 41 127 22 -23
0000a0 1e da 2d 2a 21 c3 f8 dc 50 e9 19 59 db 1d 1a d0
       30 -38 45 42 33 -61 -8 -36 80 -23 25 89 -37 29 26 -48
0000b0 10 fd ea 13 f0 04 0b 09 ae 4e f2 cb f0 b3 08 dd
       16 -3 -22 19 -16 4 11 9 -82 78 -14 -53 -16 -77 8 -35
0000c0 f2 c1 18 1b aa d0 0a 2a f5 f9 d1 d0 cf 2d f5 81
       -14 -63 24 27 -86 -48 10 42 -11 -7 -47 -48 -49 45 -11 -127
0000d0 c6 24 30 f6 c6 04 13 f5 fc 0e 10 0f e2 07 cf df
       -58 36 48 -10 -58 4 19 -11 -4 14 16 15 -30 7 -49 -33
0000e0 37 21 10 33 03 2a 1f ee 32 c1 23 14 fc e1 21 01
       55 33 16 51 3 42 31 -18 50 -63 35 20 -4 -31 33 1
0000f0 06 fb fd eb fc e3 e2 ec d4 49 21 2b 09 0d d2 02
       6 -5 -3 -21 -4 -29 -30 -20 -44 73 33 43 9 13 -46 2

sequential_4/sequential_1/model1/conv2d_34/Conv2D/ReadVariableOp/resource i1 [128, 1, 1, 128]
000000 15 0e 1d dc 41 14 35 42 f8 38 18 e2 2b fa 1f 19
       21 14 29 -36 65 20 53 66 -8 56 24 -30 43 -6 31 25
000010 2a 0b 39 f4 2a ff 50 06 d7 c7 ef 17 28 a9 1d ca
       42 11 57 -12 42 -1 80 6 -41 -57 -17 23 40 -87 29 -54
000020 3a 57 07 27 7f 0c fc e9 d3 ee e5 c4 d9 f3 09 0c
       58 87 7 39 127 12 -4 -23 -45 -18 -27 -60 -39 -13 9 12
000030 2f e4 f7 41 03 cb ea 85 06 f6 0e b7 33 ab 59 4d
       47 -28 -9 65 3 -53 -22 -123 6 -10 14 -73 51 -85 89 77
000040 02 f0 cf 2f 00 24 27 cb d2 09 41 5c cb 1f 1a 47
       2 -16 -49 47 0 36 39 -53 -46 9 65 92 -53 31 26 71
000050 28 bc dc ea f8 3e 2d b6 f3 5e df f8 e5 e1 1a 2c
       40 -68 -36 -22 -8 62 45 -74 -13 94 -33 -8 -27 -31 26 44
000060 2d e1 00 f5 ba 09 a3 f5 04 f3 22 0c f4 eb f6 c1
       45 -31 0 -11 -70 9 -93 -11 4 -13 34 12 -12 -21 -10 -63
000070 26 c7 f3 22 fe d1 dd ba fc f8 02 d1 20 eb c6 a4
       38 -57 -13 34 -2 -47 -35 -70 -4 -8 2 -47 32 -21 -58 -92
000080 be d7 b0 ee c1 14 c0 e2 e8 07 da 37 49 05 ae 04
       -66 -41 -80 -18 -63 20 -64 -30 -24 7 -38 55 73 5 -82 4
000090 0b ea f8 cd c2 1b 40 24 ce f9 04 db 24 ea fc 1f
       11 -22 -8 -51 -62 27 64 36 -50 -7 4 -37 36 -22 -4 31
0000a0 f7 e4 06 29 e0 fc d8 ed 21 e3 d1 ea 30 02 cb 14
       -9 -28 6 41 -32 -4 -40 -19 33 -29 -47 -22 48 2 -53 20
0000b0 f2 00 fa e1 7f bc 0b aa f1 d1 33 3c aa 06 f9 0c
       -14 0 -6 -31 127 -68 11 -86 -15 -47 51 60 -86 6 -7 12
0000c0 eb 0d 20 1c 36 f4 1f 22 b6 f7 3b 2c ec f0 dc 0a
       -21 13 32 28 54 -12 31 34 -74 -9 59 44 -20 -16 -36 10
0000d0 f6 12 03 1f bb ed c8 30 f1 dd 2a 1a ed 27 07 fc
       -10 18 3 31 -69 -19 -56 48 -15 -35 42 26 -19 39 7 -4
0000e0 f0 f0 f8 1f f4 ce e8 e4 ff cd 0f 12 2e 01 18 10
       -16 -16 -8 31 -12 -50 -24 -28 -1 -51 15 18 46 1 24 16
0000f0 fe f2 ec fe e2 f0 be 82 f8 0a d8 02 17 19 23 e8
       -2 -14 -20 -2 -30 -16 -66 -126 -8 10 -40 2 23 25 35 -24

sequential_4/sequential_1/model1/conv2d_35/Conv2D/ReadVariableOp/resource i1 [128, 1, 1, 128]
000000 d4 39 33 ca f9 e6 d3 21 03 fa c7 09 e2 ef f9 14
       -44 57 51 -54 -7 -26 -45 33 3 -6 -57 9 -30 -17 -7 20
000010 c7 07 0f ec 38 51 0b 04 0b 23 ec fd fb 2f 7f b6
       -57 7 15 -20 56 81 11 4 11 35 -20 -3 -5 47 127 -74
000020 12 c8 1c 2f ef 09 cf e4 04 e8 f7 12 0c df e9 c9
       18 -56 28 47 -17 9 -49 -28 4 -24 -9 18 12 -33 -23 -55
000030 f3 00 06 d8 fc f2 1e fd 29 22 06 19 c7 18 e0 3d
       -13 0 6 -40 -4 -14 30 -3 41 34 6 25 -57 24 -32 61
000040 2b 00 dc f5 f6 1e 0c 17 1d d5 f4 19 00 f2 e4 0f
       43 0 -36 -11 -10 30 12 23 29 -43 -12 25 0 -14 -28 15
000050 19 ec 1f 21 f7 d1 61 e3 db 39 e2 00 b0 2d 1a 46
       25 -20 31 33 -9 -47 97 -29 -37 57 -30 0 -80 45 26 70
000060 e1 36 22 ee da ee 29 f4 07 11 2c 0f f3 e9 19 be
       -31 54 34 -18 -38 -18 41 -12 7 17 44 15 -13 -23 25 -66
000070 f8 ea e6 ef f4 e5 b2 fc ec f7 50 28 13 0e 17 17
       -8 -22 -26 -17 -12 -27 -78 -4 -20 -9 80 40 19 14 23 23
000080 2e f3 f1 13 13 fb c4 23 ed e6 09 f5 e2 ee 0a ec
       46 -13 -15 19 19 -5 -60 35 -19 -26 9 -11 -30 -18 10 -20
000090 0a f9 0e 7f 0a d9 dd ed 0e e7 f6 1b 15 1f ea d9
       10 -7 14 127 10 -39 -35 -19 14 -25 -10 27 21 31 -22 -39
0000a0 02 13 f2 f4 3d d8 2b 04 e7 0e da 1f 1a dd 23 f0
       2 19 -14 -12 61 -40 43 4 -25 14 -38 31 26 -35 35 -16
0000b0 fd f3 2a f5 de 21 ea d4 d7 54 11 e2 25 2f f5 19
       -3 -13 42 -11 -34 33 -22 -44 -41 84 17 -30 37 47 -11 25
0000c0 dd 09 2f ec fb de 09 0b 28 0c db 0a d4 fa e8 09
       -35 9 47 -20 -5 -34 9 11 40 12 -37 10 -44 -6 -24 9
0000d0 f6 cf e9 ed e9 2b d9 1e eb 35 15 f5 fc 17 ec 20
       -10 -49 -23 -19 -23 43 -39 30 -21 53 21 -11 -4 23 -20 32
0000e0 31 05 26 0f 0a ed e4 08 ee 0c 1d 19 e7 f3 e8 eb
       49 5 38 15 10 -19 -28 8 -18 12 29 25 -25 -13 -24 -21
0000f0 fb 02 0d 25 34 fa e1 0b de eb 19 26 f4 13 f7 fd
       -5 2 13 37 52 -6 -31 11 -34 -21 25 38 -12 19 -9 -3

sequential_4/sequential_1/model1/conv2d_36/Conv2D/ReadVariableOp/resource i1 [128, 1, 1, 128]
000000 f8 ff 12 17 f5 0e f9 dc e0 f3 e1 e8 1a d7 14 cd
       -8 -1 18 23 -11 14 -7 -36 -32 -13 -31 -24 26 -41 20 -51
000010 1e 00 0f f2 d7 f5 14 0a bf fb 06 23 ea f5 0d e2
       30 0 15 -14 -41 -11 20 10 -65 -5 6 35 -22 -11 13 -30
000020 0a f0 e7 f9 d5 0d 2c d6 f0 2d 13 25 7f 27 28 c5
       10 -16 -25 -7 -43 13 44 -42 -16 45 19 37 127 39 40 -59
000030 b5 24 17 01 d7 c0 da 3a 10 cf 00 f0 52 fb 47 f7
       -75 36 23 1 -41 -64 -38 58 16 -49 0 -16 82 -5 71 -9
000040 c2 f7 b6 ea f8 ea ef f5 25 1a 0a 20 ff 33 f3 2d
       -62 -9 -74 -22 -8 -22 -17 -11 37 26 10 32 -1 51 -13 45
000050 17 fa f3 08 fd 2c 41 e9 34 2b 30 ea 01 fd f1 07
       23 -6 -13 8 -3 44 65 -23 52 43 48 -22 1 -3 -15 7
000060 db f6 f3 01 21 29 e6 18 02 ac 2b 1a 2b f5 ee f9
       -37 -10 -13 1 33 41 -26 24 2 -84 43 26 43 -11 -18 -7
000070 f1 53 cd 15 cb fc 21 d6 07 b2 62 f0 0c d3 b7 0c
       -15 83 -51 21 -53 -4 33 -42 7 -78 98 -16 12 -45 -73 12
000080 fe b0 db 37 37 be 1f f7 37 4a d6 a3 b5 c8 10 11
       -2 -80 -37 55 55 -66 31 -9 55 74 -42 -93 -75 -56 16 17
000090 eb 25 c2 e4 0d f8 ce 4e 11 2e 27 05 df ed 2e 12
       -21 37 -62 -28 13 -8 -50 78 17 46 39 5 -33 -19 46 18
0000a0 d6 3f f6 3e 20 e2 2e ee fa 3e 5a 3a d9 20 e8 c0
       -42 63 -10 62 32 -30 46 -18 -6 62 90 58 -39 32 -24 -64
0000b0 25 f0 60 24 c1 d3 fc db 06 17 fc c4 2f 24 b5 e4
       37 -16 96 36 -63 -45 -4 -37 6 23 -4 -60 47 36 -75 -28
0000c0 2f 1f 1c 3c 01 1c 0a fc 1e ff 2e 05 b2 28 e4 fc
       47 31 28 60 1 28 10 -4 30 -1 46 5 -78 40 -28 -4
0000d0 8e 05 17 e7 ae 0a ec bc bc e8 0e e4 26 24 49 1e
       -114 5 23 -25 -82 10 -20 -68 -68 -24 14 -28 38 36 73 30
0000e0 32 ee 3b 4c a6 fb 23 f9 fe e4 13 59 fd dc 33 f8
       50 -18 59 76 -90 -5 35 -7 -2 -28 19 89 -3 -36 51 -8
0000f0 e1 55 d8 f3 41 81 f2 f1 04 01 ca 36 2f fc 36 da
       -31 85 -40 -13 65 -127 -14 -15 4 1 -54 54 47 -4 54 -38

sequential_4/sequential_1/model1/conv2d_37/Conv2D/ReadVariableOp/resource i1 [128, 1, 1, 128]
000000 f6 ec 3f 02 3d 2e 2d db 31 98 be c2 3f e4 ee 59
       -10 -20 63 2 61 46 45 -37 49 -104 -66 -62 63 -28 -18 89
000010 19 3e ba fd 19 10 11 3a f4 06 de b4 f0 07 03 fc
       25 62 -70 -3 25 16 17 58 -12 6 -34 -76 -16 7 3 -4
000020 e7 d6 c8 cf b3 7f 22 e8 01 d4 dc f0 6a c9 d5 53
       -25 -42 -56 -49 -77 127 34 -24 1 -44 -36 -16 106 -55 -43 83
000030 45 ee 06 03 d5 4b b0 d5 e1 ae 25 36 e3 ed c3 fa
       69 -18 6 3 -43 75 -80 -43 -31 -82 37 54 -29 -19 -61 -6
000040 3c 25 2a cf 25 12 29 28 fd 11 18 07 e0 b6 09 fe
       60 37 42 -49 37 18 41 40 -3 17 24 7 -32 -74 9 -2
000050 39 d5 ee ca 28 44 73 bf e1 2e 1b e7 d8 e0 f4 d2
       57 -43 -18 -54 40 68 115 -65 -31 46 27 -25 -40 -32 -12 -46
000060 06 c2 14 fd e3 39 f1 27 21 c1 19 e4 11 ed 3b 8b
       6 -62 20 -3 -29 57 -15 39 33 -63 25 -28 17 -19 59 -117
000070 2f 1c ea 22 09 0c 3e 1f fa fe 0f 11 35 c3 ad fa
       47 28 -22 34 9 12 62 31 -6 -2 15 17 53 -61 -83 -6
000080 1a 3c 18 c8 fa 3c c4 18 fe ee 24 d0 ec d3 d5 39
       26 60 24 -56 -6 60 -60 24 -2 -18 36 -48 -20 -45 -43 57
000090 32 ed 2f f5 e4 e5 1f e5 e8 dc 1e f7 f6 d6 09 20
       50 -19 47 -11 -28 -27 31 -27 -24 -36 30 -9 -10 -42 9 32
0000a0 0d f8 f9 e2 77 20 e9 04 ff ee 0f d0 f0 21 db 09
       13 -8 -7 -30 119 32 -23 4 -1 -18 15 -48 -16 33 -37 9
0000b0 14 f1 03 f3 ff 33 ce ef 0b f3 ec f8 ed 0d 00 fe
       20 -15 3 -13 -1 51 -50 -17 11 -13 -20 -8 -19 13 0 -2
0000c0 0c 0c 09 dd ef f8 ef 09 eb 03 e6 f0 81 df 12 2c
       12 12 9 -35 -17 -8 -17 9 -21 3 -26 -16 -127 -33 18 44
0000d0 15 11 20 f7 f6 db 0b 02 2f f8 00 19 e3 f5 13 f8
       21 17 32 -9 -10 -37 11 2 47 -8 0 25 -29 -11 19 -8
0000e0 f7 ed 2e d2 15 09 dd 34 fd d9 fd e7 03 cc 19 fc
       -9 -19 46 -46 21 9 -35 52 -3 -39 -3 -25 3 -52 25 -4
0000f0 e2 1e 1b 39 fd f0 f8 da 27 c9 fe dd f0 02 21 f4
       -30 30 27 57 -3 -16 -8 -38 39 -55 -2 -35 -16 2 33 -12

sequential_4/sequential_1/model1/conv2d_38/Conv2D/ReadVariableOp/resource i1 [128, 1, 1, 128]
000000 17 f4 fa 3f c2 04 2b e5 18 39 25 fa b3 0c 27 24
       23 -12 -6 63 -62 4 43 -27 24 57 37 -6 -77 12 39 36
000010 56 1b 46 d5 e5 06 c1 1a 44 eb 0c d9 c3 ce 3d db
       86 27 70 -43 -27 6 -63 26 68 -21 12 -39 -61 -50 61 -37
000020 bc 5d f1 c0 ab 26 c7 7f 04 ff 17 65 bb f8 ee 41
       -68 93 -15 -64 -85 38 -57 127 4 -1 23 101 -69 -8 -18 65
000030 f2 37 cf e8 04 fc e8 e2 09 42 d6 ef 31 dc 07 e8
       -14 55 -49 -24 4 -4 -24 -30 9 66 -42 -17 49 -36 7 -24
000040 cc 26 c3 12 03 fd 06 03 15 51 f1 f4 13 cd c2 2d
       -52 38 -61 18 3 -3 6 3 21 81 -15 -12 19 -51 -62 45
000050 08 45 2b 4b f0 34 e9 d1 2d db 45 c6 1f de 68 4f
       8 69 43 75 -16 52 -23 -47 45 -37 69 -58 31 -34 104 79
000060 b4 f3 b8 0d ec d9 1d 31 ca ea fe c2 12 fe e9 df
       -76 -13 -72 13 -20 -39 29 49 -54 -22 -2 -62 18 -2 -23 -33
000070 eb e5 d7 23 07 0d 0b 0e 27 ee ef c4 f6 8e 10 42
       -21 -27 -41 35 7 13 11 14 39 -18 -17 -60 -10 -114 16 66
000080 04 f0 d5 fa f3 16 7f 06 06 e9 cf fa f5 36 e2 26
       4 -16 -43 -6 -13 22 127 6 6 -23 -49 -6 -11 54 -30 38
000090 1c 04 15 fe 22 27 e8 e4 3e 12 db 36 be f1 19 dc
       28 4 21 -2 34 39 -24 -28 62 18 -37 54 -66 -15 25 -36
0000a0 fa f2 fd ba ac 09 f5 35 e9 de 02 ff db 23 df 0d
       -6 -14 -3 -70 -84 9 -11 53 -23 -34 2 -1 -37 35 -33 13
0000b0 00 30 0b e8 1f de 57 ac d4 f7 d7 24 b8 ec 31 eb
       0 48 11 -24 31 -34 87 -84 -44 -9 -41 36 -72 -20 49 -21
0000c0 16 ee 2c e1 df 2f e9 ec 03 df eb f9 fc eb e5 fe
       22 -18 44 -31 -33 47 -23 -20 3 -33 -21 -7 -4 -21 -27 -2
0000d0 10 40 15 e4 f7 b8 e9 18 03 34 e7 e9 c1 bd 2d f9
       16 64 21 -28 -9 -72 -23 24 3 52 -25 -23 -63 -67 45 -7
0000e0 11 ea bc 0a 19 31 f4 00 fd 13 f4 26 dd f1 1c 18
       17 -22 -68 10 25 49 -12 0 -3 19 -12 38 -35 -15 28 24
0000f0 02 ef 4d f7 e7 32 25 fb de fb 3b c9 01 e0 40 07
       2 -17 77 -9 -25 50 37 -5 -34 -5 59 -55 1 -32 64 7

sequential_4/sequential_1/model1/conv2d_39/Conv2D/ReadVariableOp/resource i1 [256, 1, 1, 128]
000000 26 c7 7f fe 27 39 de 5d 43 11 65 30 7b f7 3a 0f
       38 -57 127 -2 39 57 -34 93 67 17 101 48 123 -9 58 15
000010 e8 e5 0a 63 40 21 eb 00 c7 e4 1b c5 4f ef 25 c5
       -24 -27 10 99 64 33 -21 0 -57 -28 27 -59 79 -17 37 -59
000020 1f 37 11 06 32 e9 ce c3 57 24 40 e5 ec 29 13 e0
       31 55 17 6 50 -23 -50 -61 87 36 64 -27 -20 41 19 -32
000030 13 ee 37 6f fd ba 30 ee 22 28 f6 41 53 17 1a 24
       19 -18 55 111 -3 -70 48 -18 34 40 -10 65 83 23 26 36
000040 4b 1a 22 e0 33 ff 2d f2 ff 11 2a 34 f1 af 06 f6
       75 26 34 -32 51 -1 45 -14 -1 17 42 52 -15 -81 6 -10
000050 14 dd 2c 1f 2e d5 06 fd 43 0c f8 01 f7 09 18 e6
       20 -35 44 31 46 -43 6 -3 67 12 -8 1 -9 9 24 -26
000060 06 52 1e 0f e1 2a 20 e0 e9 d1 10 da 6d 43 21 f4
       6 82 30 15 -31 42 32 -32 -23 -47 16 -38 109 67 33 -12
000070 0a 05 14 5a 2a fd 40 ed d8 26 13 b2 65 2b 57 48
       10 5 20 90 42 -3 64 -19 -40 38 19 -78 101 43 87 72
000080 2b 1d 45 30 04 f6 d3 05 fc 27 aa 04 d8 d4 16 04
       43 29 69 48 4 -10 -45 5 -4 39 -86 4 -40 -44 22 4
000090 59 03 f1 4a 31 f4 e9 0b 00 22 b9 e7 3e 3d cf f1
       89 3 -15 74 49 -12 -23 11 0 34 -71 -25 62 61 -49 -15
0000a0 0f fa 15 c8 fc e6 cb cf 3f de fe f6 31 10 19 f1
       15 -6 21 -56 -4 -26 -53 -49 63 -34 -2 -10 49 16 25 -15
0000b0 f1 f5 b7 4a ca f8 3e 2a 7f 08 2d 19 2d 0e 58 0d
       -15 -11 -73 74 -54 -8 62 42 127 8 45 25 45 14 88 13
0000c0 f3 1c f3 fe 16 18 e3 0c fd f7 1e ef 35 17 33 d2
       -13 28 -13 -2 22 24 -29 12 -3 -9 30 -17 53 23 51 -46
0000d0 14 51 1f e9 30 da 1b e9 1b 03 24 23 e4 fe 04 2f
       20 81 31 -23 48 -38 27 -23 27 3 36 35 -28 -2 4 47
0000e0 28 45 f6 35 f7 31 1d cf 31 49 49 20 c0 1b 3f 30
       40 69 -10 53 -9 49 29 -49 49 73 73 32 -64 27 63 48
0000f0 ea da d3 be 2c 28 01 f7 26 30 5a 14 44 45 e9 30
       -22 -38 -45 -66 44 40 1 -9 38 48 90 20 68 69 -23 48

sequential_4/sequential_1/model1/conv_pw_13_relu/Conv2D/ReadVariableOp/resource i1 [256, 1, 1, 256]
000000 b5 e7 19 ee 24 e8 32 30 ec 0e c5 5a 13 cd e7 00
       -75 -25 25 -18 36 -24 50 48 -20 14 -59 90 19 -51 -25 0
000010 ca fc b2 c2 e3 3f b5 26 44 08 92 25 0f 15 53 d1
       -54 -4 -78 -62 -29 63 -75 38 68 8 -110 37 15 21 83 -47
000020 2b f4 0e 42 5c 06 ed e5 18 e9 d4 9d 0b 12 c6 0f
       43 -12 14 66 92 6 -19 -27 24 -23 -44 -99 11 18 -58 15
000030 18 d1 8e 18 bc 24 34 bf c2 dc be f3 e8 98 17 ed
       24 -47 -114 24 -68 36 52 -65 -62 -36 -66 -13 -24 -104 23 -19
000040 e4 f0 d5 cc f5 15 9b 28 29 47 11 f0 3b 35 4d 24
       -28 -16 -43 -52 -11 21 -101 40 41 71 17 -16 59 53 77 36
000050 31 87 ed c6 04 06 57 35 3f 0b 4f ed c3 a8 f1 59
       49 -121 -19 -58 4 6 87 53 63 11 79 -19 -61 -88 -15 89
000060 04 32 d6 e8 a6 f8 ef 13 be ac b1 c5 da 54 d5 2d
       4 50 -42 -24 -90 -8 -17 19 -66 -84 -79 -59 -38 84 -43 45
000070 d7 24 d5 ff cc 43 41 fb fd 28 45 ed f8 ef ec b3
       -41 36 -43 -1 -52 67 65 -5 -3 40 69 -19 -8 -17 -20 -77
000080 f6 fe da 1e f9 fd 2f cd 06 10 10 27 07 ff f4 d3
       -10 -2 -38 30 -7 -3 47 -51 6 16 16 39 7 -1 -12 -45
000090 e5 f6 ff 29 1b 52 05 f6 cf 02 1a 30 d5 e2 02 88
       -27 -10 -1 41 27 82 5 -10 -49 2 26 48 -43 -30 2 -120
0000a0 46 db 1c 0c f5 ef 3b ec ed d9 f3 fd e6 f2 0b 31
       70 -37 28 12 -11 -17 59 -20 -19 -39 -13 -3 -26 -14 11 49
0000b0 e5 cd 26 04 25 b2 d7 da e1 d9 fd af c6 ae 46 b8
       -27 -51 38 4 37 -78 -41 -38 -31 -39 -3 -81 -58 -82 70 -72
0000c0 31 22 48 00 e7 f0 b9 f8 ee ef 00 03 04 e2 dd 0b
       49 34 72 0 -25 -16 -71 -8 -18 -17 0 3 4 -30 -35 11
0000d0 fe bc ce f0 0c d0 f3 e5 17 c9 f7 f9 db b9 9a 24
       -2 -68 -50 -16 12 -48 -13 -27 23 -55 -9 -7 -37 -71 -102 36
0000e0 e6 35 db f0 46 a5 be e4 b4 20 47 d4 23 21 24 0c
       -26 53 -37 -16 70 -91 -66 -28 -76 32 71 -44 35 33 36 12
0000f0 fd e0 0a cb 03 d5 ce f8 c5 fd 39 ea 7f eb a2 d2
       -3 -32 10 -53 3 -43 -50 -8 -59 -3 57 -22 127 -21 -94 -46

sequential_4/sequential_1/model1/depthwise_conv2d_26/depthwise/ReadVariableOp/resource i1 [1, 3, 3, 8]
000000 01 75 46 f3 02 e8 09 81 23 60 14 7f 01 9c 07 87
       1 117 70 -13 2 -24 9 -127 35 96 20 127 1 -100 7 -121
000010 fb 1a 3b 29 fc ec 1d 36 5e 7f be a4 92 f9 8a 62
       -5 26 59 41 -4 -20 29 54 94 127 -66 -92 -110 -7 -118 98
000020 7f 09 81 e1 7f bc 81 39 52 16 2b fc 0b 88 8e 2d
       127 9 -127 -31 127 -68 -127 57 82 22 43 -4 11 -120 -114 45
000030 2b fb ff 4c 04 81 84 05 53 0b bc b6 fe 7a a6 38
       43 -5 -1 76 4 -127 -124 5 83 11 -68 -74 -2 122 -90 56
000040 2d 36 3e f6 ff aa b0 c4
       45 54 62 -10 -1 -86 -80 -60

sequential_4/sequential_1/model1/depthwise_conv2d_27/depthwise/ReadVariableOp/resource i1 [1, 3, 3, 16]
000000 cf 43 fd 36 5a f8 2b df b6 f9 e9 01 95 29 0f b0
       -49 67 -3 54 90 -8 43 -33 -74 -7 -23 1 -107 41 15 -80
000010 9e 4d 98 20 56 02 62 ea 81 42 a9 4b f8 7f f9 81
       -98 77 -104 32 86 2 98 -22 -127 66 -87 75 -8 127 -7 -127
000020 d9 16 b1 d6 01 0c 2f 4a b2 4f bc 3b 72 1d e8 dc
       -39 22 -79 -42 1 12 47 74 -78 79 -68 59 114 29 -24 -36
000030 4f 7f fb 34 7f 8f 54 1d 1d 5f d4 54 bd de bf f0
       79 127 -5 52 127 -113 84 29 29 95 -44 84 -67 -34 -65 -16
000040 7f fa 84 7f fb 81 7f 7f c8 7f 81 64 5c 23 81 8e
       127 -6 -124 127 -5 -127 127 127 -56 127 -127 100 92 35 -127 -114
000050 31 9f 81 1d ad e9 2c 55 a1 44 ab 28 7f 2d 93 d2
       49 -97 -127 29 -83 -23 44 85 -95 68 -85 40 127 45 -109 -46
000060 d8 f2 10 ec 46 ba 33 3b ce 51 f1 7f ca e2 af 11
       -40 -14 16 -20 70 -70 51 59 -50 81 -15 127 -54 -30 -81 17
000070 d6 a1 e0 36 cf 9f 28 6a c0 5c cc 49 22 df 82 01
       -42 -95 -32 54 -49 -97 40 106 -64 92 -52 73 34 -33 -126 1
000080 ec b6 c7 2d aa d0 f8 ec bc 0b d6 bd f7 fc b5 e1
       -20 -74 -57 45 -86 -48 -8 -20 -68 11 -42 -67 -9 -4 -75 -31

sequential_4/sequential_1/model1/depthwise_conv2d_28/depthwise/ReadVariableOp/resource i1 [1, 3, 3, 32]
000000 13 81 1c d3 05 66 03 8e dd bb b7 1b 48 32 19 90
       19 -127 28 -45 5 102 3 -114 -35 -69 -73 27 72 50 25 -112
000010 c5 d1 e8 cc 06 e5 12 db 1a 83 15 f5 11 81 04 c9
       -59 -47 -24 -52 6 -27 18 -37 26 -125 21 -11 17 -127 4 -55
000020 c9 75 13 2d e1 6a ff b0 fd d5 3e d6 db f5 25 bf
       -55 117 19 45 -31 106 -1 -80 -3 -43 62 -42 -37 -11 37 -65
000030 f4 94 8b b1 ca e8 d4 dc d6 58 9c f0 47 68 c9 d5
       -12 -108 -117 -79 -54 -24 -44 -36 -42 88 -100 -16 71 104 -55 -43
000040 27 fb e5 e5 fe ce fc 81 e2 81 24 fc 02 ff 0a 06
       39 -5 -27 -27 -2 -50 -4 -127 -30 -127 36 -4 2 -1 10 6
000050 0c 1e 2b 3c e7 0d 0a ed 44 01 18 1b 05 0f f2 14
       12 30 43 60 -25 13 10 -19 68 1 24 27 5 15 -14 20
000060 c0 3a 7f 6c 7f 7f 3b c6 e6 dd 81 7f 3e 7f 7f de
       -64 58 127 108 127 127 59 -58 -26 -35 -127 127 62 127 127 -34
000070 a2 81 90 ba 81 29 39 19 8b 7f 74 81 7f 77 69 13
       -94 -127 -112 -70 -127 41 57 25 -117 127 116 -127 127 119 105 19
000080 2c 8b 29 7f 3f e6 81 86 d3 e4 3e 82 81 10 0a 81
       44 -117 41 127 63 -26 -127 -122 -45 -28 62 -126 -127 16 10 -127
000090 7f af 81 b3 5b 7f 81 7f b4 a7 81 4d 73 8a 04 7f
       127 -81 -127 -77 91 127 -127 127 -76 -89 -127 77 115 -118 4 127
0000a0 7f d2 b2 d8 d6 a0 19 f6 df e2 3c 0a d1 15 ea 14
       127 -46 -78 -40 -42 -96 25 -10 -33 -30 60 10 -47 21 -22 20
0000b0 03 b5 fd f6 1b f8 3b f2 fb ec 19 34 de f5 b5 0c
       3 -75 -3 -10 27 -8 59 -14 -5 -20 25 52 -34 -11 -75 12
0000c0 00 1e 26 ff ff f2 cd b8 1e c1 78 29 59 5f 25 ed
       0 30 38 -1 -1 -14 -51 -72 30 -63 120 41 89 95 37 -19
0000d0 d0 22 d0 81 6a cf fa e0 81 fd 30 a4 f6 03 ed ee
       -48 34 -48 -127 106 -49 -6 -32 -127 -3 48 -92 -10 3 -19 -18
0000e0 cf b6 da a6 5f 97 7d 0a 7f d0 cb f2 a8 59 ea c0
       -49 -74 -38 -90 95 -105 125 10 127 -48 -53 -14 -88 89 -22 -64
0000f0 2d b9 b6 9f c8 bc eb 13 d2 e2 ff 3e 4b 04 7f 39
       45 -71 -74 -97 -56 -68 -21 19 -46 -30 -1 62 75 4 127 57

sequential_4/sequential_1/model1/depthwise_conv2d_29/depthwise/ReadVariableOp/resource i1 [1, 3, 3, 32]
000000 ce ed 60 38 eb 45 45 9c 44 e5 56 16 26 0f bd dd
       -50 -19 96 56 -21 69 69 -100 68 -27 86 22 38 15 -67 -35
000010 37 b5 39 7f 00 c7 d4 a7 ea 67 81 3f 3b 55 28 d4
       55 -75 57 127 0 -57 -44 -89 -22 103 -127 63 59 85 40 -44
000020 bc b3 7f 76 c3 6f 61 d3 6f b1 61 60 4f 68 b2 b2
       -68 -77 127 118 -61 111 97 -45 111 -79 97 96 79 104 -78 -78
000030 63 b7 4f 63 63 a6 bb 68 cc 57 21 64 4b 2e 47 c4
       99 -73 79 99 99 -90 -69 104 -52 87 33 100 75 46 71 -60
000040 de a7 2f 4f d6 49 42 f8 47 c9 1a 3f 2f 46 ed ca
       -34 -89 47 79 -42 73 66 -8 71 -55 26 63 47 70 -19 -54
000050 29 eb 2a e5 4d d9 db 6e f6 15 b6 42 20 f2 06 d2
       41 -21 42 -27 77 -39 -37 110 -10 21 -74 66 32 -14 6 -46
000060 b6 c5 54 3b d1 47 6a 0d 7f ce 7f 1a 4d 48 b0 b6
       -74 -59 84 59 -47 71 106 13 127 -50 127 26 77 72 -80 -74
000070 6a 92 52 4d 35 df 9b d9 89 68 27 55 7f 10 17 b4
       106 -110 82 77 53 -33 -101 -39 -119 104 39 85 127 16 23 -76
000080 81 81 65 7f 81 7f 7f 75 79 90 6e 7f 7f 7f 81 81
       -127 -127 101 127 -127 127 127 117 121 -112 110 127 127 127 -127 -127
000090 7f 81 7f 41 7f 81 81 f0 9f 7f df 7f 4c 75 3d 81
       127 -127 127 65 127 -127 -127 -16 -97 127 -33 127 76 117 61 -127
0000a0 bc b7 2e 42 b0 4c 45 70 24 81 10 6d 43 41 ca c8
       -68 -73 46 66 -80 76 69 112 36 -127 16 109 67 65 -54 -56
0000b0 26 d9 3d f0 62 89 d0 1a 1c 37 85 37 f4 7f 3a c6
       38 -39 61 -16 98 -119 -48 26 28 55 -123 55 -12 127 58 -58
0000c0 ef cb 02 03 e1 02 31 48 4c f1 28 0a 21 13 da eb
       -17 -53 2 3 -31 2 49 72 76 -15 40 10 33 19 -38 -21
0000d0 23 c6 2a cc 25 fb c6 d8 81 16 0c 1f 52 c2 52 cb
       35 -58 42 -52 37 -5 -58 -40 -127 22 12 31 82 -62 82 -53
0000e0 c5 a6 e0 06 be 13 36 7f 2f 97 12 37 37 48 c4 d2
       -59 -90 -32 6 -66 19 54 127 47 -105 18 55 55 72 -60 -46
0000f0 1a a0 30 83 3c c9 c2 d6 d0 3d a5 26 24 5f 7f bd
       26 -96 48 -125 60 -55 -62 -42 -48 61 -91 38 36 95 127 -67

sequential_4/sequential_1/model1/depthwise_conv2d_30/depthwise/ReadVariableOp/resource i1 [1, 3, 3, 64]
000000 f8 e9 b9 8f c6 09 e1 e0 07 ac 4d 47 f3 c5 e3 e5
       -8 -23 -71 -113 -58 9 -31 -32 7 -84 77 71 -13 -59 -29 -27
000010 81 f6 ea d5 cc f5 b6 03 ac e0 7f c9 87 fe 31 a8
       -127 -10 -22 -43 -52 -11 -74 3 -84 -32 127 -55 -121 -2 49 -88
000020 ae e4 a5 a9 d8 d3 3b 22 5e c8 47 46 aa c5 db bf
       -82 -28 -91 -87 -40 -45 59 34 94 -56 71 70 -86 -59 -37 -65
000030 e0 3a bf d4 ea e9 0c c3 84 65 29 5c 41 56 4f e8
       -32 58 -65 -44 -22 -23 12 -61 -124 101 41 92 65 86 79 -24
000040 c2 05 a7 aa 35 18 39 d0 10 61 b0 39 58 34 29 ec
       -62 5 -89 -86 53 24 57 -48 16 97 -80 57 88 52 41 -20
000050 55 81 b1 de 40 a3 db ef cb f4 41 48 7f d0 7f bd
       85 -127 -79 -34 64 -93 -37 -17 -53 -12 65 72 127 -48 127 -67
000060 b5 a5 b4 ca dc 2f db a5 7f 18 4d 03 93 20 0d f6
       -75 -91 -76 -54 -36 47 -37 -91 127 24 77 3 -109 32 13 -10
000070 e8 65 bc c2 6c 7e 16 c7 13 be c7 95 3d 46 7f 7f
       -24 101 -68 -62 108 126 22 -57 19 -66 -57 -107 61 70 127 127
000080 b6 fc 0e 84 01 e4 d5 1c 0b c3 00 95 ff ed b1 de
       -74 -4 14 -124 1 -28 -43 28 11 -61 0 -107 -1 -19 -79 -34
000090 4e 0f ff f5 cd d7 dc 1c b4 1e f0 11 dd 02 b9 9a
       78 15 -1 -11 -51 -41 -36 28 -76 30 -16 17 -35 2 -71 -102
0000a0 38 7f 81 76 12 ef ea d7 30 eb 15 e0 d5 15 ff 81
       56 127 -127 118 18 -17 -22 -41 48 -21 21 -32 -43 21 -1 -127
0000b0 24 ff f0 00 05 a7 fa 9b 34 f4 2a c7 ff ba 55 04
       36 -1 -16 0 5 -89 -6 -101 52 -12 42 -57 -1 -70 85 4
0000c0 7d 01 ab 81 29 3f 16 c8 1b 7f cd cd 28 58 7f aa
       125 1 -85 -127 41 63 22 -56 27 127 -51 -51 40 88 127 -86
0000d0 9c 9b 81 2d 0d cf 52 ad 90 27 63 db 7d ab 50 88
       -100 -101 -127 45 13 -49 82 -83 -112 39 99 -37 125 -85 80 -120
0000e0 c5 cc ac 23 f2 81 7f 81 81 c6 e6 7f 81 af 0a ad
       -59 -52 -84 35 -14 -127 127 -127 -127 -58 -26 127 -127 -81 10 -83
0000f0 81 14 c6 86 06 2c 7f e3 81 7f d8 20 78 7f 9c c3
       -127 20 -58 -122 6 44 127 -29 -127 127 -40 32 120 127 -100 -61

sequential_4/sequential_1/model1/depthwise_conv2d_31/depthwise/ReadVariableOp/resource i1 [1, 3, 3, 64]
000000 6e 66 9d b7 ac bb b8 5c e6 ad 4c 44 b8 6c 13 51
       110 102 -99 -73 -84 -69 -72 92 -26 -83 76 68 -72 108 19 81
000010 34 09 81 ea 2f c7 40 3f 45 7f 40 61 ae 9f 8b 81
       52 9 -127 -22 47 -57 64 63 69 127 64 97 -82 -97 -117 -127
000020 ad d8 cd d6 1f 70 52 d7 70 4d 5a e8 cd 39 34 83
       -83 -40 -51 -42 31 112 82 -41 112 77 90 -24 -51 57 52 -125
000030 7f b0 aa dd 70 0a 15 07 49 96 de 9f f1 ba d8 57
       127 -80 -86 -35 112 10 21 7 73 -106 -34 -97 -15 -70 -40 87
000040 7f 58 85 3f b9 8c 02 7f 5d d7 56 52 b7 7f 68 4f
       127 88 -123 63 -71 -116 2 127 93 -41 86 82 -73 127 104 79
000050 45 2a 8f 81 4f b8 5d 1a 69 73 6b 7f 96 8c c5 34
       69 42 -113 -127 79 -72 93 26 105 115 107 127 -106 -116 -59 52
000060 ee bf 98 c0 3d 7f 7f a8 7f 5f 4a a5 8d 44 43 81
       -18 -65 -104 -64 61 127 127 -88 127 95 74 -91 -115 68 67 -127
000070 59 81 81 8b f3 57 f1 be 51 a8 c7 d7 1b cb 0f 7f
       89 -127 -127 -117 -13 87 -15 -66 81 -88 -57 -41 27 -53 15 127
000080 2f e5 c2 4e fd be 11 37 7f cd 16 36 d4 4a 52 0e
       47 -27 -62 78 -3 -66 17 55 127 -51 22 54 -44 74 82 14
000090 17 44 c9 ad 20 ec 35 81 3f 08 4b 26 c3 bf 13 3f
       23 68 -55 -83 32 -20 53 -127 63 8 75 38 -61 -65 19 63
0000a0 b8 eb 81 ee 1f 02 3d e0 3b 00 fb c7 b6 2d 45 d3
       -72 -21 -127 -18 31 2 61 -32 59 0 -5 -57 -74 45 69 -45
0000b0 dc ca ad c2 8f 56 bd 81 f1 c5 d5 ef 13 ed 8d 36
       -36 -54 -83 -62 -113 86 -67 -127 -15 -59 -43 -17 19 -19 -115 54
0000c0 5a 5a ad 81 b9 99 81 58 29 81 57 51 ac 42 4e 7f
       90 90 -83 -127 -71 -103 -127 88 41 -127 87 81 -84 66 78 127
0000d0 5a f0 b3 fc 35 b5 6a 3c 35 65 66 40 9c 9e 81 a2
       90 -16 -77 -4 53 -75 106 60 53 101 102 64 -100 -98 -127 -94
0000e0 95 cc be 8e 62 74 db d8 26 57 7f b3 81 41 47 ea
       -107 -52 -66 -114 98 116 -37 -40 38 87 127 -77 -127 65 71 -22
0000f0 5a d1 1d b1 7d 34 dd 71 36 ae a9 85 8a 81 54 22
       90 -47 29 -79 125 52 -35 113 54 -82 -87 -123 -118 -127 84 34

sequential_4/sequential_1/model1/depthwise_conv2d_32/depthwise/ReadVariableOp/resource i1 [1, 3, 3, 128]
000000 da f5 17 7f cf 8a d5 b6 d3 81 1a 06 2c ba 5e 32
       -38 -11 23 127 -49 -118 -43 -74 -45 -127 26 6 44 -70 94 50
000010 e1 b6 fe 23 0f 0d 10 7f 0b 7f cc d3 eb ea c0 ec
       -31 -74 -2 35 15 13 16 127 11 127 -52 -45 -21 -22 -64 -20
000020 b3 e1 cb 2d a6 a1 af 08 a7 f5 c0 0f fa 12 02 84
       -77 -31 -53 45 -90 -95 -81 8 -89 -11 -64 15 -6 18 2 -124
000030 7f 6d b8 e3 ef 2d 07 9a f5 ea f0 5d 16 7f 3b a8
       127 109 -72 -29 -17 45 7 -102 -11 -22 -16 93 22 127 59 -88
000040 2c 90 c2 bb 7f cf c7 ef 2b f8 a6 4a 98 f2 36 e1
       44 -112 -62 -69 127 -49 -57 -17 43 -8 -90 74 -104 -14 54 -31
000050 7f e4 63 f5 04 c7 f7 99 f4 4d f2 06 c1 38 54 ac
       127 -28 99 -11 4 -57 -9 -103 -12 77 -14 6 -63 56 84 -84
000060 c4 57 a4 cd ef 0b 97 b5 d8 28 09 b3 fd f4 3b 72
       -60 87 -92 -51 -17 11 -105 -75 -40 40 9 -77 -3 -12 59 114
000070 e4 1c e4 7f a1 98 f6 a3 d3 c4 ef 1d 34 cd e8 a3
       -28 28 -28 127 -95 -104 -10 -93 -45 -60 -17 29 52 -51 -24 -93
000080 cb 23 7f 55 4b 93 f0 a8 7f 83 c1 b3 7f 81 ff d8
       -53 35 127 85 75 -109 -16 -88 127 -125 -63 -77 127 -127 -1 -40
000090 7f 91 81 6c c8 7f 97 a8 e0 f4 da d8 f5 c9 81 35
       127 -111 -127 108 -56 127 -105 -88 -32 -12 -38 -40 -11 -55 -127 53
0000a0 f9 0d 9b b4 b9 81 a8 0a d6 7f cb d4 ae 68 e8 50
       -7 13 -101 -76 -71 -127 -88 10 -42 127 -53 -44 -82 104 -24 80
0000b0 3d 6d b8 14 22 b4 93 d5 7a d3 81 7c cd b8 ea 32
       61 109 -72 20 34 -76 -109 -43 122 -45 -127 124 -51 -72 -22 50
0000c0 7f ab 36 89 6c c4 be ec a1 21 b0 7f be b6 ef f9
       127 -85 54 -119 108 -60 -66 -20 -95 33 -80 127 -66 -74 -17 -7
0000d0 44 d7 3c 11 d4 29 7f 33 7f 01 24 93 7f 1d 81 c4
       68 -41 60 17 -44 41 127 51 127 1 36 -109 127 29 -127 -60
0000e0 2e 7f 97 d6 7f 47 94 d5 9f 09 3f 93 81 39 ea 08
       46 127 -105 -42 127 71 -108 -43 -97 9 63 -109 -127 57 -22 8
0000f0 d3 70 35 62 91 9b b8 0f 7f ea a5 36 01 7f 05 a8
       -45 112 53 98 -111 -101 -72 15 127 -22 -91 54 1 127 5 -88

sequential_4/sequential_1/model1/depthwise_conv2d_33/depthwise/ReadVariableOp/resource i1 [1, 3, 3, 128]
000000 15 7f cf fd ea c2 30 2a db 15 18 d2 2f ce d0 c6
       21 127 -49 -3 -22 -62 48 42 -37 21 24 -46 47 -50 -48 -58
000010 7f ae fa 13 7f 7f ce 63 49 7f 7f c4 7f 01 df 18
       127 -82 -6 19 127 127 -50 99 73 127 127 -60 127 1 -33 24
000020 2f d2 4f 2b 27 0a a4 0f e0 38 0e d6 a8 01 0d 7f
       47 -46 79 43 39 10 -92 15 -32 56 14 -42 -88 1 13 127
000030 7f af fc 7f cc b4 9e c7 3c 03 d5 27 02 8f cc ae
       127 -81 -4 127 -52 -76 -98 -57 60 3 -43 39 2 -113 -52 -82
000040 0a 2e 01 25 41 e5 ad 98 94 b2 fe b5 c6 fc 8c a4
       10 46 1 37 65 -27 -83 -104 -108 -78 -2 -75 -58 -4 -116 -92
000050 db b4 e7 06 3e 42 99 6d 4f 01 7f a0 bc 30 f2 ec
       -37 -76 -25 6 62 66 -103 109 79 1 127 -96 -68 48 -14 -20
000060 0a 17 05 7f 24 f7 c5 97 90 0f b1 3b ec c4 7f 71
       10 23 5 127 36 -9 -59 -105 -112 15 -79 59 -20 -60 127 113
000070 fe 51 66 5d 7f c3 cd e5 fc b4 c8 33 cf ed 39 21
       -2 81 102 93 127 -61 -51 -27 -4 -76 -56 51 -49 -19 57 33
000080 c4 f5 be 59 23 b5 7b 7f 71 3a 7f ea e3 d2 7f cf
       -60 -11 -66 89 35 -75 123 127 113 58 127 -22 -29 -46 127 -49
000090 1e d7 e3 7f fb 96 b5 7f 7f f3 68 e8 0c 00 ba 7f
       30 -41 -29 127 -5 -106 -75 127 127 -13 104 -24 12 0 -70 127
0000a0 69 b4 43 ba 77 5f 7b 6a f1 7f 81 2c 81 4e 30 10
       105 -76 67 -70 119 95 123 106 -15 127 -127 44 -127 78 48 16
0000b0 e9 e7 2e f8 e7 81 c8 be 36 5b a0 32 14 7f e1 9b
       -23 -25 46 -8 -25 -127 -56 -66 54 91 -96 50 20 127 -31 -101
0000c0 4c 30 6d 7f 4b 1f d1 ce e0 85 ec ad 81 7a b9 fd
       76 48 109 127 75 31 -47 -50 -32 -123 -20 -83 -127 122 -71 -3
0000d0 15 2d 3d 81 9f 3e 36 81 66 05 28 aa 9f 89 7f da
       21 45 61 -127 -97 62 54 -127 102 5 40 -86 -97 -119 127 -38
0000e0 7f f7 7f 50 7f 0f ef 0b 05 f0 0b 3f 7f a0 57 35
       127 -9 127 80 127 15 -17 11 5 -16 11 63 127 -96 87 53
0000f0 9b 7f 7f 7f 13 d6 3c 4e 59 cb 81 b3 11 d4 8f 53
       -101 127 127 127 19 -42 60 78 89 -53 -127 -77 17 -44 -113 83

sequential_4/sequential_1/model1/depthwise_conv2d_34/depthwise/ReadVariableOp/resource i1 [1, 3, 3, 128]
000000 f5 ec 12 48 81 52 15 de 77 10 4d 12 2d f7 17 dd
       -11 -20 18 72 -127 82 21 -34 119 16 77 18 45 -9 23 -35
000010 fb 1d 47 3b ee d1 f8 9f d8 f8 16 15 ba dd a5 b9
       -5 29 71 59 -18 -47 -8 -97 -40 -8 22 21 -70 -35 -91 -71
000020 ba d9 7f 35 04 bc 7f 53 7f c9 7f e0 53 54 f3 f0
       -70 -39 127 53 4 -68 127 83 127 -55 127 -32 83 84 -13 -16
000030 d3 d5 d8 76 13 7f 81 0e f3 a1 0d c0 29 c2 7f 24
       -45 -43 -40 118 19 127 -127 14 -13 -95 13 -64 41 -62 127 36
000040 7f 9f 40 f5 c0 81 b4 38 1d aa c7 f4 10 d5 30 c3
       127 -97 64 -11 -64 -127 -76 56 29 -86 -57 -12 16 -43 48 -61
000050 86 f8 a3 73 7f 2c ee 0f 7f 97 b6 f1 ac 4b dd ba
       -122 -8 -93 115 127 44 -18 15 127 -105 -74 -15 -84 75 -35 -70
000060 98 7f 1e 20 f5 7f 8d 81 19 c0 17 29 23 7f b5 81
       -104 127 30 32 -11 127 -115 -127 25 -64 23 41 35 127 -75 -127
000070 15 43 07 7f 54 47 c9 a7 ae 9f 78 d2 d8 be 2b 81
       21 67 7 127 84 71 -55 -89 -82 -97 120 -46 -40 -66 43 -127
000080 f4 72 fe 27 8e 81 14 0e 6c 7f 4e 1a 24 1d 7d be
       -12 114 -2 39 -114 -127 20 14 108 127 78 26 36 29 125 -66
000090 71 98 7f 8b 53 81 c3 5c 34 d7 13 dd c3 a2 0b 9d
       113 -104 127 -117 83 -127 -61 92 52 -41 19 -35 -61 -94 11 -99
0000a0 e4 a8 45 0d e2 e8 2a cc 7d 99 30 b7 11 db 7f cb
       -28 -88 69 13 -30 -24 42 -52 125 -103 48 -73 17 -37 127 -53
0000b0 d6 24 c3 e4 f0 32 83 61 f0 ce f1 d3 6b 9c 1d 25
       -42 36 -61 -28 -16 50 -125 97 -16 -50 -15 -45 107 -100 29 37
0000c0 59 a4 ef 08 92 96 c1 1f e9 b6 b3 32 cc b5 7f a4
       89 -92 -17 8 -110 -106 -63 31 -23 -74 -77 50 -52 -75 127 -92
0000d0 81 a9 1b f9 5e 21 00 ee 64 a4 0a 09 a8 18 a0 1f
       -127 -87 27 -7 94 33 0 -18 100 -92 10 9 -88 24 -96 31
0000e0 99 43 25 f0 13 32 39 2c bf 36 2f 3b 31 38 8f dd
       -103 67 37 -16 19 50 57 44 -65 54 47 59 49 56 -113 -35
0000f0 7f 7f 8f 22 2a 2c c6 94 9d c2 08 c3 dd cc 72 bd
       127 127 -113 34 42 44 -58 -108 -99 -62 8 -61 -35 -52 114 -67

sequential_4/sequential_1/model1/depthwise_conv2d_35/depthwise/ReadVariableOp/resource i1 [1, 3, 3, 128]
000000 24 c9 09 27 d0 ed 29 1c d9 25 e8 86 05 c4 51 ee
       36 -55 9 39 -48 -19 41 28 -39 37 -24 -122 5 -60 81 -18
000010 23 12 e2 b7 bd f0 32 29 e0 57 1d d4 fc cd a1 23
       35 18 -30 -73 -67 -16 50 41 -32 87 29 -44 -4 -51 -95 35
000020 a9 0c b2 77 07 79 ed a1 ed 25 fc 4a 81 40 bf b1
       -87 12 -78 119 7 121 -19 -95 -19 37 -4 74 -127 64 -65 -79
000030 39 e0 14 be da 1e c3 58 de 7b f2 1d e8 c4 7f c3
       57 -32 20 -66 -38 30 -61 88 -34 123 -14 29 -24 -60 127 -61
000040 7f e1 07 0b 7f cb 03 03 f9 c6 1d 99 7f 70 25 ee
       127 -31 7 11 127 -53 3 3 -7 -58 29 -103 127 112 37 -18
000050 0b c2 ef b6 a6 9f 6b 81 e7 cc 9c 47 ec 0e e5 17
       11 -62 -17 -74 -90 -97 107 -127 -25 -52 -100 71 -20 14 -27 23
000060 1c d2 cb 98 a3 7f bd e7 f7 19 2a 01 ec 6c 45 ca
       28 -46 -53 -104 -93 127 -67 -25 -9 25 42 1 -20 108 69 -54
000070 a9 22 f2 f3 45 81 7f c1 f4 0b ee b9 81 e5 13 43
       -87 34 -14 -13 69 -127 127 -63 -12 11 -18 -71 -127 -27 19 67
000080 6b cc ab 12 9b 7f 05 fe 41 51 51 dc 46 bc 7f 5d
       107 -52 -85 18 -101 127 5 -2 65 81 81 -36 70 -68 127 93
000090 1d d6 bd 81 7f 7f 18 0a 06 15 16 ce 34 af 8a bc
       29 -42 -67 -127 127 127 24 10 6 21 22 -50 52 -81 -118 -68
0000a0 bd 61 40 26 75 66 c6 be d4 22 19 56 da 0b c1 ea
       -67 97 64 38 117 102 -58 -66 -44 34 25 86 -38 11 -63 -22
0000b0 ed 7a ec 68 1a 38 c0 40 00 30 33 7f cb a4 40 ac
       -19 122 -20 104 26 56 -64 64 0 48 51 127 -53 -92 64 -84
0000c0 0f 51 7f 17 e5 99 ee e6 7d a3 10 c1 1d 7f 97 2b
       15 81 127 23 -27 -103 -18 -26 125 -93 16 -63 29 127 -105 43
0000d0 1b bc 01 c1 ef d6 7f f5 08 da 81 fc 18 03 81 ec
       27 -68 1 -63 -17 -42 127 -11 8 -38 -127 -4 24 3 -127 -20
0000e0 cb cb 10 19 bd 58 37 e6 57 ec 05 41 24 7f 04 91
       -53 -53 16 25 -67 88 55 -26 87 -20 5 65 36 127 4 -111
0000f0 ef 8c d6 99 7c 33 3a 22 c9 68 ed da e9 f2 e8 26
       -17 -116 -42 -103 124 51 58 34 -55 104 -19 -38 -23 -14 -24 38

sequential_4/sequential_1/model1/depthwise_conv2d_36/depthwise/ReadVariableOp/resource i1 [1, 3, 3, 128]
000000 3a ca 33 c7 6a 20 0a b2 0f 63 b1 a9 7f 4b fe 8a
       58 -54 51 -57 106 32 10 -78 15 99 -79 -87 127 75 -2 -118
000010 6e 44 a0 95 dd cf bb a8 60 fb cb c1 10 04 1a 64
       110 68 -96 -107 -35 -49 -69 -88 96 -5 -53 -63 16 4 26 100
000020 c0 71 9f 18 eb a1 e9 7f da e4 44 6d 61 eb 17 61
       -64 113 -97 24 -21 -95 -23 127 -38 -28 68 109 97 -21 23 97
000030 c8 81 c1 f6 9e a8 37 03 09 c0 d9 04 23 b8 76 d5
       -56 -127 -63 -10 -98 -88 55 3 9 -64 -39 4 35 -72 118 -43
000040 5b a4 cb b1 23 14 a4 d2 e4 9f 69 da f7 12 b8 26
       91 -92 -53 -79 35 20 -92 -46 -28 -97 105 -38 -9 18 -72 38
000050 fd d2 96 ce 81 e7 f1 b1 d0 8f 28 0d e2 17 7f 81
       -3 -46 -106 -50 -127 -25 -15 -79 -48 -113 40 13 -30 23 127 -127
000060 04 b4 b8 f8 12 7f 90 eb 39 2e 7f 12 eb f9 b8 b1
       4 -76 -72 -8 18 127 -112 -21 57 46 127 18 -21 -7 -72 -79
000070 e3 ba 59 0e 7f 7f f9 e2 2d 55 7f f6 c1 3e c3 67
       -29 -70 89 14 127 127 -7 -30 45 85 127 -10 -63 62 -61 103
000080 de da c9 a8 c0 7f f3 18 28 e1 0f af 76 01 81 00
       -34 -38 -55 -88 -64 127 -13 24 40 -31 15 -81 118 1 -127 0
000090 61 02 c0 3f 04 81 7f c7 7f d9 10 f1 7f ef 42 4c
       97 2 -64 63 4 -127 127 -57 127 -39 16 -15 127 -17 66 76
0000a0 05 36 bb c6 f7 de 02 06 20 81 11 dc 69 a7 0b 16
       5 54 -69 -58 -9 -34 2 6 32 -127 17 -36 105 -89 11 22
0000b0 d1 bb 81 7b 94 98 0b 00 1c cf a3 73 fa 01 3e 81
       -47 -69 -127 123 -108 -104 11 0 28 -49 -93 115 -6 1 62 -127
0000c0 e2 ef eb 01 fb f0 be 99 1b b4 e3 03 24 2e 0d 21
       -30 -17 -21 1 -5 -16 -66 -103 27 -76 -29 3 36 46 13 33
0000d0 ef 4e b6 ca ef e4 d5 f0 bb 36 b5 7f bb 76 39 9f
       -17 78 -74 -54 -17 -28 -43 -16 -69 54 -75 127 -69 118 57 -97
0000e0 30 fe c3 d6 1f 20 d1 f6 40 ff 16 81 b7 72 81 e6
       48 -2 -61 -42 31 32 -47 -10 64 -1 22 -127 -73 114 -127 -26
0000f0 31 df 48 e6 e1 37 2a 97 fa 69 1f 0d 81 ba cf 16
       49 -33 72 -26 -31 55 42 -105 -6 105 31 13 -127 -70 -49 22

sequential_4/sequential_1/model1/depthwise_conv2d_37/depthwise/ReadVariableOp/resource i1 [1, 3, 3, 128]
000000 0a 0b 6d 3b 81 88 81 31 cb d3 55 56 13 cb 93 43
       10 11 109 59 -127 -120 -127 49 -53 -45 85 86 19 -53 -109 67
000010 d9 4d f2 f7 a5 ff 81 7f 06 2b 7f 1e ee ff 32 1a
       -39 77 -14 -9 -91 -1 -127 127 6 43 127 30 -18 -1 50 26
000020 8f a0 7f c3 37 11 7e 95 08 c8 a1 b9 81 06 f8 ef
       -113 -96 127 -61 55 17 126 -107 8 -56 -95 -71 -127 6 -8 -17
000030 0c a5 3c e9 1c ff 3f 48 7f af 26 44 30 e1 30 12
       12 -91 60 -23 28 -1 63 72 127 -81 38 68 48 -31 48 18
000040 81 d3 ec e0 49 13 7f 3d 81 c6 0f 7f 2a b3 53 ef
       -127 -45 -20 -32 73 19 127 61 -127 -58 15 127 42 -77 83 -17
000050 7f ea 2c ee 06 7f 81 c8 0e cc 0e 2c d3 7f ff d9
       127 -22 44 -18 6 127 -127 -56 14 -52 14 44 -45 127 -1 -39
000060 2f 27 81 11 81 39 42 88 72 04 2f de 01 df f6 49
       47 39 -127 17 -127 57 66 -120 114 4 47 -34 1 -33 -10 73
000070 f0 31 ad 45 81 4f fa 52 ed 27 14 07 3a 7f f9 56
       -16 49 -83 69 -127 79 -6 82 -19 39 20 7 58 127 -7 86
000080 e4 78 20 2c ff a7 29 76 e2 1a 45 67 7a 30 b3 24
       -28 120 32 44 -1 -89 41 118 -30 26 69 103 122 48 -77 36
000090 81 26 e4 1e 94 78 c4 39 d8 22 db d5 db fa 7f c9
       -127 38 -28 30 -108 120 -60 57 -40 34 -37 -43 -37 -6 127 -55
0000a0 e5 0d 1b 12 52 ef 4d e0 22 47 ca a2 c3 ce 77 92
       -27 13 27 18 82 -17 77 -32 34 71 -54 -94 -61 -50 119 -110
0000b0 18 fd 28 df 15 e9 0e 38 22 81 2e 34 35 29 1e ca
       24 -3 40 -33 21 -23 14 56 34 -127 46 52 53 41 30 -54
0000c0 cf db 81 0e 7f fc 12 3b df 0e 7f 41 78 81 3f a6
       -49 -37 -127 14 127 -4 18 59 -33 14 127 65 120 -127 63 -90
0000d0 58 7f 7f f3 fa e9 8f 49 7d c3 5e e2 81 10 81 f0
       88 127 127 -13 -6 -23 -113 73 125 -61 94 -30 -127 16 -127 -16
0000e0 5c 01 e0 34 95 1e 7f b3 f5 44 04 18 17 0d 15 7f
       92 1 -32 52 -107 30 127 -77 -11 68 4 24 23 13 21 127
0000f0 7f 2d 89 0b 9d b7 81 7f d2 44 89 b5 48 63 1d 31
       127 45 -119 11 -99 -73 -127 127 -46 68 -119 -75 72 99 29 49

sequential_4/sequential_1/model1/depthwise_conv2d_38/depthwise/ReadVariableOp/resource i1 [1, 3, 3, 256]
000000 4e 47 27 f7 ec f4 0a bb 7f a3 02 7f 29 1f 2f f9
       78 71 39 -9 -20 -12 10 -69 127 -93 2 127 41 31 47 -7
000010 f1 00 eb 29 04 18 2a 1d cc c3 26 fd 04 a2 6f 79
       -15 0 -21 41 4 24 42 29 -52 -61 38 -3 4 -94 111 121
000020 00 73 19 50 81 78 c6 19 39 4f f7 da fd bf 99 03
       0 115 25 80 -127 120 -58 25 57 79 -9 -38 -3 -65 -103 3
000030 1d 04 0c 33 d2 36 7f 72 c3 0b 7f 02 81 0a b2 66
       29 4 12 51 -46 54 127 114 -61 11 127 2 -127 10 -78 102
000040 08 81 e0 8e c2 6a 29 f6 fd d5 a1 2d b8 de ae e4
       8 -127 -32 -114 -62 106 41 -10 -3 -43 -95 45 -72 -34 -82 -28
000050 f4 7f 7b 14 fd 37 d0 18 81 d9 6a be db f9 ff 81
       -12 127 123 20 -3 55 -48 24 -127 -39 106 -66 -37 -7 -1 -127
000060 d4 0c cb a5 26 c8 a5 11 ce 0e ea fb fd 22 ee 81
       -44 12 -53 -91 38 -56 -91 17 -50 14 -22 -5 -3 34 -18 -127
000070 72 2a 34 f6 14 e2 f7 3a 46 d8 d5 4d 22 2b d4 8a
       114 42 52 -10 20 -30 -9 58 70 -40 -43 77 34 43 -44 -118
000080 25 f9 40 3e 23 b1 2c 7b d2 b0 99 c8 fd 25 d6 d4
       37 -7 64 62 35 -79 44 123 -46 -80 -103 -56 -3 37 -42 -44
000090 dd be fe b3 30 cf 3c ec 0f b7 24 1b 26 5c 81 6e
       -35 -66 -2 -77 48 -49 60 -20 15 -73 36 27 38 92 -127 110
0000a0 e4 7f 0e 81 1e 48 7f da 44 d9 0e de 7f b3 f8 e5
       -28 127 14 -127 30 72 127 -38 68 -39 14 -34 127 -77 -8 -27
0000b0 16 bf f1 cf 01 d7 15 1e 13 f4 10 0b e5 7f 14 ff
       22 -65 -15 -49 1 -41 21 30 19 -12 16 11 -27 127 20 -1
0000c0 4d 2a ec a4 62 b7 d9 0a cc e1 3c 7f 28 0f 16 2b
       77 42 -20 -92 98 -73 -39 10 -52 -31 60 127 40 15 22 43
0000d0 15 67 32 8d fe 0d b0 44 ba ff b0 39 cf 42 63 50
       21 103 50 -115 -2 13 -80 68 -70 -1 -80 57 -49 66 99 80
0000e0 1b f3 35 27 e2 31 c2 de cf 81 eb 81 c9 ca ae 1f
       27 -13 53 39 -30 49 -62 -34 -49 -127 -21 -127 -55 -54 -82 31
0000f0 6d c2 ce ed f6 4c f3 60 e7 38 81 17 a6 2f dc 45
       109 -62 -50 -19 -10 76 -13 96 -25 56 -127 23 -90 47 -36 69
